saved/classifier_base_gru_motion_20_120/motion.pt (torch, 39439 bytes, 14 tensors)

gru0.weight_ih_l0 f4 [60, 72]
00000000: a78e 703b 97a9 ad3c 5f76 77bd 2df8 80be
00000010: af6c a4bd 1718 0bbe e447 cbbd 9cd3 323e
00000020: faa0 c03c b8d5 8bbe 85e9 333e c0c3 fd3d
00000030: cb22 5dbe 5f38 b93e 4ae2 a4bc 76a1 1abe
00000040: efc8 b7be 4936 543d 0300 a43d 6b4d 103e
00000050: 99ae a23d 6d35 edbd b56f 71bd d833 9b3e
00000060: 00a1 7f3d aa95 03bd 4b7b 183e ecd1 8b3e
00000070: 6c04 cd3d 9353 2a3e 1443 63be 5072 593e
00000080: b0bc e9bd be3f 633e 413e 66be a7a6 40bd
00000090: 2c7f 633d 287b 3e3e d27e 80be b59d 293d
000000a0: 0400 013e 121c dfbd 71f6 133e a6c6 23be
000000b0: 5e67 e0ba 9f0b 623d a210 96bd 7bb8 22be
000000c0: 970b 9e3d cf16 8e3d 6515 2d3e a47b 58bd
000000d0: 5bac 793e 33b2 efbc 5717 673e ea4a c1be
000000e0: 3a96 e73c 1086 b03d 9e3c 9cbe bb56 d33c
000000f0: 50a3 9b3c c5b3 fbbd b0b8 bbbd 5550 05bc
00000100: 02d8 f6bd d54b d23d 1850 86bd 3ca0 53be
00000110: 46f9 3ebe d79b c83d 92d2 14bd d054 02be
00000120: e2e8 923e 0a0f 8fbe 2862 433e 4dd7 9e3d
00000130: 86f7 1ebe 94b3 0cbe db4c e23d 9d25 313e
00000140: 3f29 243e fd1e 80be 1969 b83d 1b02 3bbe
00000150: fcf2 fa3d 9e85 6b3e 6bcf f83d 5b30 cb3d
00000160: a513 00be 6537 50be 836c 4bbd 98e0 1bbe
00000170: 8256 a13d 0926 81be a60f e6bc b2fa 4c3d
00000180: 6c8f 733d 3b6a 4a3e bc92 38be 1bc9 d4bd
00000190: d16f f83d 5ab9 d1bb 345f f7bb 1866 99bd
000001a0: 4d04 07be bcbe a93e c3fd f8bd 6145 bdbd
000001b0: 695b 87bd 8b1b 623d a5b3 de3d 44e8 18be
000001c0: 38a9 dd3d e74d b3be 2e76 953d 3b90 88be
000001d0: 66dd b73d 36b0 d83d d3e6 82be 1223 26be
000001e0: 66a1 9c3d 5c95 f03d a865 2dbc a0f2 62be
000001f0: e6a6 7a3d 8628 733d 07ed 3b3e ea7a 2dbe
00000200: bb20 a43c daaf 873e e798 41bd 34e9 72be
00000210: d8fe be3d f331 30be 5e7e 103e 84c6 49be
00000220: 9a4f eaba 0c29 f03c 5036 123d 0f88 09be
00000230: cc39 10bd 8be3 06be 5a15 513e 3a55 103e
00000240: f41d 5abd b6ec 223e 1e4e 86be 5377 623c
00000250: 360a 04be 565a 09be 3f81 e3bd 4ce5 23be
00000260: 5940 d53d df5d d7bd 9472 ff3d 73ec f63d
00000270: 29e0 0fbe c15a 963e 8904 803e 324a 39be
00000280: 240b 2dbe e191 a83d e4b7 f2bb 98f3 53be
00000290: 93b3 c8bb 298b 7fbe 27e3 3dbe e8f5 0ebd
000002a0: 196f 463d 3215 103a b3e7 5a3d e45a 5f3d
000002b0: 3244 45bd 5e6c 39be 4bac 4f3c c3f9 273d
000002c0: e9ad 0c3e dd05 063e f0e1 f53c baa4 2d3e
000002d0: ba47 a73d 5255 e53d 18f5 593e 121c 51be
000002e0: fae3 773e f77f eb3c cab6 bdbe f38b 7cbe
000002f0: 48a1 a73e 3a47 d6bb 2307 1fbe 8c6b 35bd
00000300: 193e f53d e33d 41be 04b5 1b3e 0b6a bfbd
00000310: e1af 493e 38d1 08be 0a72 6b3e 3380 c73d
00000320: a4f5 2b3d fd36 943e 870f 4b3d 570f 74be
00000330: 4b15 af3d d861 27be 388e 5c3e 959a c6bc
00000340: f738 183e da96 cebd 99c2 7abd 2ec3 0c3d
00000350: 989b 0b3e 7d74 543d fe0b a3be 4392 d0bd
00000360: 0142 f83c 126c 70be 66d0 383d 7c4e 343e
00000370: 7dfd 883d 0ba1 023e e87a d83d b973 41be
00000380: c0cc 3c3d 1bea b2bd b6cb 653d b4cf eb3d
00000390: cea0 2fbd eabe 623e a5c4 2f3e b673 3bbe
000003a0: 7462 8dbd 678f 853d 7ac7 3bbe 7e38 92be
000003b0: 0331 2bbc af27 513e c772 4cbe e3fb c03d
000003c0: 985c 8a3b ef88 903e 6f45 10be 9dbd 72be
000003d0: d0a4 f83c 69b9 6f3c 0e6e 43be 9106 613e
000003e0: 9fa0 923d 3958 6c3e 9de6 963d c979 a6bd
000003f0: e5c3 2dbe 235b 143e b2bb 073c abde 443e
0.0036706121 0.02119903 -0.06041562 -0.25189343 -0.08028542 -0.13583408 -0.099258214 0.17463535
0.02351426 -0.27311492 0.1756955 0.12390852 -0.21595304 0.3617582 -0.020127434 -0.15100655
-0.35895488 0.051809583 0.08007815 0.14092033 0.07943458 -0.11582456 -0.058944423 0.3031299
0.0624094 -0.032125153 0.14890783 0.27308595 0.10010609 0.16633444 -0.22193557 0.21235013
-0.114129424 0.22192284 -0.22484685 -0.047033932 0.055541202 0.18601668 -0.25096756 0.041410167
0.12597662 -0.10894026 0.14449479 -0.15993747 -0.001712065 0.055186864 -0.07327391 -0.15890686
0.07717054 0.06937944 0.16902693 -0.052852288 0.24382155 -0.029259777 0.22567497 -0.37752467
0.028269876 0.086193204 -0.30514997 0.025798192 0.018998772 -0.12290148 -0.09166086 -0.008136828
-0.12052919 0.1026837 -0.065582454 -0.20666593 -0.18649778 0.09795349 -0.036333628 -0.12727666
0.286933 -0.2794116 0.19080412 0.07755909 -0.1552411 -0.13740379 0.11049815 0.17299505
0.16031359 -0.25023642 0.09004421 -0.18262522 0.12253377 0.2300019 0.12148937 0.099213324
-0.12507494 -0.20333631 -0.04966403 -0.15222394 0.07877828 -0.2522433 -0.028083634 0.05004377
0.05946295 0.19767086 -0.18024725 -0.1038992 0.12130702 -0.0064002695 -0.007549191 -0.07490176
-0.13185234 0.3315333 -0.12157776 -0.092417486 -0.06609232 0.05520205 0.10874108 -0.14932352
0.108232915 -0.35020372 0.072979316 -0.2667254 0.08977775 0.105804846 -0.2556673 -0.16224316
0.07647972 0.11747238 -0.010583319 -0.22162867 0.061194323 0.059364818 0.18352138 -0.16941419
0.020035138 0.26501352 -0.04726496 -0.23721772 0.09325951 -0.17206554 0.14110705 -0.19704634
-0.0017876506 0.029316448 0.035696328 -0.13430808 -0.03521137 -0.13172738 0.20418301 0.14095011
-0.05325122 0.1591061 -0.26231474 0.013822394 -0.1289452 -0.13413367 -0.11108636 -0.16005439
0.10412664 -0.10515951 0.12473026 0.12056818 -0.14050354 0.29366115 0.2500346 -0.1809471
-0.16898781 0.08230949 -0.0074071754 -0.20698392 -0.0061249225 -0.24955429 -0.18543683 -0.034902483
0.048445795 0.00054963224 0.05344362 0.05453004 -0.04816074 -0.18107745 0.012675355 0.041009676
0.13738216 0.13088174 0.030014962 0.1695737 0.08167978 0.11197914 0.21284902 -0.20420864
0.2420806 0.028747542 -0.3705352 -0.24662761 0.32740235 -0.0065392526 -0.15530066 -0.044292018
0.11974735 -0.18871264 0.1520577 -0.09346398 0.19695999 -0.1336106 0.22992721 0.09741249
0.041982308 0.28948203 0.049575355 -0.23833977 0.08548983 -0.16345918 0.21538627 -0.024243632
0.1486548 -0.100873664 -0.06122074 0.034365825 0.13633573 0.051868904 -0.31845087 -0.10184147
0.03030491 -0.23478726 0.04512062 0.17608064 0.06688974 0.12756746 0.105703175 -0.18891801
0.046093702 -0.08736058 0.056102477 0.115142256 -0.042877965 0.2214314 0.17164858 -0.18305859
-0.06903544 0.065214925 -0.18337813 -0.28558725 -0.010448697 0.20425294 -0.19965659 0.094230436
0.004222464 0.28229472 -0.14088987 -0.23705144 0.030352026 0.014631608 -0.19084951 0.21975161
0.07159542 0.2308053 0.07368205 -0.081286974 -0.16969259 0.14487891 0.008284496 0.19225566

gru0.weight_hh_l0 f4 [60, 20]
00000000: bd38 fc3d 14d8 12be a9e6 9c3d c9f6 27be
00000010: 305f 023d d787 993d b1f5 413e cb6d 403d
00000020: c138 49be d914 33be f84a 323e da05 29be
00000030: a524 4abe 9153 4fbd 20ef 36be 8818 123e
00000040: ff78 963e 7134 a4be 6ca3 8abe 6dd6 fb3d
00000050: 0867 5d3e dc29 a53d c6f1 8c3e a7dc 323e
00000060: ff9e 783e f93e 6dbe 571f 153e 8b3b a43c
00000070: 1993 623e cc4b 243e 5b40 053e 8eb4 60be
00000080: 8523 8dbe dacc 1d3d 47bd 3e3e bf3a e9bd
00000090: f7d5 8e3e 8f4d b3be 82b2 57be 4c66 b23d
000000a0: 8a48 8cbe 23f7 9fbe 6322 cb3e 8e2f d5bd
000000b0: d0b8 9f3d ffe3 edbb e3ac 24bc 2bbc 3b3e
000000c0: 00f1 b2be 9013 f73d 1a00 163d ac0f 253e
000000d0: 342c 97be 10de 2b3e 88cc 62be 9391 9dbd
000000e0: e4f4 e43d 8081 b23c 4645 16bb 7c70 5e3e
000000f0: b652 203e 1815 fb3d 156b f3bc b793 693e
00000100: bc4a e13d 9a42 453d 001c 3a3e 5ced 2dbd
00000110: c060 283e de8d c63d c889 fabd 266b 10be
00000120: a95d 023e 73b4 3d3e 5ada 99be 91ce 1b3e
00000130: b7ae 26be e5b9 30be 4af6 3ebd 16eb e6bd
00000140: e299 bb3d 0d91 353e c860 153e 4706 48be
00000150: 17fd c2bd 848f 13be 126c 8ebd 095c f1bb
00000160: bf89 9fbe 527e 183d bc58 503e dc53 06be
00000170: 26d4 16bd 545d efbc 409b 75be 2bae 443e
00000180: 95ac 26be 8683 0ebe 5da0 5c3e cd1c d43c
00000190: 621d 7b3e 5efb 27be 54c5 78bd f72e 1bbe
000001a0: f614 25be f523 38be eaa5 1ebd cc53 d6bd
000001b0: 9ce1 3c3e af85 d4bd 7cef 52be 0718 7ebe
000001c0: ea39 7bbd 5785 c4bd 503e 0e3e 1d65 a73e
000001d0: caa0 06be 06db 1abe e263 84bd 3d81 603e
000001e0: 7e08 d63c 496e 7f3c 8cee 443e 33a6 25be
000001f0: 5a9e 0c3d ab97 3cbd 962a e1bd 807b 8dbd
00000200: 389e b1be 1222 8d3d 8d72 9b3d 5819 ed3d
00000210: 0add 5fbe 10b8 8a3d 3ec6 61bc 527e 1a3e
00000220: d0ea 18be 5075 553e 4219 ccbd eb14 35bd
00000230: a3a7 53be dfd5 113e 7126 43be 8984 37be
00000240: 7f16 2c3e 269c 30bd 76b9 8cbe 4b5c 2c3d
00000250: a7bb 26bd bf56 953d 2af4 273c 8d26 4c3e
00000260: 7041 0e3e cf64 febd 593d 92be a5c6 0a3e
00000270: c091 aa3d b6a5 77bd a7b8 e9bd ea84 7ebe
00000280: cf8c 6dbe 0afe 99bd c8ff 6a3a 75c4 42be
00000290: a29f 9cbd 18f8 103e 0177 54bd f9e9 27be
000002a0: 1ef1 383c 60f2 24be 5a98 5e3e 81e7 393e
000002b0: 2080 01ba 3d01 1bbd 5df1 5b3d a433 4b3d
000002c0: 485e e3bd 2a6a 75be 60f8 83be 96d9 82be
000002d0: 7c89 193e 1f9a 303e f0bb d8bb 740a 9dbc
000002e0: 46a0 873d c7bc 273d 01a5 ce3d a2b1 4dbe
000002f0: f87f 843e aae8 86be 726d 6f3d e12a 93be
00000300: eb12 81be 5f4e a63e 8926 bcbd edd4 43bd
00000310: 8894 9f3e b111 fc3d 07ff cb3d 3790 00be
00000320: c9f7 95bd a6e1 0fbe 1506 633e 9b74 f03d
00000330: 710b 3ebc 3d68 54be 6e4c 113e 4d63 aebc
00000340: 8a66 573e b5cf 8abd 1d3c 94be a908 a23e
00000350: 8e12 65be f08d 673e 175b 15bd a77e d13c
00000360: fb97 493e 3e20 a7be 16eb 63be 6416 913d
00000370: 1f2d 90bc f9a0 3f3c c2cd c43d 2bb8 24bd
00000380: 89c1 71bd 68c5 083d b3aa debd bfa5 0b3e
00000390: bae1 39bc a10e 023e 9679 953e e675 f03d
000003a0: 7897 6b3d 5509 a2bd 3384 adbe c89f 7dbe
000003b0: e343 9fbd 2232 293d 2a99 473d b571 c7bd
000003c0: 88b7 733e 0941 4ebe ab3c 8a3e 648d 8d3d
000003d0: 036f 7f3d 2902 083e cc08 1a3d 1f36 5e3e
000003e0: c1e1 81be 08bc 1a3e 69f9 063d 1219 cd3b
000003f0: 2601 73be 9bb0 923c c090 f3bd af30 02be
0.123155095 -0.1434024 0.076611824 -0.16402735 0.03182906 0.074966125 0.1894138 0.046979707
-0.19650556 -0.17488421 0.17411411 -0.16506138 -0.19740541 -0.050616805 -0.17864656 0.1426717
0.29389188 -0.3207126 -0.27077806 0.12296758 0.21621335 0.08064625 0.27528208 0.17466985
0.24279402 -0.23168553 0.14562736 0.020047924 0.22126426 0.16044539 0.13012831 -0.21943876
-0.27566162 0.03852544 0.18626891 -0.11388158 0.27897617 -0.3502011 -0.21064189 0.08710918
-0.27399093 -0.31243238 0.39674672 -0.10409461 0.07798922 -0.0072598453 -0.010050985 0.18333499
-0.34949493 0.12064278 0.03662119 0.1611926 -0.29525912 0.16783929 -0.22148335 -0.07693782
0.11179522 0.021790266 -0.0022929474 0.21722597 0.15656552 0.12259883 -0.029714147 0.22810255
0.110005826 0.04815922 0.18174744 -0.04246269 0.16443157 0.09695028 -0.12233311 -0.14103374
0.12731041 0.18525867 -0.30049402 0.15215518 -0.16277586 -0.17258413 -0.0466216 -0.11275308
0.0916021 0.17731114 0.145877 -0.19533645 -0.09520929 -0.14410216 -0.069542065 -0.007365708
-0.3115978 0.037229843 0.2034635 -0.13117927 -0.036823414 -0.029219307 -0.23985004 0.19207065
-0.16276772 -0.1391736 0.21545549 0.02589264 0.24522927 -0.16404483 -0.06073506 -0.15154634
-0.16121277 -0.17982467 -0.038732447 -0.10465202 0.18445438 -0.103770606 -0.20599169 -0.24813853
-0.061334528 -0.09595745 0.13890958 0.3269433 -0.13147274 -0.15122613 -0.06464364 0.219243
0.026127096 0.015590259 0.19231623 -0.16176681 0.034330703 -0.04604308 -0.10994451 -0.069083214
-0.34691024 0.06891264 0.07590208 0.115770996 -0.21861663 0.067733884 -0.013780175 0.1508725
-0.14933324 0.20845532 -0.09965755 -0.044209402 -0.20669417 0.14241742 -0.19057633 -0.17921652
0.16805457 -0.043117665 -0.27485245 0.042080205 -0.040706303 0.07291936 0.010251084 0.19936581
0.1389215 -0.124215715 -0.2856243 0.1355234 0.08328581 -0.06046077 -0.11412173 -0.2485539
-0.23198245 -0.07519157 0.0008964506 -0.19020255 -0.07647635 0.1415714 -0.051871303 -0.16397847
0.011287956 -0.16108084 0.21737805 0.18154718 -0.00049400516 -0.037842978 0.05369698 0.049609795
-0.11101967 -0.2396628 -0.25775433 -0.2555663 0.14993852 0.17246293 -0.006614201 -0.019170024
0.066223666 0.040951516 0.10090066 -0.20087293 0.25878882 -0.26349384 0.058453985 -0.28743652
-0.25209746 0.32481667 -0.091870375 -0.047810484 0.31168008 0.12308062 0.09960752 -0.12555014
-0.07322652 -0.14050922 0.22170289 0.11740991 -0.0115994075 -0.20742889 0.14189312 -0.021287585
0.2103521 -0.06777898 -0.28952113 0.31647232 -0.2237036 0.22612739 -0.036463823 0.025573088
0.19686882 -0.32641786 -0.22257647 0.07084349 -0.01759964 0.011696094 0.09609558 -0.0402147
-0.05902246 0.033391386 -0.10872402 0.13637446 -0.011345321 0.12700893 0.29194325 0.11741237
0.0575175 -0.07911936 -0.33889922 -0.24767983 -0.0777662 0.041307576 0.048730053 -0.09738485
0.2380048 -0.20141996 0.2699941 0.06911734 0.06236173 0.13282074 0.037606046 0.21700333
-0.2536755 0.1511079 0.0329527 0.006259092 -0.23730907 0.017906478 -0.11892843 -0.12713884

gru0.bias_ih_l0 f4 [60]
00000000: 8ffa 813e 9e8d 7abd 32ee 133e 30ec f03d
00000010: 6a7a 22bd 8ee1 253e c3d2 14be a19d 35bd
00000020: 0535 ad3e 16f2 08be 4f8b 3ebe a879 2fbb
00000030: 4315 773e c852 153e ce4c ebbc d049 b53d
00000040: d9b5 8ebd 598b 393d 832b 9e3e 6c5d 6b3e
00000050: 4763 33be 77d9 1c3e 5e7b c23c 7358 b13d
00000060: 5725 5d3e c1f0 f2bc 7f27 babd 6527 2abd
00000070: 47e0 1cbd 2530 3a3e 6214 c6bd 29c9 36bc
00000080: deba 773e 3804 82bd fe0b b93d 725a 663e
00000090: 78d1 e73d fbb3 183e 48fb b83d a7d7 f9bb
000000a0: a6de 2e3e 4486 0f3e 396d a6bd 2c45 92bd
000000b0: 9760 e4bc 38ca f0bd e3a5 2c3e de85 80bc
000000c0: 0046 663e 4d17 8fbd 8477 ddbc 3bde 6abe
000000d0: ada4 17be 658c 563e df98 573d 2862 31be
000000e0: 9878 7fbe f013 e5bd 57f1 dbbc b2a9 1cbe
0.25386474 -0.061170213 0.14446333 0.11763799 -0.039667524 0.16199324 -0.14533524 -0.04433978
0.33829513 -0.13373598 -0.1860783 -0.0026775394 0.24129204 0.1458236 -0.028723147 0.08851969
-0.069682784 0.045298908 0.30892572 0.22984856 -0.1751834 0.15317331 0.023740467 0.086594485
0.21596275 -0.029655816 -0.090895645 -0.041541476 -0.038299825 0.18182428 -0.096718565 -0.011156359
0.24192378 -0.06348461 0.090354905 0.2249544 0.1131925 0.14912407 0.09032303 -0.0076245847
0.17077121 0.14016062 -0.08126301 -0.071421 -0.027878089 -0.1175732 0.16860156 -0.015688833
0.2248764 -0.06986866 -0.027034529 -0.22936337 -0.14808913 0.20951994 0.052636024 -0.173226
-0.24948347 -0.111854434 -0.026848478 -0.15299109

gru0.bias_hh_l0 f4 [60]
00000000: aa23 f4bc 1911 363e b047 9a3c 0eaf 0f3c
00000010: ce9d 1ebe 4d60 053d 025f 043e ce37 febc
00000020: b669 8d3e d72d 00be a32c d13c 5b35 abbd
00000030: 210b e4bd c079 bc3b 4f28 b23d 46d1 843d
00000040: 1dc4 273e 785a aebd ba25 7b3e f892 d13b
00000050: 544e 073e 9ea6 bd3d 9ee9 f7bd 65fe b2bd
00000060: 1651 fd3d 1333 f43d b322 dc3d 2c34 873d
00000070: 72f4 44bd 93e4 1f3d 5a6d 573e e8e4 cbbd
00000080: 43f1 2a3e 0a95 d73d 840f 083d 3691 efbd
00000090: 76a4 00be 6781 60bd 6594 b8bd c357 97bd
000000a0: 5fca af3d 6a3d 1dbe 7d2a 313d 320c eb3d
000000b0: 49d9 833c cb2d 09be 8862 0f3e dab3 42bc
000000c0: 102f 963c d1a0 e73d 9e69 c1bc d416 04be
000000d0: 85ce 1cbe 40cf 31be 4743 43be 014d 2e3e
000000e0: a8a5 fd3c 8ac8 fc3b 0781 773e 3080 033e
-0.029802162 0.1777996 0.018833011 0.008769764 -0.15489885 0.032562543 0.12926868 -0.03103247
0.27619714 -0.12517487 0.02553398 -0.08359786 -0.11134935 0.0057518184 0.086990945 0.06485228
0.16383405 -0.08513349 0.2452611 0.006395694 0.13213474 0.09260295 -0.12105106 -0.08739928
0.123689815 0.11923804 0.10748806 0.06601748 -0.048084684 0.039036345 0.21037808 -0.0995577
0.16693597 0.10526474 0.03321792 -0.11697619 -0.12562737 -0.054810908 -0.09012679 -0.07389786
0.08583521 -0.15355459 0.04325341 0.114769354 0.01609482 -0.13396375 0.1400243 -0.0118837
0.018332988 0.1130997 -0.023609933 -0.12899333 -0.15313156 -0.17364216 -0.19068633 0.17021562
0.03096278 0.007714336 0.24170314 0.12841868

gru0.weight_ih_l1 f4 [60, 20]
00000000: e445 a8bc 2105 aebd 9250 02be 5917 6a3e
00000010: c638 7cbc 3a44 94bd a918 fd3c 1190 853d
00000020: 8211 b2bc 4283 d23d 1094 43bd 5aa2 94bc
00000030: 45a4 f9b8 80e0 fb3d 5d0e 1ebd 5f62 e63d
00000040: b05c 5cbd 13a2 303e c674 a5bd 390a 1ebb
00000050: 482e 1abe 9451 00be bc45 563e de64 953b
00000060: fadf e9ba 505a 9c3d 5309 aabe 2c6c 1e3d
00000070: 26ad 42be 733d 2ebe c659 5f3d d2b1 4dbd
00000080: aa68 263d ee83 813e ab93 56be 89b5 c33d
00000090: a561 47bc f418 433d b480 0f3c fb97 683c
000000a0: f787 b63d 0f5d 74bd 5357 b13d 5947 53bd
000000b0: ee5d 463e a14b 70be bb58 9fbe a50a f03d
000000c0: a7a8 cebc bd9d aebe 2908 623e c8f6 b6bd
000000d0: 519c 093e d7b3 443e 895e e6bd 2a2f b43d
000000e0: a999 f43d 11b4 8abe d32b 3abe 592e 84be
000000f0: 4f13 a43e c379 0cbe fdec 03bd bf84 213e
00000100: 7d46 4f3d f50c afbc 6246 bbbc 3e6c c7bd
00000110: 9606 bb3d 8c55 8dbc 3cfc a43c 7749 55be
00000120: 448e afbd 686d 563e 347b 52be 6934 87be
00000130: 1e9a 523e 17a4 4bbe 1d0e 83be 36e5 6dbe
00000140: 658d 203c 5f6a 10be c09d 50be a5a3 2bbe
00000150: 5fdc 653e 4e81 24be 7255 e23d c2b5 5abe
00000160: aba7 de3c 3bcd 043d 96ae a8be 2a33 cc3b
00000170: 2910 c93d f0ba 803e da81 b03c 6c23 c2bb
00000180: 0c37 9f3c ebc7 713e 3bcf e23d e0b6 5b3b
00000190: b70d 903e d2b2 96bd 2322 283d 23e8 833d
000001a0: 0101 4d3e 0188 33bd 01ad 183e 9a3b b9be
000001b0: 0ef2 1d3d 79c9 8e3d 8151 413d 9c1b 0ebe
000001c0: 8e47 b53d c4a2 813e d135 eebd d0ab a9bc
000001d0: 45e2 4bbe 34d7 90be df38 57be c62a c2bd
000001e0: 58ae 743e a661 133e 60fc d23d 8989 0dbd
000001f0: 8785 ee3d a5d8 da38 511b 163e 7502 783d
00000200: a957 a33c c38a 663e bf2d 04be ffc0 6dbe
00000210: c45d be3d 1955 13bd 02b7 42be 04d0 403e
00000220: 52c0 88be 2bed 6ebe f064 ec3c 4d0c 163e
00000230: c499 babd 6b60 d0bc f121 dd3d 8417 7e3e
00000240: ccf5 1a3d 0d61 c03d 4541 8f3d e861 2dbe
00000250: 1952 febb 0cc9 f0bd 94c7 573e f4fc 2bbd
00000260: fcca 02be 4ff1 373e 585c cebd 9b5b 29be
00000270: d70a 5fbc a41d f3bd 1781 7abe f960 2d3d
00000280: a2bc abbd 1e1f a9bd ea36 05be 473d c63d
00000290: 8637 29be 3c59 7f3e 990d 093e 15bf ab3d
000002a0: b90e 123e d4ae 51be 6de4 debd e3c4 22bd
000002b0: 34e7 8e3d 73f1 8e3e 29bc 98be e2c8 4a3d
000002c0: 036e 6abd 1c9b 1c3e 7d4d 57be 4462 a63d
000002d0: 5688 883d 2aec c13d f449 79be 3e94 863e
000002e0: be83 243d 3210 85be bcbd 32be 0171 d43d
000002f0: 2027 183e 5374 d3bd 21b0 c63d 0a35 17be
00000300: 7420 953d df48 3f3e 9be8 85be 1ed1 473e
00000310: 8e8f 0abe 40f6 08bd 8eb4 7bbc 30e2 1e3e
00000320: 1157 2ebc 1b7d 59be 92bf 8e3d 7250 173e
00000330: 1206 57bc ab64 013e 7158 a4bd 881a abbe
00000340: f189 51be 6a40 0d3c 8625 2a3d 4b60 e8bd
00000350: 2d27 b6bd 58b2 8f3e 8044 27be ef3f 3cbe
00000360: 9669 1abd 372d a3be 725c 0dbe 0ee6 463e
00000370: bc38 7c3e 9036 0c3e a13f 9bbe 3587 8f3c
00000380: d712 2fbe d024 003c bf95 94bc b7ba 283c
00000390: ee30 723e a546 94be dc4b a23d b946 233e
000003a0: 4cf6 253e 4c5d cd3d 7e97 043d 7946 d13d
000003b0: 97e9 97bc ecde 6dbd 7e69 0bbe bfb1 1dbe
000003c0: eed9 9a3d 4f0d 63be d803 7ebe fe5e 783e
000003d0: 4a99 3f3e 52e7 20be 1d41 c13b 38ef dabd
000003e0: 1efc e5bc 6540 93bd 06cf 83be ebd8 7dbe
000003f0: 6071 3ebe ddc7 5ebd 0c64 67bb 1a56 98be
-0.020541139 -0.08497072 -0.12726048 0.22860469 -0.015394395 -0.07239576 0.030895548 0.06521619
-0.021736864 0.10278942 -0.047748625 -0.018143822 -0.00011903843 0.12298679 -0.038587917 0.112492315
-0.05379933 0.17249326 -0.080789134 -0.002411498 -0.15056717 -0.1253112 0.20925039 0.0045591434
-0.001784324 0.07634413 -0.3321024 0.03867738 -0.19011363 -0.17015629 0.054528974 -0.05021841
0.04062716 0.25295967 -0.20954768 0.095561095 -0.012169276 0.04763122 0.008758713 0.014196391
0.08912652 -0.05965906 0.08659234 -0.051581714 0.19371769 -0.2346635 -0.31122383 0.1172078
-0.025226904 -0.3410472 0.22073425 -0.089337885 0.13438536 0.19209228 -0.112485 0.08798058
0.11943371 -0.27090505 -0.1818078 -0.2581661 0.3204598 -0.13718323 -0.03220843 0.15773295
0.050604332 -0.021368483 -0.02286071 -0.097374424 0.091321155 -0.017252706 0.020139806 -0.20828806
-0.08572057 0.20940173 -0.20554811 -0.26407173 0.20566604 -0.19886814 -0.25596705 -0.23231968
0.009799336 -0.14103077 -0.20372677 -0.16761644 0.22447346 -0.16064951 0.11051454 -0.21358398
0.02717956 0.032422286 -0.32945698 0.006231685 0.098175354 0.25142622 0.021546293 -0.005924633
0.019435428 0.23611419 0.11074682 0.003352575 0.28135464 -0.07358326 0.04104818 0.06440761
0.20019914 -0.043830875 0.14909746 -0.36178285 0.03856092 0.069720216 0.04719687 -0.1387772
0.088515386 0.25319493 -0.116313584 -0.02071181 -0.19910534 -0.28289187 -0.21017788 -0.09480815
0.23894632 0.14392719 0.10302043 -0.034554992 0.11646562 0.00010435403 0.14658858 0.06054922
0.01993926 0.22513871 -0.12908076 -0.23218153 0.09295228 -0.035969827 -0.19015124 0.18829352
-0.2670923 -0.2333266 0.028856725 0.1465313 -0.0911136 -0.0254366 0.107974894 0.24813658
0.037832066 0.09393511 0.06994871 -0.1693188 -0.0077612516 -0.11757097 0.21072227 -0.04198928
-0.12772745 0.17963146 -0.10076207 -0.16538851 -0.013613424 -0.11870888 -0.24463306 0.04232881
-0.08385588 -0.08257888 -0.1300923 0.096796565 -0.16525087 0.24936384 0.13384093 0.083860554
0.14263429 -0.20476848 -0.108834125 -0.039738547 0.06977692 0.27918586 -0.29831055 0.049507983
-0.05723382 0.15293545 -0.21025653 0.081242114 0.06666629 0.09468873 -0.24344617 0.26284975
0.0401647 -0.2598892 -0.1745519 0.10373116 0.14858675 -0.103249215 0.09701563 -0.14766327
0.072815806 0.18680142 -0.26154026 0.19513366 -0.13531324 -0.033437967 -0.015362872 0.15515971
-0.010640875 -0.2123913 0.06970133 0.14776781 -0.013124006 0.12636058 -0.08024681 -0.3341868
-0.20462777 0.008621315 0.04153969 -0.113464914 -0.08894191 0.28065753 -0.16334724 -0.18383764
-0.03769835 -0.31870434 -0.13804796 0.19423696 0.24631017 0.13692689 -0.30321983 0.017520526
-0.1709703 0.007821277 -0.01813781 0.010298423 0.23651478 -0.28960148 0.07924625 0.15944947
0.16207236 0.100275606 0.032371037 0.1021852 -0.018544002 -0.058073923 -0.13614461 -0.15399836
0.07561098 -0.22173046 -0.24806154 0.24254987 0.18710819 -0.15713242 0.0058976547 -0.106901586
-0.02807432 -0.07190017 -0.25743884 -0.24789779 -0.18597937 -0.054389823 -0.0035307435 -0.2975319

gru0.weight_hh_l1 f4 [60, 20]
00000000: e706 4dbe 2f2c 2fbe e652 093e a91d 10be
00000010: d038 10be 2027 c0bd 634a 513e 4528 cbbd
00000020: 4d17 f33c 1884 4d3d 6008 1fbe c560 b53d
00000030: 4837 d33d d842 413e cec1 8a3d 7df0 eebd
00000040: 88d7 e53d 7d82 9c3d 5646 703c e62c cb3d
00000050: 6f94 963e 116b 6e3d ab7c f0bd c0b3 863e
00000060: 2abe 8bbd af87 8b3e ecc1 b63d 0113 06bd
00000070: bac2 203e 7c63 9c3d 8ab9 2b3e 61a6 1a3e
00000080: d8a1 093e c28a 393e 8bd6 9b3e d611 6abd
00000090: b6c5 8abe 9331 b53d e1af f93b 7aec 123e
000000a0: cadb 60bd dec2 c6bd 6e6a b93e 082c c63c
000000b0: 212b f63c 39ba 5d3e 2534 903d 7cac c3be
000000c0: ff59 5fbe fbcc e93d 0745 91bd 9fad d63d
000000d0: 02fd b0be b297 ec3c 2b47 f63d 2fac 723e
000000e0: a6b2 4b3e adbd e9bd 6cb6 9f3e 41a2 1a3b
000000f0: f38f 383e 2a34 b03d 2ea8 bd3d f194 6d3e
00000100: 2348 78bc 61e4 983e 6d77 0b3e b706 d2be
00000110: af17 1ebd 606e 39bb eda2 cf3e 3d36 a0bd
00000120: 2531 55be df4a 843e dad9 84be eda0 3a3e
00000130: 2ab5 063b 7d2b 9abe 808b 1a3e 534b b0bd
00000140: 709e 3f3d b248 4fbe 3b67 3c3e ef3c 21bd
00000150: 053a f3bd ed6c 6f3e 0d92 b23d c52e 3ebc
00000160: e576 51be e3d8 e6b9 db6b 2d3d f9d3 cfbc
00000170: 2043 0ebe 2632 aa3d 2352 d2be eb2b 55be
00000180: cc52 cc3e 3e19 293e b238 20bd 1f28 89bc
00000190: c0a3 0ebe 7298 ee3c d768 7dbe 2ceb 493e
000001a0: 6863 c23d ad3f 5b3e 84b1 393e 7d6e 17be
000001b0: 3f9d a43c 45ba ce3c 4f38 17bc 04e8 073d
000001c0: ab8b 31bc c472 48bc 25b4 4ebe 9a0e fdbb
000001d0: 57cb 7abd c5a9 a9bd 4abe 0d3e 8e51 cc3d
000001e0: 27dd 433e 01f8 c03d e5a2 1abe 8b85 1b3d
000001f0: 45ef 04bc 2a6b aebd de30 3bbe e273 8a3e
00000200: acd7 313c 9623 653d c3f3 1cbe 636e 303d
00000210: 8746 a93e c2b8 ebbd 1c80 3f3e d822 913c
00000220: 713e 903d ffb2 e93d 371c d8bd 04a8 ec3d
00000230: 4845 a4bd cd58 73bd cc5a 023d a594 603d
00000240: ccfd 88bc 5036 b13e 1aa8 a2bd 377e fcbd
00000250: 4623 b6bc fd25 a43d 0fa6 01bd cc6f 8fbd
00000260: f90a 5abe c3ff 993e 79ad 37be 631c 453e
00000270: a078 81bd fbc4 54be 5eb5 55bd ef6e 7f3e
00000280: 7a3f b53d c5e9 293c 4be1 01be 5dca 9f3e
00000290: 8f1b 1e3c 0857 173e 0553 c43c 4476 033d
000002a0: 595a 0c3e 1f17 a43d 0fab 533d c17b 2dbd
000002b0: 632c 05be 95cf d53d 76e2 d6bc 6067 57bd
000002c0: d787 72be 696b c8bd af09 463e 5d80 443d
000002d0: 0f5e 253e 693c 4b3c 6f17 a53e 88ff e03d
000002e0: 645c 26be 38ac 5e3e 6c70 353d 0745 e03d
000002f0: a669 72be 4af2 883e dff6 d13d 0822 d83d
00000300: a00e 143c 9180 3cbe cc04 15bd 22d5 443e
00000310: 4d39 0a3e 2817 133e b113 0dbe d644 f9bd
00000320: 11bd f53d 7c21 cd3d 8452 1c3d 12c3 163e
00000330: a7fa 38be 21e0 943e 0e86 a2bd e9a5 65be
00000340: 28a3 503e aa27 bebd 4052 4bbe b48c 8dbe
00000350: 5fd2 b53d 715f 5fbc 69ab 9ebd 44e5 97bd
00000360: 3ec0 e43d 217a 053e 1844 db3c 92e5 08bd
00000370: a0ce cebe 8c00 893d c91e 5b3d 1856 b9be
00000380: 42cf 06be 8b73 12be 3abf a43d 60ac 173e
00000390: f276 62bc e62f 883e 1bb6 5bbd 9dd7 d23e
000003a0: 6285 e1bc 2576 54bd a76a 733e b9c5 833e
000003b0: 1d9e f13d 0cc9 9abd 2df3 08be c050 a33e
000003c0: 2c08 603e 32e1 28bd 07d1 d33c 6866 8d3d
000003d0: c940 0b3e fb3e 243e be2e 9f3e 108a 61be
000003e0: 4a0f 68bd 4983 9c3c 442e 883c 6fd6 36be
000003f0: c9a3 dbbd 5445 4abd 4e5e a2be 572e e7bd
-0.20022164 -0.17106698 0.1341053 -0.14073814 -0.14084172 -0.093824625 0.20438533 -0.0991979
0.029674197 0.050174803 -0.15530539 0.08856348 0.103132784 0.18873155 0.067752466 -0.11666963
0.1122275 0.07642076 0.014665207 0.09920673 0.2941012 0.058207575 -0.117425285 0.26309013
-0.0682338 0.27251956 0.089237064 -0.032732967 0.15699282 0.07636163 0.16769996 0.15102531
0.13440645 0.18119338 0.3043712 -0.057145916 -0.27103966 0.08847346 0.0076198434 0.14348021
-0.054897107 -0.09705137 0.36214012 0.024190918 0.030049862 0.2165307 0.07041196 -0.38217533
-0.21811675 0.1141605 -0.07093244 0.10482334 -0.3456803 0.028880928 0.12025293 0.23698495
0.19892368 -0.11413131 0.31193864 0.0023595246 0.18023662 0.086036995 0.09260593 0.23201348
-0.0151539175 0.2986174 0.13619776 -0.41020748 -0.038596805 -0.0028294548 0.4055399 -0.07822845
-0.20819528 0.25838372 -0.25947458 0.18225451 0.002055476 -0.30111304 0.15092278 -0.08608117
0.046781957 -0.20242575 0.18398754 -0.03936475 -0.11876301 0.23381396 0.08719263 -0.01160783
-0.20455511 -0.00044030612 0.042339187 -0.025369631 -0.13892794 0.08310346 -0.4107829 -0.20817535
0.3990692 0.16513535 -0.03911657 -0.016742764 -0.13929653 0.029125426 -0.24747024 0.19718617
0.094916165 0.21411009 0.18134123 -0.14788242 0.020094512 0.025235305 -0.009229734 0.03318025
-0.010836522 -0.0122343935 -0.20185907 -0.007722688 -0.061229076 -0.08284334 0.13842121 0.09976493
0.19127332 0.09422303 -0.15101202 0.037969153 -0.008113687 -0.08516534 -0.1828036 0.27041537
0.010854643 0.05594214 -0.15327363 0.043074023 0.3306162 -0.11509849 0.18701214 0.01771681
0.0704316 0.11411094 -0.105522566 0.11555484 -0.08021027 -0.05941086 0.031824872 0.05482926
-0.016722582 0.3461175 -0.07942219 -0.12328761 -0.022233617 0.08015058 -0.031652506 -0.070037454
-0.21293248 0.30077943 -0.17937268 0.1924911 -0.063218355 -0.20778267 -0.05217492 0.24944662
0.08849998 0.010370676 -0.12683599 0.31209078 0.009650125 0.14779294 0.023965368 0.03209521
0.1370634 0.080122225 0.051676806 -0.04235435 -0.13005213 0.10439984 -0.026231032 -0.05258882
-0.23684631 -0.09786112 0.19339631 0.04797398 0.16149162 0.01240454 0.3224444 0.10986239
-0.16246182 0.21745384 0.044296667 0.10950666 -0.23673114 0.26747352 0.10252165 0.10553366
0.00903669 -0.18408419 -0.036381528 0.19221929 0.13498421 0.14364302 -0.13777043 -0.121713325
0.11998952 0.10016152 0.03816463 0.14722851 -0.18064366 0.29077247 -0.07935725 -0.22426571
0.20374739 -0.09284909 -0.19855595 -0.2764641 0.08878016 -0.013633595 -0.07747538 -0.07416776
0.1116948 0.1303487 0.026765868 -0.03342206 -0.40392017 0.066895574 0.053496156 -0.36198497
-0.13165 -0.14301889 0.08044286 0.1481185 -0.013822304 0.26599044 -0.053640466 0.41180125
-0.027529422 -0.051870484 0.23771153 0.25736788 0.11797736 -0.07557878 -0.13374014 0.31897545
0.21878117 -0.041230388 0.025856508 0.06904298 0.13598932 0.1603965 0.3109035 -0.22025323
-0.056655206 0.01910557 0.016623624 -0.17855237 -0.10724599 -0.049382523 -0.31712574 -0.112881355

gru0.bias_ih_l1 f4 [60]
00000000: ac21 213e 20f2 2f3e a750 813d 7cdd 0f3d
00000010: 1d9f d5bd 28bd 323e 9566 2a3d 29ac be3e
00000020: 25ea 963c 8818 693e 17fb af3e cbe7 523e
00000030: ef77 adbd 842a 873d f9d8 71bd 2b1b 723e
00000040: b0ba 64bd 8f30 143e 14ec df3a 2350 a93c
00000050: 5c78 d83d 05af cc3c ce79 51be 34ca 69be
00000060: 03c9 67bd 79bb 793e df38 b8bc 196b 433e
00000070: d8b4 ef3d d79e c03d 245b ebbd 63b7 7fbd
00000080: 663e 83bd c37b 4cbe 5350 923d 16ca fabd
00000090: e275 debd 922e 403e 349b b9bd 2bf3 703d
000000a0: cbd0 243e 53cb 413d fb71 f1bd aa79 be3d
000000b0: 20a0 86bc a6ca 8dbd c04a e2bd f7de 35be
000000c0: df6c 4fbd d7f2 bd3d da13 573d a7c2 94bd
000000d0: 758e d1bd d3a2 d53c 9305 dc3d 0ef4 f23d
000000e0: 3bfd 4bbe 45a9 abbd 8ba0 d23d 60ca f53d
0.15735501 0.17182207 0.06314211 0.035123333 -0.10430739 0.1745497 0.041601736 0.37240723
0.018422196 0.22763264 0.34371254 0.20596235 -0.08470141 0.06599906 -0.059044812 0.23643176
-0.0558421 0.14471649 0.0017083907 0.020668095 0.10569832 0.0249858 -0.20456621 -0.2283104
-0.056588184 0.24387921 -0.022488056 0.19083823 0.11704415 0.09405296 -0.11491993 -0.06243075
-0.06408386 -0.19969086 0.07144227 -0.12245576 -0.10862328 0.18767765 -0.09062806 0.058825653
0.16095273 0.047313046 -0.11789318 0.09300549 -0.016433775 -0.06923418 -0.11049414 -0.17760836
-0.050640937 0.09274834 0.052509166 -0.072636895 -0.1023225 0.026078617 0.10743251 0.11862956
-0.19920819 -0.08381895 0.102845274 0.120014906

gru0.bias_hh_l1 f4 [60]
00000000: 1718 01be 14c3 7a3e 1ece 923e f6d7 c83a
00000010: d418 06be 4893 763e e756 3bbd 71f4 543e
00000020: fe17 3e3e 5419 843c bf63 333c 0018 1ebe
00000030: 0f0f 833e eed6 c73c 4c9e 9a3e 78b2 99bd
00000040: 10e4 ad3e dcba 823e e5b5 8f3e 8d7c 113e
00000050: 1c1b 99be 5964 b3bd ebad 50be 3a8a 433d
00000060: 7621 36be d5bc 6c3e 0a7a 753d b218 c93c
00000070: 27c8 383e e3f3 3ebe 5357 1a3b 77e0 c33d
00000080: 048a 31be 36fc 86bc fbdd 093e cb4a 4dbe
00000090: cfdb 81be 260e 58be 3e60 353e c665 2cbe
000000a0: 9412 1fbd feeb 15be be3b 923e 4983 9b3d
000000b0: 3a59 b33d e743 5a3e d766 aa3d 9e44 07be
000000c0: 51ab 34be b9cd 6f3e e0cf debd 4c67 02be
000000d0: 1254 ae3d 193f 353e 1bea 843e 666a 4fbd
000000e0: 9b24 593e 800a 25be 0a18 843e 178f 17be
-0.12606846 0.24488479 0.2867288 0.001532315 -0.13095409 0.24079621 -0.045737173 0.20796372
0.1856384 0.016125359 0.010949074 -0.15438843 0.25597426 0.024394479 0.30198896 -0.07504743
0.3396306 0.25533187 0.28068462 0.14207669 -0.29903495 -0.08759374 -0.20378844 0.047739245
-0.17786202 0.23118909 0.05993084 0.024547908 0.18045102 -0.18647723 0.0023550584 0.09564298
-0.17337805 -0.016477685 0.13463585 -0.20048063 -0.25363013 -0.21099147 0.17712495 -0.16835698
-0.038836077 -0.14640805 0.28561205 0.075934 0.08757253 0.21314965 0.083203964 -0.13209769
-0.17643477 0.2341832 -0.10879493 -0.12734717 0.08512129 0.17699851 0.25959858 -0.05063858
0.2120537 -0.16117287 0.2579959 -0.14800678

gru1.weight_ih_l0 f4 [30, 20]
00000000: 45da 393d 189d a3bd 71f3 23be 474e b43e
00000010: 4ec5 4ebe e5e7 98be 0972 533e 73b8 2e3e
00000020: cf6f 6c3e b11a ccbd c7b8 fc3d aa93 113e
00000030: 00ad a83e 148d ab3e 9d19 e83e c78b 64be
00000040: 1c0a 42bd 6d78 2b3d 32a9 3a3e b45c 16be
00000050: c08c 323e 5642 e8bd 4507 a2be 07fa 6dbd
00000060: 5e68 b43e a93b 8fbe 2a17 01be 0a4c e33e
00000070: 997d 89be 9919 a4be 8c87 c33d eb19 e9bd
00000080: e298 863e fbc6 813d 92b3 a23c 9f64 1e3e
00000090: 9a44 663d 37ed cd3e 7adc 6cbe dfdd 0fbe
000000a0: d5c7 56bd b666 cb3e 216b 293e 0aa7 c73c
000000b0: a378 963e ef5b 85be 36ba e1bd 0daa 05bc
000000c0: 2429 f33e 66d0 b83d ba05 e13d 410a b5be
000000d0: c853 82be e7d8 12be 44f4 003e a781 20be
000000e0: 2912 5b3d e5d8 82bc 7c0a 72bd 98f3 f1be
000000f0: 9db4 b6bd 1ae6 9dbb d8fd 94be ebbf 62be
00000100: 39ea 6b3a 568a 9abd 1a57 c6bb 3f25 f33e
00000110: 50ef 083e 3a5f 89be ede5 a5be de9d 673e
00000120: cf64 e73d 1502 cfbd 9ca5 b4bb 0e5e 97be
00000130: 2efb 58be 33c1 513e c31c 17be 4265 953c
00000140: fdaf db3d 88f6 25be c270 c8bd ce38 a3be
00000150: d98c bdbe d4a1 aa3e 5640 ffbd f1d1 8abe
00000160: 25bb c3bd 06ff 2dbe 8476 06be 4faf 2c3d
00000170: 79e0 46be 7b4b bfbd 42f7 ed3d 768c 3ebe
00000180: 0ada 893e 48fa 54bc cc63 6fbd 6b79 873d
00000190: bbcd 1c3e 1e64 bf3e 113d 583e a635 a23d
000001a0: e530 5fbd e2af fa3e 7f5e e23d 9df9 d1be
000001b0: 4c7c 0dbe 7358 393e 9aa5 083d a4fc 2dbd
000001c0: 8c40 bcbe 6216 483d a991 14be a7cc 7b3e
000001d0: 9399 e83d 8184 4d3d 22da 823e 3831 3d3e
000001e0: e1d4 0a3e cf52 bcbd 192d 5f3e 21b4 c33e
000001f0: 1812 77be cfd3 1a3e 2605 27be 39b7 96be
00000200: 16da 52be 1282 7cbe ca9e 923d dbcf 92bd
00000210: f821 38bc 750f 1b3c 0c6e 1a3e 4b92 aabe
00000220: 2507 b3be 4175 133d a0e3 243e 2b4c d4be
00000230: 8d47 a13e f631 a8bd 20f9 22be ff1f 913e
00000240: 588a 393e b5d6 b6bd 1328 b23a d498 b3bd
00000250: 4796 78bd 3cc0 1abc 1200 6fbc 451f ddbe
00000260: 078d d03e 5d51 993d a36d babd 4d44 933b
00000270: eef6 82bd caf8 0dbe 1ca8 c2bd d045 fa3c
00000280: 00dc f73d 0978 473c 5767 093e 377f a4bd
00000290: 673b 023e e042 47bd 93f0 a73d e68d 7dbe
000002a0: 0ee4 363e f55a cdbd 426a 583d 55de 883e
000002b0: b182 f03d 83b3 8d3e 1bf7 8e3e 53cc 433e
000002c0: 45f7 a23e a062 053e 309c 55be d7d3 6d3e
000002d0: 54b8 8f3e a0af b5bd f8aa 333e 5442 80be
000002e0: 651a 8d3e 59e0 bb3e 35e9 b93e f9b7 b7be
000002f0: 11eb dbba e958 a53e 15c1 a63d ed45 85be
00000300: 0823 9d3c 543c 673e 0265 3fbe 4db5 9b3d
00000310: 5748 ac3d ec13 cebe 4636 913a 4afb ba3e
00000320: 3b0c 92be bfb6 1ebc 1367 45be 81f9 8fbe
00000330: e610 af3c feb5 66be f55c 01be fd45 3d3e
00000340: 8bcb a83e 25ab e63d 13d7 16be 3599 04bd
00000350: 7cda 1f3e cb00 973d 69f1 fcbd a0ce 89bc
00000360: 9ff0 9bbe f5d4 133e 69b5 1d3c fda4 433e
00000370: 4e4c 6b3b 7c69 5bbe 6469 60be aaf5 a3be
00000380: 6336 98be 4996 c83d ea52 2fbe d462 623e
00000390: d75d 45be 40c3 a63d 4af2 8cba 68bd a53e
000003a0: b310 303c 1067 50be 7f50 efbd a6b7 773d
000003b0: fea4 6fbe 6705 823e 2b59 6bbe 2539 d2bc
000003c0: aa79 bcbe a5dd 8f3e 20b5 90bd 0bd5 80be
000003d0: ebdd 72be 731b 2f3d 747b 873e 894f b4bd
000003e0: 10c9 acbd 31c8 193e 0f29 70be b25a c2bd
000003f0: a339 05bc 5f5d b03e 5510 abbe 96b6 ebbc
0.045374174 -0.07988948 -0.16010834 0.3521597 -0.20192453 -0.2986442 0.2064897 0.1706255
0.23089527 -0.099660285 0.12339931 0.14216486 0.3294449 0.33506072 0.4533204 -0.22318946
-0.047372922 0.041862894 0.18228605 -0.14683801 0.17436504 -0.113407776 -0.3164617 -0.058099773
0.35235876 -0.27975205 -0.12606493 0.4439395 -0.26853636 -0.3205078 0.09547338 -0.113818966
0.26288515 0.06336781 0.019861016 0.15468071 0.056217767 0.40220043 -0.2313098 -0.14049481
-0.05243667 0.397268 0.16544773 0.024371643 0.29388914 -0.26046702 -0.11021845 -0.008158219
0.47492325 0.09024124 0.109874204 -0.35359386 -0.25454545 -0.14340554 0.1259318 -0.15674458
0.053484116 -0.015972564 -0.05909203 -0.4725616 -0.08921168 -0.00481869 -0.29099917 -0.22143523
0.00089994405 -0.07545917 -0.006052864 0.47489354 0.1337254 -0.26830465 -0.32401982 0.22618815
0.112985246 -0.10107819 -0.0055129062 -0.29563946 -0.21189567 0.20483856 -0.14757065 0.01823676
0.107269265 -0.16207325 -0.09787132 -0.31879276 -0.3702152 0.3332659 -0.12463443 -0.27113298
-0.09557179 -0.16991815 -0.13131148 0.042159375 -0.19421567 -0.09340569 0.11619426 -0.18608269
0.26924163 -0.012999125 -0.058444783 0.066149555 0.15312855 0.3738107 0.21117045 0.07920389
-0.05448999 0.48962313 0.1105318 -0.41010752 -0.13816947 0.18100147 0.033361055 -0.042477265
-0.36767995 0.04884947 -0.1450869 0.24589787 0.11357417 0.050175194 0.25557047 0.18475807
0.1355777 -0.09195482 0.21794547 0.38223365 -0.24127996 0.15119861 -0.16310558 -0.29436663
-0.20591006 -0.24658993 0.07159193 -0.071685515 -0.0112385675 0.009464134 0.15081042 -0.33314738
-0.34966388 0.036000494 0.16102457 -0.41464362 0.314999 -0.08212654 -0.15915346 0.28344724
0.1811918 -0.08927671 0.0013592265 -0.08769384 -0.06069019 -0.009445246 -0.014587419 -0.4318792
0.40732595 0.07486222 -0.09102943 0.004494226 -0.06394754 -0.13864437 -0.095047206 0.030550867
0.121025085 0.012174615 0.13418327 -0.08032077 0.12717973 -0.04864776 0.08200183 -0.24761161
0.17860433 -0.10027114 0.05283571 0.26732126 0.117436774 0.2767602 0.27922902 0.19120912
0.31829277 0.13025904 -0.20860362 0.23225342 0.2807032 -0.088713884 0.17545688 -0.25050604
0.275592 0.366946 0.36310735 -0.35882547 -0.0016778429 0.32294396 0.08142296 -0.26029912
0.019181743 0.22581607 -0.18690875 0.0760294 0.08412235 -0.40249574 0.0011078797 0.36519843
-0.28524956 -0.009687125 -0.19277601 -0.28120044 0.021370362 -0.22530362 -0.12633117 0.1848373
0.3296779 0.11263112 -0.14730482 -0.032372672 0.15610689 0.07373198 -0.12350733 -0.01682216
-0.30457017 0.14436705 0.009625771 0.19105907 0.0035903635 -0.21426958 -0.21915203 -0.32023364
-0.29728994 0.097942896 -0.17121473 0.22108012 -0.19274078 0.0814271 -0.001075336 0.32371068
0.010746169 -0.20351815 -0.11685275 0.060477875 -0.23402783 0.25394747 -0.22983234 -0.025662014
-0.36811572 0.2809879 -0.07065797 -0.2516254 -0.23717467 0.042750787 0.26461375 -0.088042326
-0.08436787 0.15017773 -0.23453163 -0.09489955 -0.008131417 0.34446236 -0.33410898 -0.028773587

gru1.weight_hh_l0 f4 [30, 10]
00000000: fa5e bfbd d8b7 ee3c 63d4 953e e7aa 04be
00000010: c319 de3d 1f42 483d 28b2 e53d bc53 64bd
00000020: 9219 67be 72ec 84bd 1786 023e 47da 80be
00000030: 9da0 b03e e71d 27be 822e 0b3e 967c 7b3d
00000040: b17a e6be 330b 5a3d 3442 9cbe 9080 843e
00000050: 63b1 813c 7630 433d 54be 283e 1b99 cdbe
00000060: bf6a 0a3e 0d2b 973d a637 c9bd 4c9b 403e
00000070: da15 b3bd 8709 5ebe fe05 95be c766 e9bd
00000080: 4a3a b63e 0d77 06bc 42bc 843d d19a 9fbe
00000090: df4c babe 62d6 94be dbff 6d3d f385 943e
000000a0: 7447 e53e b251 7a3e 80ce 3a3c 2b69 683e
000000b0: 058f 86be 3942 7cbe c109 cebd 96b3 81be
000000c0: 1124 abbd 5868 fc3d b1e9 9e3e 17a8 a9be
000000d0: 4d36 3dbe 404d d03d 4067 22be d163 f23d
000000e0: 146d 933e d84e bd3e 2575 a03e bab4 11be
000000f0: 6dca 303e 03c7 52be 7d38 7f3e a77d 1dbe
00000100: 6b8f 2d3e 8b7f 17be e0e7 603d 2c00 a13e
00000110: d77e 41be 8066 973e 5778 60be deae a73e
00000120: 7889 9d3e 9ce3 d3be 0055 8e3e a178 a73d
00000130: 9686 993e 3f8e 3d3e 15b3 8e3d f320 213d
00000140: c442 79be 2f22 663d 8770 eabd 05d1 f7bd
00000150: 01c7 2e3d 9b0a 83be ece9 913e b46d 243e
00000160: a195 ea3d a697 56bd dfca ba3e 14dd 60be
00000170: 6005 a0be 5cf2 d43c dc42 9abe 4329 773e
00000180: e1b1 9d3d c88c 4b3e a888 e13e 5ef5 0d3d
00000190: 3a18 833e 0280 29be b8d3 573e 86b3 b43c
000001a0: ea2f c53d 91c0 c2bd fa5e c0bd 20fa 5bbe
000001b0: 6f4e 813e c1eb 26be 7eab a1bd bd7a 263e
000001c0: 81ba 2bbe df51 a0bc 2213 30be d713 5dbe
000001d0: f49e 49be e390 18bd cf43 c3bc 3c18 2cbe
000001e0: 8abd bf3e 3c78 84be 272f 89be 59ab adbc
000001f0: b09f 7bbe d0c0 333e 8a5b b53e 7f44 853d
00000200: e4e8 e9bd 90d4 35be 966e 833e cbcd 92be
00000210: c37f 123e e79f 8ebd 84ff aabd 3173 5a3e
00000220: adf9 d2be 64ca d2be 06e0 0cbd f778 483c
00000230: 852f f13c 74c1 b0be a3f4 d73e f459 0cbd
00000240: c6ad 3bbe 5180 eebd 28ff c1be 4239 493e
00000250: b38d bdbe c165 43be 3a0c b1be 9232 f0bd
00000260: 0256 86be 99c7 463e 1fb7 a63e 1198 7ebe
00000270: 14a1 6e3e 4a21 913e c7ac 97be 1cb1 0d3e
00000280: 15e4 2bbe a431 d43d 95b4 4f3d b0b0 95be
00000290: f138 983d a2c7 843e 75db 923e f32e 753e
000002a0: 4a93 18be 7be1 563e 5686 e4bd 1cd5 24be
000002b0: 1418 0ebe 1e7c d83e e1c9 1e3e 413d 61be
000002c0: c21e c0bd 1342 29be 0b1f 7cbe a572 b23e
000002d0: 19eb e4be 7696 d3bd 8ccf 0ebd 8cb7 553d
000002e0: d46f e0bd 9151 08be 0851 803e 4b7f 08be
000002f0: 4dfc cdbd 058f 24be 70ab 80be 5879 47be
00000300: c7cf 163e 2d10 8bbe 8fbb 733d e6bc 64bd
00000310: 4361 94be 64fb b83d dbed a9be 4632 953e
00000320: f7e3 543e 3ca4 e13d d13b 473c 3b1f d03e
00000330: 831c 713e 8258 b2bc b095 edbd 6ede babd
00000340: 47a8 af3e 99ea 963e a726 963d e388 12bd
00000350: 269a 8a3e 44b3 9cbd 2096 08be f7d9 34be
00000360: 4d20 3abe 3145 613d c1ef 26be c625 a9bc
00000370: a0b6 633e c4f7 53bd a919 853e 51cc 88bc
00000380: 161b 843d 7ace 45bd 62e9 8ebe e1c5 bbbe
00000390: ca42 e7bd 9dd8 003e 3267 43be b9e7 b4bd
000003a0: 2a09 b9be 2e61 853e 0c6e 453e 6f50 4abe
000003b0: e071 8c3e 6821 923e 1f09 c33e b3cc 103e
000003c0: 15ca 5dbe 2be1 cd3e 31bf 683e 5f7b c1be
000003d0: 6dc8 803e b1d2 afbd ceb3 abbd 6309 cbbd
000003e0: 3360 febd 2734 2f3d 8290 a6be 9f0b a03e
000003f0: ac44 73be 7323 803e 7f23 f83e e4d9 cabc
-0.09344287 0.029140398 0.292636 -0.12955819 0.108447574 0.048891183 0.11215621 -0.055743918
-0.22568348 -0.06490411 0.12746464 -0.25166532 0.34497538 -0.1632 0.1359196 0.06139811
-0.4501548 0.053233337 -0.3051926 0.25879335 0.015831655 0.047653638 0.16478854 -0.40155873
0.13517283 0.07381258 -0.09825067 0.18809241 -0.08744402 -0.21683322 -0.29106134 -0.11396556
0.35591346 -0.008207095 0.0648122 -0.31172803 -0.36386773 -0.2906981 0.05810533 0.29008445
0.44781077 0.24445227 0.0114017725 0.22696368 -0.2628099 -0.24634637 -0.10060454 -0.25332326
-0.083564885 0.123245895 0.31037667 -0.33136055 -0.18477745 0.10170984 -0.15859699 0.11835445
0.28794158 0.36974216 0.31339374 -0.14229098 0.1726472 -0.2058373 0.24923892 -0.15379964
0.16949241 -0.14794748 0.054908633 0.31445444 -0.18896042 0.2957039 -0.21920906 0.327506
0.30768943 -0.4138459 0.27799225 0.08177305 0.29985493 0.18511294 0.06967751 0.039338063
-0.24341875 0.056184944 -0.11447244 -0.12100414 0.042670254 -0.2559403 0.2849878 0.16057473
0.11454321 -0.052390717 0.36482903 -0.21959335 -0.312541 0.025994472 -0.30129135 0.24136834
0.07699943 0.19877923 0.44049573 0.03465783 0.2560442 -0.16552737 0.21076858 0.02205826
0.096282795 -0.095093854 -0.09393115 -0.21482134 0.25255153 -0.1630087 -0.07894038 0.16257758
-0.16770364 -0.01957029 -0.17194799 -0.215896 -0.19689542 -0.03724755 -0.023836045 -0.1680612
0.37449294 -0.25872982 -0.26793787 -0.021199869 -0.24572635 0.17554021 0.354214 0.06507205
-0.114213735 -0.17756867 0.25670308 -0.28672633 0.1430655 -0.06964093 -0.08349517 0.21333005
-0.41206113 -0.41170037 -0.034393333 0.0122358715 0.029441604 -0.34522593 0.4217883 -0.034265473
-0.18328008 -0.11645568 -0.3788998 0.19650748 -0.3702217 -0.19081785 -0.3457964 -0.117283955
-0.26237494 0.19412078 0.32561585 -0.24862696 0.23303634 0.2834571 -0.29624006 0.13837093
-0.16786225 0.10361031 0.050709326 -0.29236364 0.07432736 0.25933558 0.28683057 0.23943691
-0.14899936 0.20984451 -0.11158435 -0.1609692 -0.13876373 0.42282194 0.15506698 -0.21996023
-0.093808666 -0.16529112 -0.24621217 0.34853092 -0.44710615 -0.103314325 -0.0348659 0.052176997
-0.109588295 -0.13312365 0.25061822 -0.13329808 -0.10057888 -0.16070183 -0.25130796 -0.19479883
0.14727698 -0.2716078 0.05950504 -0.05584421 -0.28980455 0.09032324 -0.33189282 0.29139918
0.20790087 0.11017653 0.012160257 0.40648827 0.23546033 -0.02177072 -0.11600816 -0.09124456
0.34308073 0.2947586 0.07331591 -0.035775077 0.2707073 -0.0765138 -0.13338518 -0.17661272
-0.18176384 0.054997627 -0.16302396 -0.020647895 0.22237635 -0.05174996 0.2599614 -0.016698988
0.06450479 -0.048292615 -0.27912432 -0.36674407 -0.11292036 0.12582631 -0.19082335 -0.0883326
-0.36139804 0.26050705 0.19280261 -0.19757245 0.2743063 0.28541112 0.38092896 0.14140587
-0.2165912 0.40210852 0.22729184 -0.37789437 0.25152913 -0.08585108 -0.083839044 -0.099139
-0.12420692 0.042774346 -0.32532126 0.31258866 -0.23756665 0.25027046 0.4846458 -0.024762101

gru1.bias_ih_l0 f4 [30]
00000000: 912f 2ebd ad2c 25be 7ab6 85bc 7f8a b9be
00000010: ef94 c23e 2c7a b13e a092 8a3d 687d 8d3e
00000020: 57a9 a43c 453e 61be ad2f 863e 4b25 4abd
00000030: 4cc0 00bd 60e6 cabe 309e 803d cb55 8dbe
00000040: c30c 79be 0554 b0bd be5a 72be a164 4dbe
00000050: 54ff 23be 03e2 febd 37d3 143e 1f06 083e
00000060: 8214 0d3e f7b1 1d3e 1100 6e3e a231 1ebe
00000070: 28e5 9abd e891 08bd
-0.04252583 -0.16130324 -0.016322363 -0.36238477 0.38004252 0.34663522 0.06766248 0.2763474
0.020100279 -0.2199641 0.2620825 -0.04935197 -0.03143339 -0.39628887 0.06280172 -0.27604517
-0.24321274 -0.086097755 -0.23667428 -0.20057918 -0.16015369 -0.12445452 0.14533697 0.13283585
0.13777354 0.1539992 0.23242213 -0.15448621 -0.07563239 -0.033342272

gru1.bias_hh_l0 f4 [30]
00000000: 2005 f83d 4047 e3bd 0d7f 1fbe 94d9 59be
00000010: 253d af3e ee08 663d 3ebe 9f3e 3006 9bbc
00000020: 0a38 5dbd 7e26 5abe 231a 3f3c e187 26bd
00000030: 3d5a 083e de0e 2dbe cc6a aebe 66a6 993d
00000040: 6405 573e 8305 dcbe d171 b9be b4ac 0ebe
00000050: b4a5 6abe d4de 9c3e b339 b2bd c759 9bbe
00000060: 53c4 adbd 5cb3 5f3e 1a4a febd ca27 04bd
00000070: ce63 093d aa23 633e
0.121103525 -0.11097574 -0.1557581 -0.21274406 0.34226337 0.05616086 0.3119983 -0.018923849
-0.05400852 -0.21303746 0.011663946 -0.040656928 0.13315673 -0.16900203 -0.34065855 0.07502441
0.2099815 -0.42972955 -0.36219648 -0.13933069 -0.22914773 0.30638754 -0.087024115 -0.30341932
-0.084847115 0.21845764 -0.124164775 -0.03226451 0.033542447 0.22181574

lin0.weight f4 [6, 10]
00000000: 7d11 8bbe 3b51 213e 65ea 5cbe e25b c8be
00000010: 9311 82bb 97a3 bfba 1799 d13e 5c2d 92be
00000020: 968d 893d 29d2 d2be 8467 e23e d9c7 0dbf
00000030: 19d0 ccbd 0918 3abe c079 5dbe 6632 d3be
00000040: 5fad b23e 84d1 82be 12ad 8f3d 8fee d1be
00000050: 8dd5 9f3e 687e 693e 0068 373e e308 bf3e
00000060: 21da 1c3e 3f49 8c3d da60 9bbe 0946 eb3e
00000070: c888 8bbe dfa5 dd3e 0da4 adbe a260 493d
00000080: 46eb d33e 302d d3be 2a10 633e 902e f3be
00000090: b906 84be 1c78 b6be f62b fcbe 1659 9c3b
000000a0: b569 9d3d a777 843d 4e3a bebe 4cbd e2be
000000b0: 85ac 833e a5fa 283c 0f90 ca3e a769 013f
000000c0: 1a38 733c feee f23d 7734 c43e 9e28 ec3d
000000d0: 39b7 793e 7482 e53e 65fb 07bf a8fb a63d
000000e0: 6fe3 783e e0d0 25be 022a 1d3e bf4e a3be
-0.2716178 0.15753643 -0.2157379 -0.391326 -0.00396938 -0.0014620897 0.4093711 -0.2855023
0.067164585 -0.41175964 0.442196 -0.5538307 -0.10000629 -0.18173231 -0.21628475 -0.41249388
0.34897897 -0.25550473 0.070154324 -0.41002318 0.31217614 0.22802126 0.17910767 0.37311468
0.15317585 0.06849908 -0.3034733 0.4595187 -0.27252793 0.43290612 -0.33914223 0.04916442
0.41390437 -0.41245413 0.22174135 -0.47496462 -0.2578638 -0.3563851 -0.4925229 0.004771362
0.07686178 0.064681344 -0.37153858 -0.44285047 0.2571756 0.010313665 0.39563033 0.5055184
0.014844919 0.118619904 0.38321277 0.115311846 0.243863 0.4482609 -0.5311797 0.08153468
0.24305509 -0.1619296 0.15348056 -0.31896016

lin0.bias f4 [6]
00000000: b267 abbd ba9f 613e 2982 3ebe 23f6 013e
00000010: 490e 00be f12f 883b
-0.08369388 0.22033587 -0.1860434 0.1269155 -0.1250545 0.0041561057
