saved/pretrain_base_motion_20_120/motion.pt (torch, 260183 bytes, 29 tensors)

transformer.embed.lin.weight f4 [72, 6]
00000000: e8d3 14be d08e 323e 4b7d 3bbe 9578 25be
00000010: 0beb 79be 7479 b6bd 6bf1 aabe 5f22 9fbe
00000020: b364 bd3d ba2d 08be fc89 5f3d dfad b13e
00000030: 76ac 713d 7c3c ae3e 1040 443d b8a9 b7bd
00000040: 26ae 52be 5ad7 8e3e 1ede 7a3d 2555 8d3e
00000050: 8ad8 333e ceba aabd 2702 04bd 20be 4d3e
00000060: cfa3 89be 9749 2ebe 9813 f23e 796d a03e
00000070: 0cac 453e e450 e43d 87b3 cdbd 384a 733e
00000080: 1e4d 0dbd 1ad9 9a3d bbe3 08be 684c 39be
00000090: 5e46 b6be d63c 4b3e 1418 10be 3f3c 673e
000000a0: d14a 583e ab74 963d 52ba 593e 0889 c33d
000000b0: 00fe 1bbe edd3 a4bb 930f 933d 1a38 9bbd
000000c0: 0bd9 afbd 551b a53c 8917 b9bd ccc4 3d3e
000000d0: 3cee 343e c590 95be a719 e33e 1a50 fcbd
000000e0: 0863 a23e e01a 11bc 2d77 2bbe 3308 503e
000000f0: 6f8c 30bd 21af c6be 39a5 2f3d 9ba8 55bc
00000100: e208 8ebc 4911 90bd 0c9c 24bf 40df 0b3d
00000110: d28e b8be 3799 013d 222c 00be a679 d8bc
00000120: acde 383e 3474 c8be dbd6 8bbe 6bae b33e
00000130: eda1 d3bd ca37 b43c e158 9e3d f347 103e
00000140: 2203 c63d ece3 aebe 6300 78bb d918 fd3b
00000150: 01df 953e 9a43 773e 36ff 0a3e f3ac ee3e
00000160: 11c5 a43b 96df 023d e843 d2be f86d 89be
00000170: ad54 c0be f475 76bd b310 d6bd 165e 6fbd
00000180: 65aa d8bd 4f66 233e b7cf 2abe 4b04 c0be
00000190: 943e 533d 5d5b 24bf f767 96bc 3f50 4ebe
000001a0: 6e0b f8be 2097 823e 913f c8bd c9cd b2be
000001b0: 387e 45be 0a2c e43d 088c 4e3e 0b81 47bf
000001c0: 763c 893e 6cca 08bf f3b5 d13d 32e0 b1be
000001d0: 60af 933e 8481 a8bd c68c 78be e274 3cbd
000001e0: 3a8c a73c 93a0 f9bc 3a30 cebb eb46 49be
000001f0: 3eb6 d0bd eafd 1ebe b594 69bd 3445 11be
00000200: c340 243e 4646 c33d e6f7 3d3d 4a08 dabe
00000210: e595 b93c abb2 a6be 7a49 973e 24e8 60be
00000220: f18a a1bd 5e36 39be 6fda d0be 141f e03d
00000230: 13f2 373e b719 57be eefe 223c fd3f 953e
00000240: 55f4 ce3d 8577 e53e 17e4 8cbe 9fee d23d
00000250: da92 25bc 024e 113b 130f e3be f973 94bc
00000260: a161 1c3c d588 39be a332 d63c 7526 b9bd
00000270: 12d8 1d3e ba97 8c3e 0d2d a03e 55c6 2dbd
00000280: 058d 23be 833b b43d 5986 1b3e cb0b b03c
00000290: 7ff6 ea3d 4216 19bf b059 82be 88d8 82be
000002a0: 8add 59bc cf5a 5d3d 37bc e23d 70c0 573d
000002b0: 6bad 083d 1f1a efbe dac5 8dbe 185c 99bd
000002c0: c768 143e ebe6 4dbb a255 453c db04 c33d
000002d0: eaa7 29be a45a 163e f32b 973e bca5 66be
000002e0: 8a9e 8a3c b026 0b3e 688a bdbe 6472 0fbd
000002f0: da09 8a3e 5f95 7b3d c446 a2be c555 443e
00000300: f041 2abd 8c76 0d3e dedd d3bd 0e43 c5bc
00000310: 9b9f 9abc 8e8a 88bc 60e9 d53e e3cf 8b3d
00000320: 8d4c 3abe 2233 993e 9e51 383c 53aa b9be
00000330: caf0 013e 7840 b9bd 15a6 32bd ee86 41be
00000340: fa4a 023d 6612 9f3c 341a 573e 741f 48be
00000350: a7ec c63e d5bd 58bd ca94 78be 36db 02be
00000360: a4ae 62bd 341c 58be 7e27 07be b037 5e3f
00000370: b01e b93c e67f 083f 4d6b e73d 3b4d d13b
00000380: a158 5fbd 1314 073d a4cb cf3c 52d2 173e
00000390: f37c f93d e07d a23e 5d6a 633e 99cb 93be
000003a0: 6c2e 343d 6cce be3d 2b2a 86be 9f48 3ebe
000003b0: d918 a4be 2a30 f93e d032 4ebd 7cfd bf3e
000003c0: 0e21 06be 9003 143e fc9d 88be ea70 1abf
000003d0: 8c14 113c d547 eebd 72ce 47be 44d3 a33e
000003e0: 36b8 f23e aa5d 473e 9eca 483d 600e 91be
000003f0: 913a a3be 380f 08be 4e78 133f dc51 2f3e
-0.14533961 0.17437291 -0.18309514 -0.1615928 -0.24406068 -0.08909884 -0.33387312 -0.3108091
0.092477225 -0.13298693 0.05457495 0.34702966 0.059002362 0.3403052 0.047912657 -0.08967918
-0.20574245 0.27898675 0.061246984 0.27604023 0.17563072 -0.083364114 -0.032228615 0.20092058
-0.2688279 -0.1702026 0.47280574 0.3133352 0.19303912 0.11148241 -0.10044008 0.23758781
-0.034497373 0.0756094 -0.13368122 -0.18095553 -0.3560056 0.19847426 -0.14071685 0.22581576
0.2112229 0.073464714 0.21262482 0.09547621 -0.15233612 -0.0050301463 0.07180705 -0.0757906
-0.085863195 0.020154634 -0.09037692 0.18532103 0.17669004 -0.29212013 0.4435551 -0.12319966
0.3171618 -0.008856505 -0.1674468 0.20315628 -0.043102678 -0.38805488 0.042882178 -0.013040687
-0.01733822 -0.07034547 -0.6430061 0.034148455 -0.36046463 0.031640258 -0.12516835 -0.026425194
0.18053693 -0.39151156 -0.2731236 0.35094008 -0.10333619 0.021999259 0.07731796 0.14089946
0.09668566 -0.34158266 -0.0037842027 0.0077239093 0.292717 0.24146882 0.13573918 0.46616325
0.005028375 0.03195151 -0.41067433 -0.26841712 -0.37564602 -0.060171083 -0.10452404 -0.058439337
-0.10579375 0.15956996 -0.166808 -0.37503275 0.05157335 -0.6420191 -0.018360121 -0.20147799
-0.4844622 0.25505924 -0.09777749 -0.34922627 -0.1928643 0.11141212 0.20170605 -0.7793128
0.2680394 -0.5343387 0.10239782 -0.3474136 0.28844738 -0.08227828 -0.24272451 -0.046009906
0.020452607 -0.030472076 -0.00629237 -0.1965596 -0.1019101 -0.15526548 -0.057026584 -0.14186555
0.1604033 0.09534888 0.046378992 -0.4258445 0.022654483 -0.32558188 0.29548246 -0.21963555
-0.07887829 -0.18087146 -0.40791652 0.10943428 0.17963438 -0.21005903 0.009948475 0.29150382
0.101051964 0.4481775 -0.2751777 0.102994196 -0.010105813 0.002217174 -0.44347438 -0.018121706
0.009544761 -0.18118604 0.026147192 -0.09040538 0.15414456 0.27459508 0.3128437 -0.042425472
-0.15971763 0.088004135 0.15187968 0.021489998 0.11472797 -0.5979959 -0.2545905 -0.25555825
-0.013297448 0.05404168 0.110710554 0.052673757 0.03336851 -0.46699616 -0.2769001 -0.074882686
0.14493094 -0.0031418155 0.012044342 0.095224105 -0.1656796 0.14683014 0.29525718 -0.2252416
0.0169213 0.13588977 -0.37019658 -0.0350212 0.2696064 0.06142175 -0.31694615 0.19173343
-0.04156679 0.13814753 -0.10345052 -0.024079826 -0.018874934 -0.01666763 0.41779613 0.068267606
-0.18193264 0.29921824 0.011249928 -0.3626276 0.1268951 -0.090454996 -0.04361542 -0.18899128
0.031809784 0.019417953 0.2100609 -0.19543248 0.38852426 -0.052915413 -0.24275509 -0.12778935
-0.05534233 -0.21104509 -0.13198659 0.8680372 0.02259764 0.5332016 0.11299763 0.0063873804
-0.054527882 0.03297813 0.025365658 0.14826325 0.12182035 0.3173666 0.22208543 -0.2886627
0.043989584 0.093167156 -0.26204047 -0.1858239 -0.32050207 0.4866956 -0.050341427 0.3749808
-0.13098547 0.14454484 -0.26683033 -0.60328543 0.008854996 -0.116347946 -0.19512346 0.3199712
0.47406167 0.19469324 0.049021356 -0.2833128 -0.3188062 -0.13287055 0.57605445 0.1712107

transformer.embed.lin.bias f4 [72]
00000000: 3fc9 55bf 8574 663f 5e5f 593e 9bf1 ceba
00000010: 0a1a 28be fe2a 153e 9f85 4fbf 779c 46bf
00000020: 1e2f 123e d134 1ebf 9e68 4d3f d1c5 6c3f
00000030: f333 2f3f 5fe1 4b3f 9b98 323f 8941 093f
00000040: d327 72be 8d7d 04bf 1bf3 b0bd 9b4f 4a3e
00000050: 8c52 713f 5c5c 543e b6a6 0a3f a5fa 0b3f
00000060: cf07 8bbf 714b 38bf 5ae4 6d3e 1638 e53d
00000070: 1a42 453e 5a69 1e3f edfe c23e 3b46 41bf
00000080: 92a3 a6bf 252a 623f bbe0 23bf e378 913d
00000090: 866b 333f 592a 08bf cd06 9fbe 1e79 27bf
000000a0: 4b9d 00bd 3188 a23e d546 333e 921a 873d
000000b0: 34e5 c4be cb54 51be bf1b 203e 456c 7abf
000000c0: e0a2 8e3f 6d5f cf3e 30bb 7bbf 263b 4d3e
000000d0: 5a73 57bf c51c 073f f216 e43f bc9c 143e
000000e0: c19c b2bd 6c7e 47be 01cd 723f e1d2 2a3f
000000f0: 8cf0 533e 4ce7 a6ba 639a 3bbf e05e 4bbf
00000100: c4a3 303f 34e4 efbe 76ef c33e 700e 803f
00000110: 4788 8fbc c2c1 4cbf 98dc 383f 065d 77bf
-0.835102 0.90021545 0.21227786 -0.0015788557 -0.16416183 0.14567181 -0.81063265 -0.77582496
0.14275786 -0.6179934 0.8023776 0.92489344 0.68438643 0.79640764 0.6976411 0.53615624
-0.23648004 -0.51754075 -0.08640119 0.1975693 0.9426658 0.20738357 0.5416063 0.5467933
-1.0861758 -0.71990114 0.2323164 0.11192338 0.19263497 0.61879504 0.38085118 -0.7549779
-1.3018668 0.8834556 -0.64014786 0.071031354 0.7008594 -0.5318962 -0.31059876 -0.65419185
-0.031400006 0.3174453 0.17507489 0.06596865 -0.38456118 -0.20442502 0.15635584 -0.97821456
1.1143456 0.40502492 -0.983325 0.20042095 -0.8416039 0.52778274 1.7819502 0.14512914
-0.08721305 -0.1948182 0.9484406 0.66728026 0.2069723 -0.0012733727 -0.7328245 -0.7944164
0.68999887 -0.46853793 0.38268632 1.0004406 -0.017521037 -0.7998315 0.722116 -0.9662632

transformer.embed.pos_embed.weight f4 [120, 72]
00000000: 4ccc 593f ca31 1dc0 567f 8d3e 9b28 1d3f
00000010: 6851 113f 4b1f 3d3f e147 a23e bf3a 493f
00000020: 733c c2bf a4bb 7ebf c628 8abe 6e46 ad3f
00000030: 5f8b 263f 1a20 be3f 91f8 a63e 0484 8dbf
00000040: cdad a8be 8c56 87bf 9a34 ec3e 5562 5b3f
00000050: b8bd a03f 924d 75be 0118 f3bf 8ea9 f53f
00000060: 0553 93bf 01f0 b73d f90c 06c0 d589 583f
00000070: 0168 bebe 1d0f 21c0 1829 79be 54f1 64be
00000080: 8976 75bd 2019 1a3f d4b6 fcbe 18c9 fa3e
00000090: 2fe7 0c3f ed9a 2140 853c 5dbf 425e 8b3e
000000a0: 79e9 503f 6807 683f d912 5e3f 5529 a7be
000000b0: 9f1e 1abd fe3f 553d 80b6 65bf 402b 7b3e
000000c0: 3699 8c3f e4c1 a93f 86b4 8a3f f904 82be
000000d0: 5d60 a4be 5004 0bbf 9280 ad3e 7c04 29bf
000000e0: c6cd aa3e 6ee7 ce3d bf6a f4be a9ed 113f
000000f0: ec91 c8bf 097c 223f 19be 5abf abac 103f
00000100: 4685 91be 16c6 f2be bb0c 1940 0251 a73f
00000110: a396 5b3e f6b6 4f3f a285 7abf dfbc c33f
00000120: c89f febe 90c2 61bf 0d97 aebe ea49 b23f
00000130: d1ec 853f c3a3 c03f 1921 cd3e 2ed3 4640
00000140: e42d 6fbf d6c7 51bf 301d 35be 76b3 013f
00000150: 515f 503f b48c 46bf 7541 d63f ec25 ebbf
00000160: 8578 bbbe b9ab 143f ea75 bc3f 142a 293f
00000170: fed0 9fbe 6c32 95bd f82b b13f 42c8 c03f
00000180: 7c34 883f 9076 363f 8806 70be 1086 c43f
00000190: 681e b5be 0f3b abbf 083a cb3f 0106 353f
000001a0: cc6b 153e 05b0 c5be 897d 06c0 2b17 f7bd
000001b0: bb2f dd3d 8294 d2be d28c 5ebe a9b9 e23f
000001c0: 514d f23f d214 adbd e760 afbe 8bf8 3cbf
000001d0: b344 b5bf a751 2c3f 3bcc 2bbf 5423 923f
000001e0: 572a 0e3e aff6 1040 eff7 96be 7ef2 9f3d
000001f0: 27d5 d73d 9c51 2840 a54c 8c3e 7162 89bf
00000200: 1a43 413f abda 043e 3a5b 6a3f 52ca 233f
00000210: 9369 b8bf 9017 b13f 76f1 c8bf 2742 2ebf
00000220: 1b5e 0fbf 4882 6f3f a871 5d3f a318 033f
00000230: 8bd6 303f d17c f4bf 879c bdbf cde3 453f
00000240: b073 e03e 7a8f c6bf 82b2 ffbf 6ca0 4a3f
00000250: 68f0 b53f a526 8e3f 2fe3 8d3f 0653 0e40
00000260: be09 68bf f2f3 1cc0 035d 0a3f 6463 0f3b
00000270: c474 c6bf abf8 7a3e 503e 23be bff5 943e
00000280: 9409 653f 1cd7 853e 7572 dbbf bb31 de3f
00000290: f888 16bf 5ec1 433f 0153 7ebf c723 0240
000002a0: b25f 22bf f4a0 443e 4e5a 86be f613 32be
000002b0: a4bd 56bf 01ea a2be f6ab 793f b6b4 b5bf
000002c0: c2fa 4cbf 2f46 7d3e 3e39 b9bf 328e 0e3f
000002d0: 1a29 233f 98cc c23f 481b 013e 65a2 c93e
000002e0: bc4e 7e3f b95c cf3e fe59 bfbe 1449 473e
000002f0: df5b f5be a99a 82be ba1d 4abf 63ad 0240
00000300: 8901 d33f 28dd 903f 047f fabf eb76 b9be
00000310: 85fa 993f d8a4 7ebf 4ca3 22bf fa7d 38be
00000320: 8051 e43f 3690 81bf 105b 6fbd bfb3 7d3e
00000330: efc7 b83d ce56 6b3f 7999 e0be 773b e9bf
00000340: 684e 5fbe 5e7c 8a3f 0593 d93f 050f 3db9
00000350: 5528 1f3f 7491 e5bc e17e 78bf 24aa e3bd
00000360: c96e adbf cf11 a23d b6e7 063f 803e 90bf
00000370: d00a 1d3f 5757 44bd e0f6 843e bf98 3a3f
00000380: 8274 cebf 1204 a7bf bdc6 dfbd 6005 9abf
00000390: 1014 713e 7fdf 283f f696 883f fa81 12bf
000003a0: 1e41 39bf e2af 5e3f 0334 203e 0bfc a73f
000003b0: 0fae d33f bec8 5bbe 2826 8bbf c4af e93f
000003c0: 2b28 aebf 9484 a3bf 33e1 94bf de54 7c3f
000003d0: ae21 4ebf 91d2 e0be 63f0 1cbf b158 923f
000003e0: b547 9b3f faa2 753f 7456 05c0 cdb9 883e
000003f0: 6b56 1ebf e15f 2540 fd1e 8d3f 451e 973e
0.8507736 -2.456164 0.27636212 0.61390084 0.5676484 0.73875874 0.31695464 0.78605264
-1.5174698 -0.99505067 -0.26984233 1.3537118 0.65056413 1.4853547 0.32611516 -1.1055913
-0.329451 -1.0573287 0.46133882 0.8569692 1.2557898 -0.23955372 -1.89917 1.9192369
-1.150971 0.08981324 -2.0945418 0.84585315 -0.37188724 -2.5165474 -0.24332082 -0.22357684
-0.059927497 0.6019459 -0.49358237 0.48981547 0.5504026 2.525081 -0.8642047 0.2722035
0.8160625 0.906363 0.8674751 -0.3264872 -0.03762686 0.05206298 -0.897316 0.24528217
1.0984256 1.3262296 1.0836341 -0.2539442 -0.3210477 -0.54303455 0.33887154 -0.6602247
0.33360118 0.101027355 -0.4773769 0.57003266 -1.5669532 0.6347051 -0.85446316 0.5651347
-0.28421992 -0.47416753 2.391402 1.3071597 0.21444182 0.8113855 -0.9786016 1.5292014
-0.49731278 -0.88187504 -0.34099618 1.3928807 1.0462896 1.5049976 0.40064314 3.1066394
-0.934294 -0.8194555 -0.17686915 0.5066446 0.8139544 -0.77558446 1.6738726 -1.8370948
-0.36615387 0.5807453 1.4723485 0.6607983 -0.31214136 -0.07285008 1.3841543 1.5061114
1.0641017 0.7127466 -0.23439991 1.5353413 -0.3537476 -1.3377398 1.5877085 0.70712286
0.14591902 -0.38610855 -2.101412 -0.12064966 0.108001195 -0.41128927 -0.21733406 1.7712909
1.8929845 -0.08451237 -0.34253618 -0.73816746 -1.416159 0.6731209 -0.67108506 1.1417031
0.13883339 2.2650564 -0.29486033 0.078099236 0.105387025 2.629981 0.27402225 -1.0733167
0.75493014 0.1297404 0.9154545 0.6398059 -1.4407219 1.3835316 -1.5698688 -0.6806969
-0.5600297 0.9355817 0.8650155 0.5120947 0.69077367 -1.9100591 -1.4813393 0.7730072
0.43838263 -1.5512536 -1.9976351 0.79151034 1.4213991 1.1105543 1.1084956 2.2238173
-0.90639865 -2.4523892 0.54048175 0.002187931 -1.5504384 0.24508922 -0.15941739 0.2909374
0.8946774 0.26140678 -1.7144305 1.7358927 -0.5880275 0.7646693 -0.99345404 2.0334337
-0.6342727 0.19202024 -0.26240772 -0.17390427 -0.8388312 -0.31819156 0.97528017 -1.4195774
-0.80070126 0.24733804 -1.4470594 0.5568572 0.6373459 1.5218687 0.12608063 0.3938171
0.9933889 0.4050043 -0.37373346 0.19461471 -0.47921655 -0.2550862 -0.7895161 2.0418327
1.6484843 1.1317492 -1.9570012 -0.3622354 1.2029577 -0.9947028 -0.6353042 -0.18016806
1.7837372 -1.0122135 -0.058436453 0.24775599 0.09022509 0.9192933 -0.4386709 -1.8221272
-0.21807253 1.0819204 1.6997992 -0.0001803004 0.62170917 -0.028023459 -0.970686 -0.11116436
-1.3549434 0.07913553 0.5269731 -1.1269073 0.61344624 -0.047934856 0.259696 0.7288932
-1.6129305 -1.3048117 -0.10926578 -1.203289 0.2354281 0.6596603 1.067107 -0.5722958
-0.72364986 0.86987126 0.15644841 1.3123792 1.6537493 -0.21463296 -1.0871019 1.8256764
-1.3606008 -1.2774835 -1.1631225 0.98567 -0.8052014 -0.4391065 -0.613043 1.1433316
1.2131258 0.9595181 -2.0834017 0.26704255 -0.61850613 2.583977 1.1025082 0.2951528

transformer.embed.norm.gamma f4 [72]
00000000: c906 223f 93ec 113f c54c 213f d278 1a3f
00000010: 1772 183f 8428 5b3f d80c 173f cba2 263f
00000020: 6a4b 293f 7d09 483f b47b 093f 79f9 313f
00000030: 4904 253f b10f 1c3f 1fd5 143f c0dc 353f
00000040: 7bf4 d13e c653 4a3f d98d 3d3f a6df 033f
00000050: 7880 ff3e 75e8 073f aab7 ec3e 19c0 173f
00000060: 7299 313f f270 ba3e bdb7 133f d9dc aa3e
00000070: e7cd db3e 76d9 013f 3b02 103f debc 603f
00000080: d8fb 283f 0298 543f a229 163f 75b0 f73e
00000090: 78a8 073f 6ebc 313f 8ef0 213f 6ee7 223f
000000a0: 7aa5 2a3f 88c1 353f 3461 223f b29a 523f
000000b0: 8ec5 fb3e e69a 403f 65a0 193f b8a1 2d3f
000000c0: b99e 183f 995b 403f 6eff 253f 6383 333f
000000d0: 444b 0e3f a85a 183f af36 f23e 5e74 e63e
000000e0: fc0d 1d3f c11e 163f 2ac0 1b3f b7c7 193f
000000f0: 8f19 233f 1e67 cd3e f645 103f be86 153f
00000100: ba83 423f 6e08 183f fad2 273f 8401 133f
00000110: 4ed2 eb3e 76b6 523f 8043 193f 496d 253f
0.63291603 0.5700161 0.63007766 0.6034061 0.5954909 0.85608697 0.59003973 0.6509215
0.661307 0.7813948 0.5370438 0.6952129 0.64459664 0.60961443 0.58137697 0.7103996
0.41006836 0.7903408 0.7404457 0.51513135 0.499027 0.53089076 0.46233875 0.5927749
0.69374764 0.36414295 0.5770224 0.33371618 0.4293053 0.50722444 0.56253403 0.8778819
0.66009283 0.83044446 0.58657277 0.48376814 0.5299144 0.69428146 0.6325768 0.63634384
0.6665875 0.7099843 0.6342957 0.82267296 0.4917416 0.75236356 0.6001037 0.6782489
0.5961719 0.75139767 0.6484288 0.70122355 0.55583596 0.5951333 0.47307345 0.45010656
0.61349463 0.58640677 0.60840094 0.60070366 0.63710874 0.40117735 0.5635675 0.58408725
0.7598225 0.5938786 0.655563 0.5742419 0.46058887 0.82309663 0.5986862 0.6461988

transformer.embed.norm.beta f4 [72]
00000000: 71db 1e3e db30 c3bd 8f93 abbd d67c 3dbd
00000010: 1f89 a43d 134c 9abd 7746 0e3e c9e4 4b3e
00000020: 0eac 0b3c d3eb 8d3e 37db 43bd 1552 65be
00000030: 3492 bcbd 4341 69be d3f8 22be 7322 6cbd
00000040: 62f4 efbc ed01 6f3e 68da 6d3b bf78 a53c
00000050: ff57 28be 1b34 5d3c 5586 b5bd a1c2 25be
00000060: d24f 5e3e 9c0d 9c3d 2cf6 a0bd a2fb 9dbc
00000070: 8160 a2bd 7253 aebd 430f a2bd 8f91 9e3e
00000080: c828 ac3e 0fc0 a1be b626 143e 768d 1d3d
00000090: 129f 1abe 498f 2e3e 51c0 cfbc bf68 583e
000000a0: 5aa5 31bd 1bb8 2fbd 2298 923b fa96 043d
000000b0: 735d 873d 0912 cd3d 9823 12bd 174d 8c3e
000000c0: bedf 3cbe 3573 dfbd 8f32 583e 3f11 88bc
000000d0: 207a 293e 5c0d e8bd ea7f 37be 105b 2bbb
000000e0: 1a0d aabc 9aaf c73d 5028 44be cfc8 23be
000000f0: 58ca bebd bf76 8db6 5e44 e63d cfca 7f3e
00000100: 9cdb 25be d421 d03d fc49 efbd 8502 2fbe
00000110: 21ad c03c 8bc0 bb3e 11ba 22be b3cd 943e
0.15513398 -0.09530803 -0.08377754 -0.04626163 0.08033966 -0.07534041 0.13894068 0.19911493
0.008524908 0.27718982 -0.04781648 -0.22394593 -0.092075735 -0.22778802 -0.15915231 -0.05765004
-0.029291335 0.23340578 0.003629351 0.020199178 -0.16439818 0.013501192 -0.088635124 -0.16187526
0.21710137 0.07619783 -0.078594536 -0.019285027 -0.07928563 -0.0851201 -0.07913067 0.30970427
0.33624864 -0.31591842 0.14467892 0.038464986 -0.15099743 0.17046846 -0.025360258 0.21133707
-0.043370582 -0.042900186 0.004473702 0.032370545 0.06609621 0.100132056 -0.035678476 0.27402565
-0.18444726 -0.10910646 0.21113037 -0.016609786 0.16550493 -0.11330673 -0.17919889 -0.0026146807
-0.0207582 0.0975029 -0.19156003 -0.15994571 -0.09315938 -4.2159513e-06 0.11243509 0.24979709
-0.16197056 0.10162702 -0.11684033 -0.17090805 0.023520054 0.36670336 -0.15891291 0.29063186

transformer.attn.proj_q.weight f4 [72, 72]
00000000: f98c 6d3d 2f57 c13d ba5c d2bc da77 453c
00000010: 8d57 78be e874 18be 8953 9cbe a42b 3d3c
00000020: 7152 ffbd 82cf 1d3d 5e7a f63c 5e72 183e
00000030: 2f19 5cbe 08b7 293e 5f83 83be e60b f63d
00000040: b920 753d c3b1 39be d4a9 03be c8c6 a73d
00000050: c5c4 953d 06bd cbbe 1f4f da3d 1462 bcbd
00000060: 438d 8d3d b041 f63d d157 d73d abef 2d3d
00000070: ec9b 303d e64f ad3e 93f7 ecbc c72b dcbd
00000080: d4dd b83e 25fd 8dbe 098e 1bbe e858 2a3e
00000090: 48ab 71be 4221 433c 5fe3 31be d541 753d
000000a0: 5def 4abe 074c babd 8cbf 883d a1f3 9f3e
000000b0: c733 4c3e 2e84 833e a11f febc aef3 323d
000000c0: 617e 09be 7d49 fe3a 1237 b53e 21a4 a83d
000000d0: c019 8cbe e564 063b 5465 d2bd 9ba5 77be
000000e0: fb61 5b3e 77c6 633d 10ca 993e c436 a2bc
000000f0: 3f4a dcbd c0ab e2bc ca7f 38bd e110 753d
00000100: 1450 493e 3c73 d03d 9172 e6bc 705d f03d
00000110: 5122 0f3e cc10 4fbc 4d25 1d3e 81b4 fabd
00000120: fece 113d 8cb8 03be 823b 823d 31b0 93be
00000130: 2d3d 003e 41c7 44bd 753c d3be 3163 0e3e
00000140: 706f 993e 2d11 95be 1ee9 463e 36fb a53e
00000150: 1886 b23e bc81 abba 6256 a83d ca85 a0be
00000160: 9334 65bd 4398 163d 29ea 8fbd 5484 c33e
00000170: 7a51 233e 392a 993c 83b2 e3bc 60b8 b53d
00000180: 2f98 6cbd 835c 123d 4066 05be f3c6 c2be
00000190: bcff c3bc 74a5 473e beef 7fbd 6e48 5fbe
000001a0: 8b5a f73d 215a 3fbe 6018 6a3d 3d06 74be
000001b0: 8893 b5be cbf7 a2bc 267e 89bc 234b 4dbe
000001c0: 54d0 1a3d d298 7c3d 53e5 c23c a51e 863e
000001d0: a1b1 b03e 4914 23be ee70 1d3e 4de2 c53c
000001e0: 3e11 8a3d 4bea e5bd 9a0a 13bd 21ae c4bd
000001f0: bfd9 cfbd 774b 133e 6969 0e3e 5e4c 3f3e
00000200: 878e 1cbe 78df 9e3e 8ef8 5a3d 41a4 33bd
00000210: 7169 833e ab4e ccbe 1595 563d 47ae 0abe
00000220: 2e84 07be 7dc5 f23d 3f84 f7bd 6f4f 3cbd
00000230: 1bff d93e 57ea 8fbd 00e5 bb3d c952 6cbe
00000240: 346b 613d 6770 fbbd c224 1ebc e31a 8e3d
00000250: c2d4 0b3c c9b5 423e fea3 acbd 4034 a3bb
00000260: 52d2 c5bd c471 76be fbfd 66bd 631a 9b3d
00000270: f878 c43d 5739 6b3e db65 23be 75a2 6c3c
00000280: 6d4a 2ebe 9778 b93d d093 3c3c 44c6 b43e
00000290: 8aa2 343e 1437 15be dd9c 65bd 8205 c33d
000002a0: 1fe2 92be a6c8 e8bc 9451 eabd dd0a 7c3d
000002b0: 4e69 d13d 5ea3 673e c26f a6be e698 d03d
000002c0: 6e9d 753d 6eb6 d7bd 336d 07bf 25df 5dbc
000002d0: bbb1 74bd 29de 21bd a688 39bc 0e48 263e
000002e0: 4974 2c3e 5056 203e 5e6e 2abe 3ccd 993e
000002f0: da4f 3ebe 7092 a33e 0c97 69be 12dd 043e
00000300: 262e 553e 2086 0b3e eba0 f3bd f2c2 313e
00000310: 8eaf 88bd 51e4 47bd 1a4e 3e3e d271 dfbd
00000320: 769f 19bc 09bb e3bd 87ac 5abe ba36 bb3e
00000330: 434f 163d f391 0ebd 6dad 09be 2ec9 98bd
00000340: dc3e eebd aea5 81be 21ca 36bd acb3 ec3e
00000350: 8ede 713e 4d64 eabe 93e5 8cbd 200d 70be
00000360: 424e ee3d cead 29be 8d35 e8bd 24f3 7c3d
00000370: 43f0 8d3d 556a 50be 6349 623e a1c3 963d
00000380: 4765 013e dbb6 663e f543 b2bd d134 63be
00000390: 3043 98bd 6006 eebd 9cae b5be a611 9a3e
000003a0: 7571 22be 1de1 0d3e a10a 03be 6fcc a13d
000003b0: 4a33 76be f346 2b3d 9ab2 6fbc 9fac a4bd
000003c0: 516c d23e add9 113f d6b5 43be b574 88be
000003d0: 0278 e6bd 902f 63be c316 c4be 4db9 433e
000003e0: c458 d53e 8b22 1cbe 5ed8 073e 9eef 573e
000003f0: 30b2 b0bd d254 0b3e b1a7 483e d3d4 8d3e
0.05799577 0.09440457 -0.025678981 0.012052501 -0.24252148 -0.14888346 -0.30532482 0.011546049
-0.12466896 0.038527973 0.030087646 0.14887378 -0.21493982 0.16573727 -0.25686166 0.12013988
0.05984566 -0.18134217 -0.12857753 0.081922114 0.073129214 -0.3979265 0.106596224 -0.091983944
0.06911709 0.12024248 0.105147965 0.042464893 0.04311745 0.3385002 -0.028926646 -0.10750537
0.3610674 -0.27732196 -0.15190901 0.16635478 -0.23600495 0.011909785 -0.17371891 0.059877235
-0.19817872 -0.09096532 0.0667716 0.31240562 0.19941626 0.25686783 -0.031020941 0.043689422
-0.13427116 0.0019400563 0.35393578 0.0823443 -0.27363396 0.0020506915 -0.10273233 -0.24184267
0.21424095 0.055609193 0.30036974 -0.019801505 -0.10756349 -0.027669787 -0.045043744 0.05983055
0.19659454 0.10178229 -0.028130801 0.11736572 0.13977934 -0.012638282 0.1534626 -0.1224146
0.035597794 -0.12863368 0.063590065 -0.2884536 0.12523337 -0.048041586 -0.41257063 0.13905026
0.29967833 -0.29114667 0.19424865 0.3241822 0.3486793 -0.0013084929 0.08219601 -0.31352073
-0.05595834 0.0367663 -0.070270844 0.38186896 0.1594905 0.018696891 -0.027795082 0.08873057
-0.05776232 0.035732757 -0.13027287 -0.3804241 -0.023925655 0.19496709 -0.062484495 -0.21804973
0.120778166 -0.18686725 0.057152152 -0.23830505 -0.3546412 -0.019893548 -0.016783785 -0.20048194
0.037796333 0.06166918 0.023790991 0.26195255 0.3451052 -0.15925707 0.1537511 0.02415576
0.0674157 -0.112263285 -0.035898782 -0.09603525 -0.10148954 0.14384256 0.13907398 0.18681476
-0.15288745 0.31029868 0.053459696 -0.043857817 0.25666383 -0.3990377 0.05238827 -0.13543044
-0.13234016 0.11854074 -0.12085771 -0.04597419 0.42577443 -0.07027119 0.09174538 -0.23078455
0.055033877 -0.122772984 -0.009652318 0.06938722 0.008534612 0.19014658 -0.084297165 -0.004980594
-0.09659256 -0.24066836 -0.05639456 0.07573392 0.095933855 0.22971092 -0.15956824 0.01444303
-0.17020579 0.09056204 0.011509851 0.35307515 0.17640129 -0.14571792 -0.0560578 0.09522535
-0.28688142 -0.02841599 -0.11441341 0.061533798 0.102251634 0.22620913 -0.3250714 0.10185413
0.05996459 -0.105328426 -0.52901 -0.013541971 -0.05973981 -0.03951851 -0.011324083 0.16238424
0.16841234 0.15657926 -0.16643664 0.30039394 -0.18585148 0.3194766 -0.22811526 0.12974957
0.20818385 0.13625383 -0.11895927 0.17359522 -0.066741094 -0.048801724 0.18584481 -0.109103814
-0.009376397 -0.111196585 -0.21354876 0.3656519 0.036696684 -0.034807157 -0.13445063 -0.07460247
-0.11633083 -0.25321716 -0.04462636 0.4623083 0.23620054 -0.45779648 -0.06879725 -0.23442507
0.1163602 -0.16570207 -0.11338339 0.061755314 0.06930592 -0.20353062 0.22098307 0.07361532
0.1263629 0.22530691 -0.08704368 -0.22188117 -0.0743469 -0.1162231 -0.3548478 0.3009159
-0.15863593 0.13855405 -0.12797023 0.07900321 -0.24043003 0.04181571 -0.014629984 -0.08040737
0.41098264 0.5697277 -0.19112334 -0.2665154 -0.112533584 -0.22186112 -0.38298616 0.19113655
0.41669285 -0.15247552 0.13266131 0.210875 -0.086277366 0.13606575 0.19595219 0.27701434

transformer.attn.proj_q.bias f4 [72]
00000000: 4fdb 14bd 1a4a 773d b6c5 89be 3d12 6dbd
00000010: 2af3 4cbc 52a3 e4bd 6728 c93e 1d23 bc3e
00000020: 4478 9cbe f5f0 063d 8c3b c8bd cce1 c6be
00000030: 21ee 1cbe 554a 12be e376 1a3d ee1b 303d
00000040: 41a2 33bd e108 303d a548 203d e170 23bd
00000050: 4a57 003d f265 a6bd a5ad 7a3e a6a4 68be
00000060: d592 06be b284 2bbd be8a 133e 8f43 463e
00000070: 8ee3 e23d 3c5a 9b3d 278a 9cbe f728 263e
00000080: 50af 13be 70fc cebc 85a4 533d 4626 13be
00000090: 5707 d93d c098 053e 1fc1 57be 3a79 40be
000000a0: f7d7 c6be ad72 0c3e a5c6 703d a335 053f
000000b0: a077 253e 2098 bfbe f427 7a3d dda0 94bd
000000c0: 80ce 53be fa23 8dbe 34db 70bd 733f cf3d
000000d0: 29b6 c53e de6b 2a3e d94f 093e c89d 703d
000000e0: fae2 6e3e 4045 bdbc efaf 78be 7e76 443e
000000f0: 2177 72be d79c 88be e8bd 563e b677 71bd
00000100: 281b 6bbe 6043 31bd ec87 85be 9429 0ebd
00000110: 5a8f abbd de0e 25be 65ed 2ebe fb1a 2f3e
-0.03634196 0.060373403 -0.26908654 -0.05787872 -0.012509147 -0.111639634 0.39288637 0.3674554
-0.30560505 0.03294464 -0.09776983 -0.38844144 -0.15325214 -0.14286168 0.037711035 0.042995386
-0.04385591 0.042977218 0.03913178 -0.03990257 0.031333245 -0.08124913 0.24480303 -0.22719058
-0.1314195 -0.041874595 0.14408395 0.19361709 0.11078559 0.0758557 -0.30574152 0.16226564
-0.14422345 -0.025266856 0.05167057 -0.14370069 0.10597103 0.13046551 -0.21069764 -0.18796244
-0.38836643 0.1371562 0.058783192 0.5203497 0.16158915 -0.3742075 0.06107326 -0.07257245
-0.20684242 -0.2756651 -0.0588028 0.10119524 0.3861554 0.1664271 0.13409366 0.058744222
0.23328772 -0.02310431 -0.24285863 0.19185826 -0.23678257 -0.2668216 0.20970881 -0.058952056
-0.22959578 -0.043277144 -0.26080263 -0.03470762 -0.083769515 -0.16118953 -0.17082746 0.17100136

transformer.attn.proj_k.weight f4 [72, 72]
00000000: f9d8 923e 9960 263e bd3e 4cbe 0096 3f3d
00000010: 0adb 8a3c 3b74 10bf 79a8 35be ea81 05be
00000020: 903d 9dbd d76d 62be e15b 6dbc 1c4f 8dbd
00000030: 11e4 cbbe 59e1 dcbd 4012 c63d dc6e 32bc
00000040: a1d0 2b3e a216 64be cb20 6ebe 20fa 263e
00000050: 2846 19be 7cc9 383d ee9c a13e fea7 ce3d
00000060: 48cd a53d 9d1c 183e e79b bbbd 5c7e 7abe
00000070: a79a 093e 592d d5bd 3dd3 5ebe a465 2bbe
00000080: ba57 61be 49cf 45be 0eca e43d 3f81 3abe
00000090: bef7 563d 738c e7bd 1326 be3d d454 813d
000000a0: de19 653e 9698 2b3e 3477 7cbd aab9 55bc
000000b0: 1af5 bcbd 073d f53c 39c3 cc3e af17 f8bd
000000c0: bc49 a33e 5771 ef3d 9dd0 5fbd 414d 97bd
000000d0: 1a45 87be 00ec 98bd 4a34 d63d 137a 243e
000000e0: 54a7 803e aa35 d1ba 4181 06bb 71db d3bd
000000f0: 2630 893d 9570 4ebd b3ed 833d ac2f 3dbe
00000100: 092b 5bbe d185 a43d c0dd 573d c388 873e
00000110: 3cee c9bd 93f6 05b9 3c94 6c3d b93e 983e
00000120: df45 f73c f2ce 80be 8401 db3c 599d f8bd
00000130: 956c 63be bf64 c9bd 056e 38be e0ce 50bd
00000140: 7526 843e c9fc 493e a74b 03bd 4583 143e
00000150: ea3a a6bc c35b 60be 8806 24be 1b5f f03d
00000160: 74f6 f73d ab89 403d b93b 33be c5df e6bd
00000170: 8c73 c63d 16e2 f53d 2a3f 4d3e 4fbe 223e
00000180: f3f9 3d3d 6d06 d7bd 20da be3d cc35 dabc
00000190: 9352 86be bad7 b7bb fa68 a5be 5be2 dd3c
000001a0: 2161 fa3d a7ad 52bd 309f 5b3d 4b31 adbd
000001b0: 0dbe 013e 7464 b3be 18cd 44be df94 9abe
000001c0: 543b f63c 04ea afbd be5d 3f3d e906 63be
000001d0: 15c5 84be 1bf8 1c3d 99c2 883e 6dde e33c
000001e0: e329 19bf 78da 3fbe 5771 0f3d 8deb 9fbd
000001f0: ff36 f03d 6564 153d 84b4 00bd ae0c 4d3e
00000200: 6473 22be ea08 843e 9f9b 943d e34e d03e
00000210: beba b9bd 41bf 05be d27e 4dbd b6e4 a03c
00000220: d1dd 42bd f973 9fbd 9009 52be ea13 b53e
00000230: 416f 733e 8e23 babe e9d0 823d c9c2 833e
00000240: a3cc a73e c34a f1bd c0c1 20be eca3 553c
00000250: 746a c23d 52d9 bb3e 6d4c 783b c44f 023b
00000260: 72e1 33bc 1ed7 d7be 8d38 21be 7803 ef3d
00000270: 1ff4 4bbe 545f 633e 98ef af3e fd6f a5be
00000280: a138 203e bee9 0b3e 193d 963d c80d c4bb
00000290: 8213 833d 2740 ea3c 99fb e4bd d8d9 953e
000002a0: 7d00 5bbe 0ba1 543e e5e8 8dbe e6f5 233e
000002b0: 72bd 003e 7ac4 e6bd 52da 81bc 39d6 5d3e
000002c0: 09d1 533d 20e6 113e cce4 18be 400b 363e
000002d0: 9629 9e3d 1846 da3e d965 5abc 3f6f a53e
000002e0: fa55 133d 0839 abbe d44c 0cbe 0326 1f3e
000002f0: bbf0 debe f4fa e1bc 3555 17bc ff76 bbbd
00000300: d8e9 e33d 7161 d3bd 5971 e43c def6 063f
00000310: ea78 07be ba98 303d 6644 ccbd a17d 88bc
00000320: 4a2b 3e3b a500 55be d435 25be 0d18 8e3e
00000330: 350c 6c3d a396 ecbd 0098 babc 8281 01be
00000340: ef68 92be 5738 8c3b f411 3e3e 701c c73e
00000350: 179a 93bd 0c5e 13be 1145 8dbd df9d 59bd
00000360: 2712 aebe 4546 79be 1a08 f53d fe8f efbd
00000370: c1cf 463d 791d 4ebb 45ef 9e3d 856a 08be
00000380: 0cb0 6d3e 32ff 573d 2ca8 cd3d 1789 65be
00000390: 3803 023e f873 c9be f430 ef3e 37ed e3bc
000003a0: f4fc 073c 2761 f3bd 6736 ddbe b457 023d
000003b0: 864a 23be 4bfa 013e 3a38 9ebe f672 92bd
000003c0: 1312 21be a655 8c3d c0c3 313e 21fa 553e
000003d0: 5f60 63be 1cc3 053e 3a61 9dbe 0185 863d
000003e0: f1a4 ca3e 9ed1 c43d f34a 143d d8b2 abbe
000003f0: e419 c83e 6dc6 1bbe de00 34be 05a9 703e
0.28681162 0.16247787 -0.19945808 0.04677391 0.01695015 -0.56427354 -0.17740048 -0.1303784
-0.07677758 -0.22112213 -0.014487238 -0.068998545 -0.39822438 -0.10785169 0.0967145 -0.010890689
0.16778804 -0.22274259 -0.23254697 0.16306353 -0.14968169 0.045114025 0.3156504 0.10090636
0.08095795 0.14854665 -0.091605954 -0.24462265 0.13437901 -0.1040904 -0.21760269 -0.16737992
-0.22006121 -0.19317354 0.111713514 -0.18213366 0.05248236 -0.113060854 0.09284606 0.06315008
0.22373149 0.16757426 -0.06163712 -0.013044754 -0.09226437 0.029936327 0.39992693 -0.12113892
0.31892192 0.1169154 -0.05464231 -0.07387782 -0.26419908 -0.074668884 0.10459192 0.16062193
0.2512766 -0.0015961428 -0.0020523819 -0.103445895 0.06698637 -0.050400335 0.06441822 -0.18475217
-0.21403135 0.08033336 0.05270171 0.26471528 -0.09859893 -0.00012775724 0.057758555 0.29735354
0.030184684 -0.25157887 0.026734121 -0.12139387 -0.2220939 -0.09833669 -0.18010719 -0.05097854
0.2581059 0.19725336 -0.03205457 0.145032 -0.020291764 -0.21910004 -0.16018116 0.1173689
0.12107554 0.04700629 -0.17503251 -0.112731494 0.096900076 0.12006013 0.20043626 0.1589291
0.04638095 -0.104992725 0.09318948 -0.02663698 -0.26234874 -0.0056104334 -0.32306653 0.027085474
0.12225557 -0.05143514 0.05361861 -0.084566675 0.12670155 -0.35037577 -0.19218862 -0.30191705
0.030057587 -0.08589557 0.04672026 -0.22170605 -0.25931612 0.03832255 0.26710966 0.027816022
-0.5982954 -0.18735683 0.0350202 -0.078085996 0.1172924 0.036472697 -0.031422153 0.20024368
-0.1586433 0.2578805 0.07256245 0.40685186 -0.09068821 -0.13061239 -0.050169773 0.019640308
-0.04757482 -0.07785792 -0.2051146 0.35366756 0.23772909 -0.3635525 0.06387503 0.25734547
0.32773313 -0.11781838 -0.1569891 0.01303957 0.094929606 0.3668924 0.003788735 0.001988397
-0.010979043 -0.4215631 -0.15744229 0.116705835 -0.19917344 0.22204334 0.34362483 -0.32312003
0.15646602 0.13663384 0.07335872 -0.005983088 0.06400205 0.028595043 -0.11180801 0.29267764
-0.21386905 0.20764558 -0.27716747 0.16011772 0.12572268 -0.11267944 -0.015851174 0.2166375
0.051713023 0.14247942 -0.14931029 0.17777729 0.07722776 0.42631602 -0.013329946 0.32311437
0.035970666 -0.3344195 -0.13701183 0.15541844 -0.43543038 -0.027585484 -0.0092366235 -0.09153556
0.111285865 -0.1032132 0.02788608 0.5272044 -0.13229719 0.0431144 -0.099739835 -0.016661467
0.0029017502 -0.20801027 -0.16133815 0.27752724 0.05762883 -0.11552169 -0.022777557 -0.1264706
-0.28595683 0.004279177 0.18561536 0.38888884 -0.07207125 -0.14391345 -0.06897939 -0.053129073
-0.33998224 -0.24343212 0.11964436 -0.11697386 0.048537973 -0.0031450673 0.07760481 -0.13321884
0.23211688 0.052733608 0.10041842 -0.22415577 0.1269654 -0.3934629 0.46717036 -0.027823074
0.008300055 -0.11883765 -0.43205568 0.03182192 -0.15946397 0.12693135 -0.30902272 -0.07150833
-0.15729551 0.06852274 0.17359829 0.20896198 -0.22204731 0.1306271 -0.3073824 0.06568337
0.39578965 0.09610294 0.03620429 -0.33534884 0.39082253 -0.15212412 -0.17578456 0.23501976

transformer.attn.proj_k.bias f4 [72]
00000000: a020 59bd 77cc 39bd 9809 963d 8ea8 903d
00000010: e896 6bbc 5cd8 373d 6e45 28bd 1ddf 123d
00000020: c5d8 0f3d 8ee1 353d 0636 1dbd 5899 3a3d
00000030: 0976 3d3c ddba b23d be99 313d b96b ec3b
00000040: 300c 9d3d da3c e83d 60b0 81bd 39d8 473d
00000050: c073 803d ac00 d3bb 444f e0bc 9668 a9bd
00000060: d24b 90bd 331e c8bd 3b0e c9bd 1d95 c5bd
00000070: a206 bc3d 0a2a 353d eacd e63d 8e21 5c3b
00000080: 280e 51bc c4f8 803d b67d b1bd 9954 0bbd
00000090: 873b 523d ce1d e73d d183 923d f762 143d
000000a0: aebd d23c 7954 01bd 0f68 803d a3d3 81bb
000000b0: 1033 033d b532 4bbd 0699 6c3b 4bd4 0abe
000000c0: 451e a3bc e29c bf3d 5952 ae3c 2326 ca3d
000000d0: c400 c3bd cfed 55bd 9226 b1bd cf7c 2d3d
000000e0: 47f9 debd a33a a3bc c5a8 7b3d 1604 4fbd
000000f0: b10d 093d 88f5 5fbd e410 ef3b c6e1 15bd
00000100: 73ef 90bd 0125 9abc 8f20 953d 9602 883d
00000110: ae11 98bd 4595 873d 1432 cd3d 0265 6abd
-0.05300963 -0.04536101 0.073260486 0.07063399 -0.014379241 0.04488407 -0.04108184 0.03585731
0.035118837 0.04440456 -0.0383816 0.045556396 0.011563786 0.087270476 0.04335951 0.00721499
0.0766834 0.113397315 -0.06332469 0.04879019 0.062720776 -0.006439289 -0.027381547 -0.08271901
-0.070457116 -0.09771385 -0.09817167 -0.09647582 0.091809526 0.044229545 0.11269744 0.0033589336
-0.012759723 0.06297448 -0.086665556 -0.034016225 0.0513263 0.11284982 0.07154048 0.036227193
0.025725212 -0.0315747 0.062698476 -0.0039619966 0.03203112 -0.049608905 0.0036101951 -0.13557546
-0.019911895 0.09356095 0.0212795 0.09870555 -0.095216304 -0.052228745 -0.08649935 0.042355355
-0.1088739 -0.019925421 0.061440248 -0.050541006 0.033460323 -0.054677516 0.0072957147 -0.036592267
-0.07076921 -0.018816473 0.07281601 0.06641118 -0.07425247 0.06620268 0.10019317 -0.057225235

transformer.attn.proj_v.weight f4 [72, 72]
00000000: f167 2fbe c980 943e 39b7 d23e c2d0 543d
00000010: 3945 c93e ace9 003e 5745 243d 8a8d 66be
00000020: 19c5 bfbd ea2f 3abe c983 093e 3d88 ccbd
00000030: e0bd 05bd fa54 ec3c 06fa 4f3e 530f 2f3e
00000040: 3f12 a5be 61fe 073d 5371 853e 752d 0cbf
00000050: 3208 153d dcd3 9fbd 0577 603e 4ae6 f13e
00000060: de4d 8dbe cb62 06bf b557 263e 746a 043e
00000070: b30b 013f 4e17 95be 2602 bb3d 7035 42be
00000080: d307 e4be 41f5 b53e 2a55 a3bd 2798 fd39
00000090: 073c 2e3d 37f1 aa3c 14a6 a3be c1d1 073e
000000a0: 4893 bfbd ff42 f83e c4c5 b63e cb8f 47be
000000b0: 971d 893e 4b5a dcbd a17f d4bd 47c0 95be
000000c0: c387 03be 51b1 803e 71ba ebbc a38a 823e
000000d0: 1a7c c0be de53 343e 9336 03bf d52e 413f
000000e0: 83e8 46be fa5c 6b3e 5b1b 613e 6fbf e4bc
000000f0: 56d9 3f3e 338b a1be 52bd 993d 4207 a2be
00000100: 8ef2 54be fb54 acbe bd57 9cbe 7a5e 12be
00000110: 5281 2a3e 6c52 81be c47a 9a3d 9d15 8abe
00000120: 66db 0ebf 4b66 babd af5e 983e 7e28 10be
00000130: cf0a 3d3e 0211 063e 1be7 ca3d 9167 8a3e
00000140: cc04 1abe e543 a3be 3847 e7bd 5d22 7a3d
00000150: 31f8 833e 5db8 8c3d 2086 443d d729 da3d
00000160: 52dc 833d d515 0bbf 21d9 15be 615b a5bd
00000170: d238 16be c587 c2be be36 15bf 837c b4bc
00000180: 794a d73c fec3 b33e 8ed2 4b3e ed3b 8cbe
00000190: 147f 86bc df98 4b3e 26cb 38bd 6112 cd3d
000001a0: 36d0 32be 9e0e ee3e 47aa e9be c17b 123a
000001b0: b207 80be 4894 f3bb 9f07 b5be 2b32 fc3d
000001c0: 43d1 1cbe b46b efba 79f0 16be 3af6 25be
000001d0: f990 cf3e 77dc 2b3e 4b0f a73e ad76 fe3a
000001e0: b849 653d 45ea 52be b701 243e 3e6b 90be
000001f0: 439a 0b3d dbdf 543e 6076 313d 9a9c aa3e
00000200: 0366 e13d 3ee2 62be 750e 26bd 5dac f5bc
00000210: c23a dd3e 7521 0a3f cf42 8c3d 3a0e 1cbe
00000220: 15b0 763e 400c 973d d8bd 27bd 9d75 54be
00000230: 5a46 a9be fb4e e23e 3296 41bd d1f5 9dbe
00000240: 0625 ad3e 4793 b0be e233 f7bc caf8 c6bd
00000250: 44bf e83d 4ee5 c7bd 3df2 733e 313b 89bd
00000260: 7af0 d03d ccaf 033e 5335 debd 9156 a5be
00000270: ead0 a23b 934d cfbe 4ff2 ae3d e0fc 00bf
00000280: 21e0 853d 39e7 66be a567 b2be 6a5a 52be
00000290: ab99 efbd 147e a53e d48a 993d b601 823e
000002a0: 023a 103e bd77 eebd a1d0 e2bc 633a ea3e
000002b0: eaba 493d 869c 49be 07a7 bdbe 84de 2f3e
000002c0: 70ae 9f3e 84b5 bebd 4672 febd 2cc4 263f
000002d0: d116 a13d 3b8b 123d dd56 d13d 14c8 3a3e
000002e0: def3 453e 0786 81be bbaa 23bd 3ea0 65be
000002f0: 9609 963e 29ad cfbe 4b3e 853b 82c9 ed3e
00000300: 0003 dbbe 0a5d 0e3e c2e7 12be 4f9f 0f3e
00000310: a750 3e3e eedd 9dbe ca14 cd3e 5758 7f3e
00000320: 48f4 a23d 6cdb 3cbe 5c6d 71be 7821 a5be
00000330: 0d4d 033f 7048 813e fdcd 8c3d 294d a03e
00000340: 52dc e5be df50 7e3d 0537 55be 8a7d 613e
00000350: fccd e93d 5f67 ffbd 5d83 e7be f7fb 673e
00000360: 9768 eebd 20d7 133f bbd2 48be a9be cfbe
00000370: ba64 6cbd c1dd 46be d735 aabe c937 dd3e
00000380: 7582 57be 10ed 7bbe 8b92 593f c5d9 e93d
00000390: 29f1 a5be d464 c53e 0506 7fbe f56e 27bc
000003a0: 0e67 2fbe 058a 9abe 5ef0 253e bd70 52bd
000003b0: 0f32 b43e 7d46 f63d c566 803b 00f6 8c3e
000003c0: fd37 00bf a4aa 9a3e 1550 c93d 4450 c53e
000003d0: 4370 ec3d 5394 003d 1bbd d1bd cf5e 9fbe
000003e0: 2f25 72be 939d 46bd 1a0f dfbe 7e76 823e
000003f0: bc3d 613c 2d4f 64be e62b 283e 1975 bebd
-0.17129494 0.29004505 0.41155413 0.0519569 0.39310625 0.12589139 0.04010519 -0.2251493
-0.09363765 -0.1818234 0.13429178 -0.09986923 -0.032651782 0.028849114 0.2031022 0.1709569
-0.32240483 0.03320158 0.26063022 -0.5475686 0.03638477 -0.07804081 0.21920402 0.4724601
-0.2759847 -0.52494496 0.16244395 0.12931234 0.50408477 -0.29119343 0.09131269 -0.18965697
-0.4453722 0.35538676 -0.07975228 0.00048369283 0.042537715 0.020866973 -0.31962645 0.13263609
-0.093542635 0.48488614 0.35697758 -0.19488446 0.26780388 -0.107594095 -0.10375906 -0.29248258
-0.12844758 0.25135282 -0.028775426 0.25496396 -0.37594682 0.17610118 -0.5125515 0.75462085
-0.19424634 0.22984686 0.21983092 -0.027923314 0.18735251 -0.31551513 0.07506813 -0.31646162
-0.20795652 -0.33658585 -0.3053569 -0.14293852 0.16650894 -0.25258195 0.07542947 -0.26969615
-0.55803525 -0.09101542 0.29759738 -0.14077947 0.18461154 0.13092425 0.09907361 0.2703214
-0.15040892 -0.31887737 -0.11292881 0.061067928 0.25775293 0.06871102 0.047979474 0.106525116
0.06438507 -0.5433019 -0.1463361 -0.0807407 -0.14670113 -0.3799421 -0.58286655 -0.022032028
0.026280629 0.35110468 0.19904539 -0.2738947 -0.016418017 0.19882534 -0.045115612 0.10013271
-0.17462239 0.46495527 -0.45637724 0.0005587899 -0.2500587 -0.007433448 -0.35357377 0.12314256
-0.15314202 -0.0018266351 -0.1474017 -0.16207209 0.40540293 0.1678332 0.32628855 0.001941403
0.055978507 -0.20597179 0.16016279 -0.2820682 0.034082662 0.20788519 0.04332578 0.33322603
0.11005785 -0.22156617 -0.04054113 -0.029989416 0.4320889 0.539573 0.0684868 -0.15239802
0.24090607 0.073753834 -0.040952533 -0.20747991 -0.33061486 0.44200882 -0.047262378 -0.30851606
0.3381731 -0.34487364 -0.030176107 -0.097154215 0.11364606 -0.09760533 0.23822875 -0.06700743
0.10202117 0.1286003 -0.108500145 -0.32292607 0.004968752 -0.40488872 0.085423104 -0.50385857
0.0653689 -0.22549142 -0.348447 -0.20542303 -0.11699232 0.32322752 0.074971825 0.2539193
0.14084628 -0.11643932 -0.027687373 0.4574767 0.04925052 -0.19688615 -0.37041494 0.17174727
0.31187773 -0.09311965 -0.1242414 0.65143085 0.0786568 0.03577731 0.10221646 0.18240386
0.19331309 -0.25297567 -0.039957743 -0.22424409 0.29304188 -0.40561798 0.004066264 0.464428
-0.42775726 0.13902679 -0.14346221 0.14025615 0.18585454 -0.3083338 0.40054923 0.24936043
0.07956749 -0.18443078 -0.23576874 -0.32252097 0.51289445 0.25250578 0.06875227 0.3130887
-0.44894654 0.062088843 -0.2082177 0.22020546 0.114162415 -0.12470888 -0.4521741 0.2265471
-0.11641043 0.5775013 -0.19611637 -0.4057515 -0.057713248 -0.1942053 -0.33244202 0.43206623
-0.21045859 -0.24602151 0.8498923 0.11418489 -0.32410553 0.38553488 -0.2490464 -0.010219325
-0.17129156 -0.30183426 0.16204974 -0.051377047 0.35194442 0.12025163 0.003918501 0.27531433
-0.5008543 0.30208313 0.098297276 0.385378 0.1154485 0.031391453 -0.10241147 -0.3112702
-0.23646997 -0.04849012 -0.4356621 0.25481027 0.013747629 -0.22295828 0.16422996 -0.09299678

transformer.attn.proj_v.bias f4 [72]
00000000: 1f9a aebd 8e01 41be 6de3 253e 4989 4abe
00000010: b22f 02be c505 1fbd a963 e63d 7140 9f3d
00000020: 3923 9b3e 7fa6 1a3e 684a 843e 97ef ad3d
00000030: faac 2fbe dcaa 083e 9168 01be dbe6 15bd
00000040: da62 e4bc 37d6 15be d91e 34be 99f9 16be
00000050: a9fe 99bd 1242 703b b6b2 5c3e fc99 a9bd
00000060: a4b8 fabc 417b 1ebe b255 3abd 6fab 3abe
00000070: 843d dc3d 72dd 273e e13c d63d 01e3 5e3d
00000080: d4e8 48bd 6f22 68bd 6012 35be f977 d53c
00000090: 04b6 a53a 5e15 8f3c ccf4 aebd bd5b de3b
000000a0: 6822 803c 47ba 103d 45a6 9dbd 635f e2bc
000000b0: db1d 04be e868 143e 753e 1a3e 2e51 733c
000000c0: 08ce 85bd 5dc0 a9bd 5dbb cd3c 8778 133e
000000d0: 5604 653e 9f55 79bd 22d1 0cbe 0f34 f93c
000000e0: f437 8ebd ec69 9a3c 3448 abbd e7c4 33be
000000f0: 6252 6e3d edae 053e 7acd 063d bf27 21bc
00000100: f558 12bd 8c00 5cbd 7285 d4bc 7b52 303d
00000110: 2a2e bc3c f16d 8ebc 3e6b ab3d c2aa afbd
-0.0852549 -0.1884825 0.16200037 -0.19778933 -0.12713507 -0.03882386 0.112494774 0.07775963
0.3030031 0.15102576 0.25838017 0.08492964 -0.17155829 0.13346428 -0.12637545 -0.036597114
-0.027879167 -0.14632498 -0.17589892 -0.14743651 -0.07519276 0.0036660475 0.21552548 -0.08281323
-0.030605622 -0.15476705 -0.04549188 -0.18229459 0.10753921 0.16393068 0.104608305 0.054415707
-0.049050167 -0.056673463 -0.17682791 0.026058184 0.0012642746 0.017466243 -0.08542785 0.0067858384
0.015641406 0.035333898 -0.07697729 -0.027633375 -0.12902014 0.14493144 0.15062888 0.014850898
-0.06533438 -0.082886435 0.025113756 0.14401446 0.22364935 -0.06087267 -0.13751653 0.030420331
-0.06944266 0.018849336 -0.08363381 -0.17555581 0.058184035 0.1305501 0.0329108 -0.009836136
-0.035729367 -0.05371146 -0.025942538 0.04304741 0.022971231 -0.017386409 0.08370064 -0.08577491

transformer.proj.weight f4 [72, 72]
00000000: 1b5f 413f c948 0b3d 8c89 55bc 084b 08be
00000010: b35a aa3d c2c3 bdbc 9b1a 5a3d 568d c6bd
00000020: c3d1 1ebe b171 603d aed1 d0bc 3dd4 04be
00000030: 95fc 5fbe 1d43 283d 1ae2 8f3e c7c9 ffbc
00000040: ea55 353d 807c 703e 5804 c6bd 841d 1bbf
00000050: 5a45 893e f6d7 e5bd c9bf 9bbe baa8 ca3d
00000060: b16f cc3c 59e4 b83b 999b 11be ea55 babd
00000070: 7276 15bf 65ca 53be 6579 8a3e 40a4 d13c
00000080: 01bd 56be f346 ba3d 3ee2 c6be fe87 09bd
00000090: 9fab 9b3c 1362 2abe 6a2d e8bd 45b9 89be
000000a0: e3ca 4d3d 7438 513e bd19 85be ed3d c9bd
000000b0: 9a51 3cbd 2b14 91be 4761 92be 3f5c a8bd
000000c0: 8da4 da3d 556c abbb 94ca c9be df97 35bd
000000d0: 6dfc a53d ef33 8bbe 2cd8 7e3d e074 963e
000000e0: 763e 91be 4968 013d 009e 3bbe 8932 923e
000000f0: b8d0 c73d debb 86bd 8c4f 2ebe 467e f9be
00000100: 3ae2 9a3e 3ace 883d 983b b3bd d965 55bd
00000110: 349f bf3c 12a8 f73c 0bc3 a33d e9cf 85be
00000120: a50f ec3d d9e6 3f3f 4c6e 523e c247 733d
00000130: 33ac 32be 1fb6 8d3c 3183 15be 6325 0f3e
00000140: 8235 61bc e295 263e b838 64bd 2e39 f63d
00000150: e430 cc3b 3a20 ad3c a861 a13d 324e 85be
00000160: 1b21 7fbe adb2 2dbe 7cef 773e 6575 c53d
00000170: c769 e53d 231f 513d 3ef4 8abd d9e2 aebd
00000180: bc51 873e b3b4 323e 5dc5 dcbd e4b9 45be
00000190: 74b6 a63d 6f86 8dbd 17ba 643e 2743 44be
000001a0: 12d8 d7bd eeb9 d3bc b626 96be 368f ff3b
000001b0: 9f56 df3e 306a dd3d d526 ca3e 93a0 46be
000001c0: b9ce 3abe 5e22 773d 19fc 1b3d 4a74 6b3e
000001d0: 0611 64be ce83 623d 5aaa 6e3e d475 183d
000001e0: c1be 213d 0b4b 90be 24d5 803e 8f1d 033f
000001f0: b1f7 dcbd 81ac b4bd d665 873d 608d 52be
00000200: fb31 64bc 5ca0 02be 5540 93be 417f a33d
00000210: 8f1e 80be e6d3 83bd b125 a9bd 20ee 063e
00000220: 96da e1be ad33 ed3d 348b 793e 46b6 773e
00000230: d885 833c d9c0 10be fb41 cfbd 2f5f 003d
00000240: f1ca 91be 1553 14bd fdf2 0b3f 52c1 cdbd
00000250: 9a3b a1bd 04b2 a53d 0e5c 583e 646e 1fbe
00000260: 0ed6 87bd 9394 ae3d f1d0 dcbd d825 933e
00000270: fec0 a7be 13d8 bbbe 87b2 5bbe d508 aa3e
00000280: c899 8cbc 5368 b63e 636e 6dbd d11f 5b3d
00000290: a548 2cbe cf45 9cbe 4ffb 013e 941e 753e
000002a0: 2da7 a2be 1f1e 9cbd e26f e5bd a1dd 03be
000002b0: 60ac 4ebe fc88 ec3d d629 ddbe 5970 363e
000002c0: 4bff 91bd c321 dcbd a944 b4be 4770 923e
000002d0: 4bbe cc3d 4672 613d 5e7b a8be 324b 803d
000002e0: 14cf ecbd 81e4 813e 1aad 063e e0bd 4d3e
000002f0: 606f 39be 692d 46bd e164 a43d 954c 733d
00000300: b224 9b3e 6544 45be 98e3 183d a121 2cbe
00000310: 7780 b1bc 1a67 693e 679c 89be 590c 7dbe
00000320: ae8a 20be 6fba 33be 64a5 a43c c11f d7bc
00000330: 98a9 eb3e 102e 50be 46e1 3a3d 643a c1be
00000340: f9fc d03d cdc0 a1be a565 99be d5a6 2fbd
00000350: 05c2 e1bb 11a5 3bbe c081 293e b92e ccbe
00000360: 13b2 18bd 0d39 c63d 9bec a4be a9cb 583f
00000370: a837 16be 704c d8be eced a53d 74f7 00be
00000380: f315 a03e a706 0d3e e690 e0bd 8c88 5f3e
00000390: da90 1a3e 7754 8b3e fe0b 89be 3e76 103c
000003a0: 4c59 353d 442e d3be b443 3abd 8adc e43e
000003b0: 484d c73e 42a8 073e 1b85 62bd 93e3 873c
000003c0: d983 36be 42f5 003f 97b5 94be 791a f5be
000003d0: 444e a8bc 1235 1a3e e326 17bf 0847 a33e
000003e0: 268c 69bd 9a6a f4bd e5a3 ac3e 0029 f8be
000003f0: 6247 883e 96ea cdbe d619 18be 625e e6bd
0.75535744 0.03400496 -0.013033282 -0.13309872 0.08318081 -0.023164634 0.05324803 -0.096949264
-0.15509705 0.054795925 -0.025490608 -0.12971587 -0.21873696 0.04107963 0.2810219 -0.031224145
0.044271387 0.23484993 -0.09668797 -0.6059191 0.26810724 -0.11222832 -0.30419758 0.09895463
0.024955602 0.0056424555 -0.14219512 -0.09098418 -0.5838386 -0.20682676 0.27045742 0.025591016
-0.20970537 0.09095564 -0.38844484 -0.033576958 0.019002734 -0.16638975 -0.11336787 -0.26899162
0.050242316 0.20431691 -0.259962 -0.098262645 -0.04597626 -0.283357 -0.28589842 -0.082207195
0.10675917 -0.00523142 -0.39412367 -0.04433429 0.08104787 -0.2718806 0.062217876 0.29386044
-0.28367966 0.031593595 -0.18321991 0.2855418 0.09756607 -0.065788016 -0.17022532 -0.4872915
0.30250722 0.066799596 -0.08751601 -0.052099083 0.023391344 0.03023151 0.07996186 -0.26135185
0.115264215 0.7496162 0.20549887 0.059394605 -0.17448501 0.017298756 -0.14600827 0.13979106
-0.013745667 0.16268113 -0.055718154 0.12022625 0.006231414 0.02113353 0.078799546 -0.2603622
-0.24914972 -0.1696269 0.2421245 0.09641532 0.11201816 0.051055085 -0.06784867 -0.085393615
0.26429546 0.17451744 -0.107798316 -0.19309193 0.08140269 -0.06910407 0.22336613 -0.19166242
-0.10539259 -0.025845494 -0.2932641 0.0077990545 0.43620774 0.10811269 0.3948275 -0.19397192
-0.18242921 0.06033551 0.038082216 0.2299358 -0.22272119 0.05530148 0.23307171 0.037221745
0.039488558 -0.28182253 0.25162613 0.5121698 -0.10789431 -0.08821965 0.066112205 -0.20561743
-0.013927932 -0.12756485 -0.2876002 0.07983256 -0.25023314 -0.06436901 -0.08259142 0.13176775
-0.4411208 0.11582122 0.24369508 0.24190626 0.016055033 -0.14136066 -0.10120007 0.031340774
-0.28475145 -0.036212046 0.54667646 -0.100466385 -0.07872696 0.080905944 0.21128866 -0.15569454
-0.066326246 0.08524432 -0.1078204 0.2873981 -0.3276443 -0.3668829 -0.21454822 0.33209863
-0.017163172 0.35626468 -0.0579666 0.05349714 -0.16824587 -0.3052201 0.12693523 0.23937446
-0.3176817 -0.07622933 -0.112029806 -0.12877513 -0.20182943 0.11549565 -0.4319598 0.17816295
-0.071287714 -0.10748627 -0.35208634 0.28601286 0.09997233 0.05504062 -0.32906622 0.06264342
-0.115629345 0.25369647 0.1315197 0.20091963 -0.18108892 -0.04838315 0.080270536 0.059399206
0.30301434 -0.19264372 0.037326425 -0.16809703 -0.021667702 0.22793236 -0.26877138 -0.24711742
-0.15677902 -0.17551588 0.020098396 -0.026260259 0.46027827 -0.20330071 0.045624994 -0.3773986
0.10204501 -0.31592408 -0.2996036 -0.042883713 -0.006889584 -0.18324687 0.16553402 -0.39879397
-0.0372792 0.0967885 -0.32211766 0.8468576 -0.14669669 -0.42245817 0.081020206 -0.12594396
0.31266746 0.13772069 -0.10965137 0.21829432 0.15094319 0.2721288 -0.26766962 0.008817254
0.044274613 -0.41246235 -0.045474723 0.44699508 0.38926148 0.13247779 -0.05530272 0.016588008
-0.17823733 0.50374234 -0.29044792 -0.4787176 -0.020545132 0.15059307 -0.5904371 0.3189013
-0.05701842 -0.11934395 0.33718792 -0.4846878 0.2661696 -0.40218037 -0.14853606 -0.11248471

transformer.proj.bias f4 [72]
00000000: f812 babe bd6b b0be d47f 5abd 1481 2cbe
00000010: e105 4fbf b4b6 2cbf 9131 4a3d bbb3 c9be
00000020: e5cb 873f f8b9 803e 471f 503f cafd 363e
00000030: df45 5cbd 72ba 0c3f 9f02 5dbd 4f56 f2be
00000040: 1788 db3e c0da 60be 090a 73be 3d50 93be
00000050: 2ac4 e8bd c1ca b03e 71dc d53e 69fb 09bf
00000060: c098 14be a217 2bbc 4f36 14bd 5c0e e9be
00000070: 159e 4d3e a472 aa3e 1bcd a93e 4e30 9abd
00000080: 0274 783e 628c bfbe 8b6f 823e ec5f fe3d
00000090: e252 5d3e f296 713e 7bdb 08bf b415 de39
000000a0: 29a4 e03d c942 2dbe 9870 f13c 5644 3a3e
000000b0: e2be 76be 12ef 08bd c34d a13e 4acc c6be
000000c0: dbb7 a8be 8490 ed3c 40d1 38be a9b9 0cbe
000000d0: 7615 b63e e028 213e fe4b 9b3d 7bfb 3cbe
000000e0: bd8e 8abe 46c4 373e 332f 863d b7fa 123e
000000f0: d375 343d 75b1 2bbe 4312 7cba 199c 263e
00000100: bfbd 5d3e 8d4a 13be 74c7 4f3f 87e3 d13d
00000110: 87d1 afbe a47e 98bd 85db ee3d ee6a 16bf
-0.36342597 -0.34457198 -0.053344563 -0.16846114 -0.80868345 -0.6746628 0.049363676 -0.39394936
1.0609099 0.25141883 0.81297725 0.1787025 -0.05377757 0.5497199 -0.053957578 -0.47331473
0.42877266 -0.21958447 -0.23734297 -0.28772154 -0.1136554 0.3452969 0.41769746 -0.53899246
-0.14511395 -0.010442646 -0.036184605 -0.45518768 0.20079835 0.3329059 0.33164296 -0.07528745
0.24263003 -0.3741179 0.25475726 0.124206394 0.21613649 0.23592737 -0.534599 0.0004235931
0.10968811 -0.16920008 0.029472634 0.1819013 -0.24096254 -0.03343112 0.3150464 -0.38827735
-0.3295277 0.028999574 -0.18048573 -0.13742699 0.35563248 0.15738249 0.07582854 -0.18455307
-0.27062026 0.17945966 0.06551971 0.14353453 0.04405768 -0.16766913 -0.00096157583 0.16270484
0.21654414 -0.14383908 0.81163716 0.102484755 -0.34339544 -0.0744603 0.11662964 -0.5875691
