saved/pretrain_base_uci_20_120/uci.pt (torch, 260183 bytes, 29 tensors)

transformer.embed.lin.weight f4 [72, 6]
-0.1647441 0.4819803 -0.25894555 -0.16673733 -0.22462976 -0.0779524 -0.48706943 0.16631399
-0.062886074 -0.30076626 0.106166355 0.9492843 -0.2321009 0.569515 0.27510622 0.12602547
-0.6353256 0.57710695 -0.14421973 0.0042321403 0.5436836 -0.071364306 -0.31357515 0.32847908
-0.02087069 -0.015847964 0.8402944 0.3742025 0.42017177 0.22458087 -0.38293302 0.2640198
-0.031733915 0.35620818 -0.16788079 -0.22175533 -0.13653077 0.4769386 -0.5314971 0.16265313
0.30671185 0.33363175 0.8011703 0.15406272 -0.22461824 -0.04645519 -0.029835593 0.15485626
-0.16518596 -0.0355342 0.28496233 0.3870496 0.6611061 -0.5185101 0.66039944 -0.40300205
0.0070897825 -0.12169106 -0.4068036 0.341488 0.26776582 -0.10250072 -0.102479406 0.031226624
-0.19513811 0.07479588 -0.46050406 -0.4356721 -0.39735687 0.05946236 -0.054137193 -0.037651863
0.3345754 -0.4591526 -0.29617348 0.5474507 0.06370367 0.16467719 0.22041366 0.5897785
0.03217052 -0.2979221 -0.12932731 -0.38317487 0.41533712 0.33922368 0.22691815 0.37978235
0.019570854 -0.29792 -0.31938642 -0.56963116 0.31119385 -0.2169822 -0.15764327 -0.10050453
-0.20887874 0.3161496 -0.49127632 -0.15726449 -0.023680808 -0.73430234 0.13642675 -0.45189494
-0.42803884 0.38291508 -0.2891541 -0.25911015 -0.25657243 0.32744825 -0.07600215 -0.30312288
0.17467374 -0.94943255 -0.019107005 -0.34263095 0.50550026 -0.16738844 -0.41042387 -0.26588252
-0.07851183 0.30682895 -0.9350726 -0.13425732 0.1372634 -0.2042833 0.34106904 0.034410592
0.38529894 -0.065433495 0.102414824 -0.5422173 -0.0740298 -0.4562095 0.1998278 -0.24214801
0.047336936 -0.20463735 -0.24131382 -0.1853992 0.10675346 -0.10465862 0.07506304 0.5489948
-0.098474674 0.9456585 -0.5303597 -0.011796135 -0.093355685 -0.00793199 -0.4793047 -0.6414682
0.032519456 -0.078389086 -0.1649427 -0.0069784885 -0.38096216 0.481071 0.28759897 -0.32287398
-0.47599766 0.058723327 0.13770658 -0.18140878 -0.010292753 -1.0485417 -0.34994653 0.14812522
0.24462064 0.27207902 0.21748719 0.09443681 -0.7531189 -0.84172046 -0.32648888 -0.2986139
0.45207682 0.13557017 0.1431462 0.3312156 0.114072226 0.089588635 0.7588202 -0.25114137
0.47983932 0.41398162 -0.50600314 -0.020191202 0.95562166 -0.10967068 -0.275648 0.3545616
-0.017154446 -0.16851267 0.13130078 -0.17376463 0.19364859 -0.04135333 0.47525105 0.17814738
-0.113573395 0.45551 0.04620067 -0.27178034 0.41360426 -0.219796 0.43518957 -0.20413516
-0.00014834153 0.055772685 0.08806946 -0.092012666 0.5027593 0.10305914 -0.7314013 -0.57789236
-0.10826414 -0.41717008 -0.26980722 0.21580422 0.056551054 0.4193541 0.23294689 -0.31344125
-0.105267845 -0.02564624 -0.03409928 0.10425273 -0.0931168 0.4876415 0.6088665 -0.27783754
-0.18887377 0.113666065 -0.40506524 -0.80040807 -0.36315617 0.28727084 -0.069363914 0.34544834
-0.13733216 0.30892837 -0.18867877 -0.27345702 0.15789853 -0.42552805 -0.56024104 0.42800623
0.2124889 0.12675452 0.026399935 -0.31278673 -0.27905887 -0.013357945 0.2827496 0.5293467
00000000: adb2 28be 1fc6 f63e 8394 84be 31bd 2abe
00000010: 5805 66be 82a5 9fbd 2a61 f9be 374e 2a3e
00000020: 6aca 80bd 09fe 99be bf6d d93d 4c04 733f
00000030: dcab 6dbe bccb 113f b9da 8c3e d20c 013e
00000040: b3a4 22bf 48bd 133f 56ae 13be c4ad 8a3b
00000050: d92e 0b3f 7327 92bd ec8c a0be 692e a83e
00000060: 02f9 aabc 97d3 81bc 891d 573f 7897 bf3e
00000070: c120 d73e 87f8 653e cc0f c4be 9a2d 873e
00000080: 6cfb 01bd eb60 b63e f1e8 2bbe d413 63be
00000090: b9ce 0bbe 4c31 f43e 3210 08bf 8b8e 263e
000000a0: 5609 9d3e c8d1 aa3e 7f19 4d3f 9ec2 1d3e
000000b0: 5302 66be cc47 3ebd c669 f4bc a492 1e3e
000000c0: 8226 29be 4f8c 11bd 95e6 913e 5d2b c63e
000000d0: 403e 293f 14bd 04bf f00f 293f 4956 cebe
000000e0: 6851 e83b 2a39 f9bd 9048 d0be 84d7 ae3e
000000f0: 9a18 893e e6eb d1bd b9e0 d1bd face ff3c
00000100: 49d2 47be 952e 993d 30c7 ebbe 6a10 dfbe
00000110: 5c72 cbbe ce8e 733d f6be 5dbd d738 1abd
00000120: 784d ab3e 0d16 ebbe 0da4 97be bb25 0c3f
00000130: 1277 823d 23a1 283e 1eb4 613e b9fb 163f
00000140: 3cc5 033d 3f89 98be 616e 04be 7f2f c4be
00000150: 11a7 d43e baae ad3e 3b5d 683e d572 c23e
00000160: 0e53 a03c f888 98be 9e86 a3be 59d3 11bf
00000170: cd54 9f3e 9530 5ebe 3d6d 21be 52d5 cdbd
00000180: 4fe4 55be 5cde a13e 9288 fbbe f109 21be
00000190: 41fe c1bc 3dfb 3bbf 74b3 0b3e c65e e7be
000001a0: e827 dbbe 720d c43e 020c 94be 16aa 84be
000001b0: 765d 83be 4ca7 a73e 04a7 9bbd ec32 9bbe
000001c0: acdd 323e 030e 73bf 4b86 9cbc 536d afbe
000001d0: 7768 013f e067 2bbe 1423 d2be c121 88be
000001e0: cfca a0bd af18 9d3e eb60 6fbf c07a 09be
000001f0: c78e 0c3e a42f 51be 9aa0 ae3e 1ff2 0c3d
00000200: e745 c53e ff01 86bd ddbe d13d c1ce 0abf
00000210: f09c 97bd 4b94 e9be a99f 4c3e a6f5 77be
00000220: 60e4 413d 748c 51be f81a 77be 4ad9 3dbe
00000230: 8fa1 da3d 4257 d6bd a7ba 993d ec8a 0c3f
00000240: 17ad c9bd ad16 723f a7c5 07bf 9444 41bc
00000250: 4431 bfbd 2df5 01bc 6d67 f5be 4337 24bf
00000260: 1f33 053d 758a a0bd bde6 28be ceab e4bb
00000270: 790d c3be f04e f63e 2c40 933e bd4f a5be
00000280: f7b5 f3be df87 703d f402 0d3e 39c3 39be
00000290: efa2 28bc 9d36 86bf 312c b3be 23ae 173e
000002a0: d57d 7a3e f14d 8b3e f6b4 5e3e 1668 c13d
000002b0: 66cc 40bf fe7a 57bf 8d29 a7be ece3 98be
000002c0: 9d76 e73e e8d2 0a3e eb94 123e 1795 a93e
000002d0: b39e e93d 3f7a b73d 0a42 423f 9a95 80be
000002e0: 80ad f53e 66f5 d33e 6c89 01bf 0568 a5bc
000002f0: 9fa3 743f 059b e0bd bc21 8dbe 1989 b53e
00000300: 7b87 8cbc 968e 2cbe b673 063e 5bef 31be
00000310: d14b 463e 1c62 29bd 1b54 f33e 446c 363e
00000320: 2b99 e8bd 9b38 e93e ea3c 3d3d cb26 8bbe
00000330: f0c3 d33e 3412 61be 2bd1 de3e cf08 51be
00000340: 208c 1bb9 e671 643d c35d b43d 2371 bcbd
00000350: d5b4 003f ac10 d33d 1e3d 3bbf c1f0 13bf
00000360: 97b9 ddbd 5197 d5be 2c24 8abe c8fb 5c3e
00000370: 14a2 673d 95b5 d63e a189 6e3e 5f7b a0be
00000380: ab96 d7bd 1018 d2bc b0ab 0bbd 7582 d53d
00000390: 05b4 bebd 26ac f93e adde 1b3f b940 8ebe
000003a0: 2068 41be c1c9 e83d b664 cfbe 8be7 4cbf
000003b0: 9bef b9be 2a15 933e ab0e 8ebd 9bde b03e
000003c0: cda0 0cbe dc2b 9e3e 0235 41be 8f02 8cbe
000003d0: 27b0 213e d0de d9be f56b 0fbf a223 db3e
000003e0: b196 593e f0cb 013e ad44 d83c 9525 a0be
000003f0: cee0 8ebe 48db 5abc 8ec4 903e 4483 073f

transformer.embed.lin.bias f4 [72]
-0.3463736 0.35183287 0.25553235 0.06679524 -0.10691334 0.039387215 -0.3148934 -0.43067527
0.10753644 -0.39323497 0.20595197 0.32228076 0.23717938 0.24894792 0.3298165 0.18582591
-0.061126232 -0.25978184 0.007733204 0.1013003 0.39557397 0.105289556 0.17412122 0.226296
-0.36320105 -0.17831528 0.22308165 -0.02667079 0.07541726 0.25048423 0.14370605 -0.35825217
-0.24577463 0.35349625 -0.29655764 0.02458228 0.24732156 -0.22488748 -0.12508744 -0.10423826
0.05564487 0.15578182 0.12266311 0.07541761 -0.08997307 -0.058165397 0.06979466 -0.23210473
0.345962 0.22123137 -0.40187773 0.13362657 -0.16317463 0.29507607 0.3768211 0.035900608
0.12680367 -0.04235124 0.3826498 0.23070762 0.13730447 -0.037659537 -0.21936458 -0.34195653
0.406725 -0.11545788 0.09469674 0.33513317 0.105421774 -0.34461814 0.26272961 -0.28745103
00000000: e157 b1be 7023 b43e 23d5 823e f1cb 883d
00000010: 62f5 dabd 7d54 213d b539 a1be 7881 dcbe
00000020: 113c dc3d 1856 c9be 13e5 523e fc01 a53e
00000030: 27df 723e 34ec 7e3e b5dd a83e 2649 3e3e
00000040: 805f 7abd 2002 85be d166 fd3b 8876 cf3d
00000050: ac88 ca3e 0da2 d73d d54c 323e 23ba 673e
00000060: 7df5 b9be 4898 36be 846f 643e b37c dabc
00000070: 5d74 9a3d 783f 803e ae27 133e d46c b7be
00000080: 58ac 7bbe 76fd b43e 67d6 97be c760 c93c
00000090: dd41 7d3e e748 66be ec16 00be de7a d5bd
000000a0: e0eb 633d 4585 1f3e cc36 fb3d 8c74 9a3d
000000b0: cd43 b8bd d73e 6ebd 81f0 8e3d ddac 6dbe
000000c0: ee21 b13e 7a8a 623e ebc2 cdbe 67d5 083e
000000d0: 4017 27be 3614 973e b2ee c03e 840c 133d
000000e0: d2d8 013e 7e78 2dbd adea c33e 9e3e 6c3e
000000f0: 8b99 0c3e e340 1abd 1ca1 60be ed14 afbe
00000100: 423e d03e 2e75 ecbd 5df0 c13d 9396 ab3e
00000110: 5fe7 d73d ca71 b0be 7f84 863e c82c 93be

transformer.embed.pos_embed.weight f4 [120, 72]
-1.134074 -0.74956065 -0.22424674 0.36219123 -0.63198006 0.77198166 -0.6474125 0.50237834
-1.663203 -1.4055153 -0.14028835 1.6961623 0.753935 0.9752257 -0.8645943 -0.89524025
-0.36901537 0.10006633 1.2304469 2.4800525 0.64604527 -1.8741577 -1.0670962 1.1996821
-1.8580755 0.33469334 -0.08025964 -0.36965036 -0.7402479 -1.8857899 0.09483098 1.01186
1.6050309 1.2667009 0.69856036 0.33226407 -0.48867294 2.5895808 -0.928071 -0.14256187
1.2911217 1.2997063 -0.7175945 -0.30488464 -0.11043204 0.5954074 0.025833068 0.5241622
0.6356445 1.9251372 1.4031426 0.8457148 -1.2882268 -1.3351705 0.7216502 1.0462573
1.238824 -0.6306435 0.44681078 0.38077995 -1.2978851 -0.6535282 0.07514191 0.80453324
-1.2772018 -0.13032912 2.7317433 1.248913 -0.22144826 0.7701692 -0.91863036 0.19843917
-1.1216071 0.063078605 0.028616345 0.39773393 -0.5878813 0.60468894 1.1363794 3.1515286
-1.2801738 -1.6647339 0.393831 0.54813033 0.9146837 -0.57937884 1.2336003 -1.2274727
-0.51911014 1.1151353 0.7750383 1.650186 -0.27699766 0.555815 1.7773943 0.8856735
1.2954613 0.19428203 -0.92331004 0.35391247 0.3792926 -0.9745121 2.0488496 1.2473114
1.0478718 1.4680356 -0.72867626 0.65094167 -0.3126006 -1.003923 0.018267427 1.0050371
0.86321896 0.060133398 -1.1974723 -0.6266845 -0.6036499 0.5027038 0.07412747 1.2169906
0.0054920893 3.4685278 0.5013824 -0.076441735 -0.30076736 2.3866358 -0.07255614 0.021540912
1.9920576 0.24804707 1.1662122 -1.201439 -1.5057985 1.3008739 -1.4285194 -0.3913091
-0.86551255 0.16574124 0.8127951 0.009285319 0.8334535 -1.1574856 -1.8545935 1.0381238
-0.25754794 -0.83779764 -3.0360782 0.5188461 1.688209 0.6517245 0.91988647 1.0205458
-1.0881274 -2.1930993 1.4087446 1.0909934 -2.3099902 -0.7594558 0.30209962 1.1009321
1.0565501 1.1905771 -2.3618343 2.2808368 -0.46185246 0.40223098 -1.1299689 1.5377933
-0.2255954 1.6055453 0.8688205 -0.60543346 -0.72020733 -0.0881796 0.79281926 -1.053633
-0.92601204 -0.07503328 -1.4341584 0.16638763 0.2706972 1.470164 -0.57718706 0.44966322
1.1244774 1.2441328 -1.6612054 0.29826388 -0.065497264 0.47417462 -0.14760798 1.7144583
0.4232658 1.4426391 -1.4811363 -0.8690859 1.1028359 -2.4983904 -0.42199853 0.744297
2.3374968 -1.0335846 1.3746029 -0.4468562 0.5477404 -0.53728265 -0.20512351 -2.4325218
-0.5642415 0.17138898 2.7515352 0.15613784 0.5070268 -0.17167431 -1.2595686 0.9130111
-2.1310866 0.22855796 0.03566599 -1.2317392 -0.063707046 -0.7339893 0.388441 -0.29837802
-1.0335485 -1.6248628 -0.36850756 -1.3223097 -0.28823423 -1.618452 1.5878646 0.069444366
-0.27804488 0.6377894 0.4660764 2.2306287 2.1644485 -0.08369792 -1.0611913 2.277276
-1.0432585 -0.34894866 -1.1322528 0.94397116 -0.9272822 -1.6597025 -0.768746 1.6447059
0.9834241 1.4861503 -1.258525 0.5585649 -1.7878283 1.9664627 -0.38923347 0.690763
00000000: 5629 91bf 35e3 3fbf f0a0 65be 2171 b93e
00000010: 72c9 21bf 97a0 453f d3bc 25bf de9b 003f
00000020: d6e3 d4bf ede7 b3bf c0a7 0fbe d91b d93f
00000030: e201 413f 64a8 793f 0d56 5dbf 772e 65bf
00000040: 95ef bcbe 93ef cc3d 497f 9d3f 2eb9 1e40
00000050: 3963 253f 66e4 efbf 9c96 88bf 2f8f 993f
00000060: 6bd5 edbf ed5c ab3e 2b5f a4bd d042 bdbe
00000070: e380 3dbf 9061 f1bf bf36 c23d a184 813f
00000080: a771 cd3f 4123 a23f dad4 323f 841e aa3e
00000090: 5733 fabe b1bb 2540 1096 6dbf bdfb 11be
000000a0: 7a43 a53f c75c a63f 46b4 37bf d719 9cbe
000000b0: 322a e2bd 9f6c 183f df9f d33c 7e2f 063f
000000c0: 99b9 223f e56a f63f 2d9a b33f c480 583f
000000d0: 9ee4 a4bf dee6 aabf 11be 383f c2eb 853f
000000e0: c991 9e3f da71 21bf 62c4 e43e 97f5 c23e
000000f0: 1921 a6bf a04d 27bf 00e4 993d e4f5 4d3f
00000100: 597b a3bf ff74 05be e2d4 2e40 62dc 9f3f
00000110: 55c3 62be cf29 453f 5c2b 6bbf a333 4b3e
00000120: d290 8fbf 5b2f 813d d36c ea3c c8a3 cb3e
00000130: 647f 16bf e5cc 1a3f e174 913f a5b2 4940
00000140: bcdc a3bf 0016 d5bf 38a4 c93e 4552 0c3f
00000150: b628 6a3f 2c52 14bf 9de6 9d3f d31d 9dbf
00000160: 67e4 04bf c1bc 8e3f e968 463f 4b39 d33f
00000170: a3d2 8dbe e449 0e3f a881 e33f 80bb 623f
00000180: add1 a53f def1 463e 0c5e 6cbf 0434 b53e
00000190: a432 c23e a079 79bf 5a20 0340 e6a7 9f3f
000001a0: aa20 863f 97e8 bb3f 878a 3abf 1da4 263f
000001b0: 300d a0be 8d80 80bf 92a5 953c 0ea5 803f
000001c0: ebfb 5c3f 704e 763d c646 99bf 656e 20bf
000001d0: cd88 1abf 32b1 003f 25d0 973d 59c6 9b3f
000001e0: fcf6 b33b 5cfc 5d40 995a 003f 7c8d 9cbd
000001f0: 2efe 99be a4be 1840 5098 94bd 9176 b03c
00000200: befb fe3f 0d00 7e3e 7146 953f c1c8 99bf
00000210: 01be c0bf 0983 a63f b9d9 b6bf ab59 c8be
00000220: 3b92 5dbf 12b8 293e 5713 503f 7321 183c
00000230: 355d 553f 7d28 94bf 5263 edbf 3ee1 843f
00000240: 53dd 83be e879 56bf 1b4f 42c0 19d3 043f
00000250: 3c17 d83f 6bd7 263f ae7d 6b3f 3fa1 823f
00000260: c247 8bbf bd5b 0cc0 be51 b43f aca5 8b3f
00000270: e1d6 13c0 b26b 42bf cdac 9a3e 58eb 8c3f
00000280: 093d 873f d564 983f 4b28 17c0 3bf9 1140
00000290: ed77 ecbe 38f1 cd3e d2a2 90bf 69d6 c43f
000002a0: 7b02 67be 8282 cd3f 056b 5e3f b0fd 1abf
000002b0: 825f 38bf 8297 b4bd 34f6 4a3f 72dd 86bf
000002c0: 200f 6dbf 0cab 99bd 8192 b7bf 8561 2a3e
000002d0: d398 8a3e 552e bc3f 88c2 13bf 423a e63e
000002e0: e0ee 8f3f be3f 9f3f 61a2 d4bf 0bb6 983e
000002f0: 6e23 86bd 04c7 f23e 8c26 17be 5f73 db3f
00000300: 4cb6 d83e 66a8 b83f e095 bdbf 6a7c 5ebf
00000310: ba29 8d3f a1e5 1fc0 3110 d8be 408a 3e3f
00000320: 8c99 1540 804c 84bf fdf2 af3f 56ca e4be
00000330: b738 0c3f 5b8b 09bf e60b 52be 70ae 1bc0
00000340: 2272 10bf 9880 2f3e 2719 3040 99e2 1f3e
00000350: 82cc 013f 64cb 2fbe 8b39 a1bf 18bb 693f
00000360: b963 08c0 190b 6a3e 8016 123d a1a9 9dbf
00000370: d778 82bd b9e6 3bbf bde1 c63e 01c5 98be
00000380: 514b 84bf 81fb cfbf 06ad bcbe 7241 a9bf
00000390: 7093 93be 6f29 cfbf 263f cb3f d938 8e3d
000003a0: e65b 8ebe 2b46 233f 91a1 ee3e 9fc2 0e40
000003b0: 5386 0a40 d169 abbd 1ed5 87bf e4be 1140
000003c0: 7f89 85bf 66a9 b2be a9ed 90bf 18a8 713f
000003d0: 5e62 6dbf 2271 d4bf 8acc 44bf b985 d23f
000003e0: afc1 7b3f 2c3a be3f 5917 a1bf 1cfe 0e3f
000003f0: 8fd7 e4bf 0db5 fb3f 9c49 c7be d8d5 303f

transformer.embed.norm.gamma f4 [72]
0.8273656 0.8894429 0.8599616 0.70722216 0.90965956 0.7977657 0.82960576 1.2819221
0.98770523 1.1376734 0.8017441 0.9909141 0.7733909 0.88671786 0.7450144 1.0605056
0.8020458 0.8275797 0.8612755 0.85349196 0.95216715 0.77011377 0.8033328 0.8439895
0.96510977 0.9731096 0.90997356 0.56516856 0.64100665 0.8855769 0.67554134 0.86696994
0.70241076 0.8314416 0.9520519 0.66349494 0.7439095 0.9397304 0.8610674 0.87577033
0.78911096 0.90567356 0.7872746 0.849023 0.6247578 0.831763 0.7917809 0.78113717
0.9142039 0.843876 0.8033961 0.82581276 0.789296 0.8376279 0.9195302 0.81604916
0.8331703 0.8506996 0.895264 0.7704479 0.72290653 0.8090349 0.96151143 0.9863105
1.0018684 0.84962773 1.096806 0.7769207 0.94397825 0.9564064 0.8478929 0.8649281
00000000: 3bce 533f 88b2 633f 7226 5c3f 830c 353f
00000010: 73df 683f 5f3a 4c3f 0b61 543f 0616 a43f
00000020: 40da 7c3f 489f 913f 1a3f 4d3f 8cac 7d3f
00000030: f2fc 453f f1ff 623f 44b9 3e3f a6be 873f
00000040: e052 4d3f 43dc 533f 8d7c 5c3f 737e 5a3f
00000050: 3ac1 733f 2d26 453f 38a7 4d3f b20f 583f
00000060: 6f11 773f b61d 793f 07f4 683f e3ae 103f
00000070: 0319 243f 2bb5 623f 47f0 2c3f bef1 5d3f
00000080: 31d1 333f 5bd9 543f acb9 733f ceda 293f
00000090: da70 3e3f 2c92 703f ea6e 5c3f 7c32 603f
000000a0: 2d03 4a3f 39da 673f d48a 493f 9259 593f
000000b0: 21f0 1f3f 6cee 543f 27b2 4a3f 9bf8 473f
000000c0: 4409 6a3f 4208 583f 5eab 4d3f 7768 533f
000000d0: 4d0f 4a3f c86e 563f 5566 6b3f 99e8 503f
000000e0: a64a 553f 73c7 593f 0630 653f 133c 453f
000000f0: 6710 393f e91c 4f3f 9d25 763f d87e 7c3f
00000100: 393d 803f 3481 593f 2464 8c3f 46e4 463f
00000110: 8fa8 713f 0dd7 743f 820f 593f ee6b 5d3f

transformer.embed.norm.beta f4 [72]
0.21766248 0.05374828 0.0003225125 0.015768839 0.12718007 0.097781345 0.23770256 -0.08376454
0.00450808 -0.063535154 -0.13628955 -0.073280714 -0.2485524 -0.22645801 -0.2895431 0.03413449
0.07314527 0.017501973 0.08482562 -0.07521289 -0.22692269 -0.21520717 -0.13344376 -0.097874634
0.40822926 0.34253028 0.05110379 -0.058379836 -0.1019769 -0.018622544 -0.06540705 0.35799074
0.094024904 -0.34771535 0.060584124 -0.012917247 -0.16549803 0.018703975 0.09640491 0.166207
0.018984415 0.23872165 0.07902727 -0.04666618 0.13718359 0.020279486 -0.0027402814 0.15971915
-0.24709888 -0.09922842 0.5330858 -0.13284718 0.09508979 -0.08133717 0.009378024 0.16105764
0.016696641 0.05821121 -0.10391233 -0.11780291 0.027307596 0.2131515 0.0221115 0.14495254
-0.15410776 0.11123173 -0.080968626 -0.36474904 -0.074492835 0.09705874 -0.20462106 0.12044587
00000000: eae2 5e3e 2827 5c3d e516 a939 a72d 813c
00000010: 7e3b 023e 9641 c83d 4d68 733e be8c abbd
00000020: 84b8 933b b81e 82bd 7d8f 0bbe 3314 96bd
00000030: 8584 7ebe 9ce4 67be fe3e 94be 9bd0 0b3d
00000040: 30cd 953d 4c60 8f3c 0eb9 ad3d 3709 9abd
00000050: 6c5e 68be 455f 5cbe 7ba5 08be 7f72 c8bd
00000060: 6d03 d13e 2160 af3e 3552 513d b21f 6fbd
00000070: 44d9 d0bd 4e8e 98bc 22f4 85bd 904a b73e
00000080: 2190 c03d bf07 b2be 0f27 783d dca2 53bc
00000090: 5178 29be 1439 993c f06f c53d 2b32 2a3e
000000a0: 3485 9b3c 7373 743e 0dd9 a13d 0925 3fbd
000000b0: db79 0c3e 2a21 a63c 4b96 33bb 6b8d 233e
000000c0: 7d07 7dbe 4538 cbbd 5078 083f 1709 08be
000000d0: 70be c23d 1a94 a6bd 49a6 193c 4bec 243e
000000e0: 65c7 883c e16e 6e3d fdcf d4bd a742 f1bd
000000f0: 2eb4 df3c 6344 5a3e 2d23 b53c 706e 143e
00000100: 6dce 1dbe 76cd e33d e1d2 a5bd 63c0 babe
00000110: b38f 98bd bcc6 c63d 2f88 51be 53ac f63d

transformer.attn.proj_q.weight f4 [72, 72]
-0.009510982 -0.02671686 -0.07635806 0.114239596 0.019676363 0.106407024 0.17616716 -0.082595006
-0.26078928 -0.024139434 -0.31538892 -0.01818084 0.018895155 -0.17249608 -0.17724076 -0.16647045
0.12202864 0.039508373 0.014119139 0.010565285 -0.0031146724 -0.03467472 -0.3250529 0.16320665
0.0013465224 0.17450109 0.27701724 0.05469355 0.07148181 0.021305926 -0.21558121 0.21099074
0.12080476 -0.11328359 -0.047198053 0.09431129 -0.020244744 -0.13237135 0.11226165 0.28679252
-0.1807357 -0.016844036 0.25354764 0.18263784 0.13421693 -0.10389636 0.047779087 0.057239812
-0.21419881 0.16896555 0.0073886313 -0.17156446 -0.105538055 0.055809304 -0.06372536 -0.041645102
0.30016723 -0.04459047 0.12211203 -0.1399688 -0.14338526 -0.080994934 0.06791127 -0.032277938
-0.06641692 0.07995431 0.046613004 0.11900707 -0.091470994 0.063402615 -0.18191993 -0.032833997
-0.11935547 -0.39031917 0.035939973 -0.0454366 -0.22055572 -0.0116309635 -0.23498438 0.20620061
-0.015374965 -0.026501225 -0.31859988 -0.04285515 0.12886308 -0.17181677 0.14734697 -0.07996513
-0.09481022 -0.027819885 -0.0075000217 0.19499925 0.06344791 -0.01444181 -0.30213842 0.19589047
0.17002858 -0.2971759 -0.0048764604 -0.13769478 0.17544557 0.2142441 0.20965664 -0.14356041
0.010776604 -0.054264314 0.07914427 -0.0016633014 -0.11567734 -0.18115784 -0.049000464 -0.3002884
-0.34353927 0.019055191 0.15266487 -0.019393211 0.28613776 0.16279787 -0.07124567 0.14989983
-0.19499062 0.12489429 0.017885664 -0.07561422 0.06804624 0.14167266 0.22801113 0.19057812
-0.012198511 0.027970253 0.22539315 0.002619972 -0.050069366 -0.36776108 0.12153123 -0.050107546
0.29153875 -0.16678143 0.028985376 0.037890855 0.17459996 0.19145851 -0.2869925 -0.1506532
0.017755026 0.23433404 -0.28824827 0.34758592 -0.095796354 0.07744806 0.10690307 0.016548334
0.1693924 0.027065894 0.13765864 -0.10941606 -0.15310273 0.006987881 0.35219163 0.04611898
0.11740813 0.30967063 0.052318264 0.13806845 0.246614 0.07335152 0.14500082 -0.10680906
0.063503966 -0.15493788 -0.02903312 0.011924558 -0.35998952 0.01769063 -0.17933933 -0.12177647
0.0354644 -0.31392068 -0.1527053 0.088305525 -0.18403932 0.17634451 -0.17941569 0.33528
0.030977862 0.08194251 -0.17596054 0.14655285 0.051074322 -0.1528791 0.2222725 -0.29450887
-0.2138159 0.19973153 0.15601648 -0.014429795 -0.2695887 -0.22537991 -0.01742595 -0.070088774
-0.03708996 -0.11687068 -0.28185922 -0.030495992 0.0896878 -0.17184159 -0.104430884 -0.25243518
-0.10641313 0.19712244 0.19683902 -0.031612247 0.05504428 -0.12928836 0.14211378 -0.03352789
0.21792133 0.044870608 0.20813444 0.053070962 -0.2668256 -0.6747815 0.06209428 -0.14365211
0.02067867 0.010254964 -0.30422044 -0.09525873 0.06670808 -0.26519534 0.03663499 0.0950856
0.37890136 -0.30347538 -0.0835478 0.031283896 -0.1121847 0.3329432 0.11087095 0.11744126
-0.08199246 0.42181253 -0.06516069 -0.001484741 0.14958738 0.12054348 -0.18412001 -0.1436506
-0.1079246 0.3253197 -0.23253882 -0.1405699 0.045552168 -0.228971 0.18342322 -0.04918259
00000000: f3d3 1bbc 51dd dabc 9d61 9cbd 73f6 e93d
00000010: 5330 a13c edeb d93d 2a65 343e 9227 a9bd
00000020: 2c86 85be 10c0 c5bc a87a a1be fcef 94bc
00000030: 03ca 9a3c d0a2 30be 9a7e 35be 3b77 2abe
00000040: 27ea f93d 88d3 213d f653 673c 041a 2d3c
00000050: 881f 4cbb 1407 0ebd 556d a6be a51f 273e
00000060: cb7d b03a 6ab0 323e 34d5 8d3e 5806 603d
00000070: 0e65 923d c489 ae3c 52c1 5cbe f50d 583e
00000080: 7c68 f73d 3a01 e8bd bf52 41bd 4726 c13d
00000090: 4ed8 a5bc 5b8c 07be 70e9 e53d 78d6 923e
000000a0: c812 39be 81fc 89bc ffd0 813e 6a05 3b3e
000000b0: 2a70 093e 9dc7 d4bd 01b4 433d 4b74 6a3d
000000c0: ef56 5bbe 4e05 2d3e 551c f23b 98ae 2fbe
000000d0: 5624 d8bd 4c98 643d 7182 82bd 0e94 2abd
000000e0: 85af 993e 7fa4 36bd df15 fa3d fb53 0fbe
000000f0: 96d3 12be ace0 a5bd 1015 8b3d df35 04bd
00000100: 9805 88bd 16bf a33d 47ed 3e3d fbb9 f33d
00000110: 2555 bbbd 3bd9 813d 3849 3abe f17c 06bd
00000120: a470 f4bd ead7 c7be cb35 133d ba1b 3abd
00000130: 5cd9 61be cc8f 3ebc bf9f 70be 4126 533e
00000140: 47e7 7bbc 1919 d9bc 861f a3be e288 2fbd
00000150: aff4 033e bcf0 2fbe 20e2 163e c2c4 a3bd
00000160: dc2b c2bd 87e6 e3bc bec2 f5bb e2ad 473e
00000170: faf0 813d 579d 6cbc e3b1 9abe 8397 483e
00000180: f91b 2e3e 7127 98be b7ca 9fbb dcff 0cbe
00000190: 01a8 333e ce62 5b3e 3bb0 563e 8001 13be
000001a0: 5a90 303c 4244 5ebd 6416 a23d 2203 daba
000001b0: 3ee8 ecbd 7181 39be b6b4 48bd 67bf 99be
000001c0: 61e4 afbe a219 9c3c 2e54 1c3e 83de 9ebc
000001d0: a680 923e 7cb4 263e 40e9 91bd 577f 193e
000001e0: 9fab 47be 94c8 ff3d f584 923c a1db 9abd
000001f0: d45b 8b3d a312 113e c07b 693e e926 433e
00000200: 43dc 47bc df21 e53c 76cd 663e d6b3 2b3b
00000210: 8915 4dbd 2e4b bcbe 5ee5 f83d 923d 4dbd
00000220: 9144 953e c0c8 2abe bd72 ed3c 7133 1b3d
00000230: 55ca 323e b30d 443e aef0 92be d544 1abe
00000240: fd72 913c 43f5 6f3e 4795 93be c8f6 b13e
00000250: e130 c4bd 179d 9e3d ffef da3d 5f90 873c
00000260: 3475 2d3e 4bb9 dd3c 63f6 0c3e 8715 e0bd
00000270: f6c6 1cbe 98fa e43b 7652 b43e 41e7 3c3d
00000280: ac73 f03d 268d 9e3e ad4b 563d d161 0d3e
00000290: 6188 7c3e 5239 963d 187b 143e b5be dabd
000002a0: 5e0e 823d 09a8 1ebe ded6 edbc 395f 433c
000002b0: 8c50 b8be f1eb 903c bba4 37be f165 f9bd
000002c0: 1e43 113d 36ba a0be c75e 1cbe 87d9 b43d
000002d0: ce74 3cbe a893 343e bfb8 37be d2a9 ab3e
000002e0: 49c5 fd3c 7ad1 a73d 002f 34be f311 163e
000002f0: 4f33 513d 578c 1cbe 679b 633e dec9 96be
00000300: 8ef2 5abe 6c86 4c3e c9c2 1f3e f26a 6cbc
00000310: 8807 8abe fec9 66be dec0 8ebc b48a 8fbd
00000320: a4eb 17bd e559 efbd da4f 90be bbd2 f9bc
00000330: 3dae b73d 3ef7 2fbe dcdf d5bd 2f3f 81be
00000340: 21ef d9bd 77da 493e 2b90 493e d87b 01bd
00000350: 1c76 613d 2b64 04be 4686 113e 8a54 09bd
00000360: c526 5f3e 3eca 373d 3221 553e f060 593d
00000370: 5d9d 88be 7bbe 2cbf 9256 7e3d 8a19 13be
00000380: 5066 a93c 7004 283c c8c2 9bbe 0217 c3bd
00000390: 3f9e 883d afc7 87be 920e 163d 3dbc c23d
000003a0: 5cff c13e 2061 9bbe 1c1b abbd 8b23 003d
000003b0: 18c1 e5bd 8877 aa3e 4f10 e33d 0b85 f03d
000003c0: aaeb a7bd d0f7 d73e f872 85bd a49b c2ba
000003d0: 6f2d 193e 80df f63d f589 3cbe 2519 13be
000003e0: 9307 ddbd 4e90 a63e a81e 6ebe 8ef1 0fbe
000003f0: e994 3a3d 6077 6abe 4cd3 3b3e af73 49bd

transformer.attn.proj_q.bias f4 [72]
-0.38223496 -0.3239467 -0.28587306 0.04664391 -0.36031833 -0.038921513 0.14581142 0.12932314
0.28861216 0.28651386 0.2589222 -0.16434734 0.045053974 -0.21323782 -0.038515598 -0.0656882
0.36079204 0.15790159 0.059006985 -0.04728876 0.02600594 -0.07530717 -0.11275038 0.008386311
0.110275656 0.19259311 -0.18848626 -0.16402349 0.07666281 0.2388104 -0.17150922 -0.10311124
-0.07297086 0.08917779 0.0565204 0.09582282 0.077254534 -0.052080233 -0.12132455 0.030494992
-0.14427067 -0.029872835 0.059087098 0.23893411 -0.09562704 -0.19706519 0.1490696 0.15439662
-0.15505137 -0.113672964 -0.05314185 0.009102668 0.11041466 0.1145651 0.036211357 -0.2238652
-0.06228305 -0.025914902 -0.01456836 -0.15950003 0.028373912 -0.14465009 0.2208087 0.16142605
-0.3438107 0.113155395 0.1710886 0.24190351 -0.105066 -0.25370246 -0.102997035 -0.18728639
00000000: 4db4 c3be 58dc a5be f45d 92be af0d 3f3d
00000010: a57b b8be 2a6c 1fbd 974f 153e 496d 043e
00000020: f9c4 933e f2b1 923e 7391 843e ab4a 28be
00000030: 848a 383d 045b 5abe 88c2 1dbd 8987 86bd
00000040: bcb9 b83e f4b0 213e 4fb1 713d dcb1 41bd
00000050: 690a d53c a53a 9abd ace9 e6bd bd66 093c
00000060: 34d8 e13d 2137 453e 8b02 41be c6f5 27be
00000070: 6401 9d3d b78a 743e 1da0 2fbe fc2b d3bd
00000080: bf71 95bd d8a2 b63d ef81 673d c13e c43d
00000090: a037 9e3d 1552 55bd 0179 f8bd a2d0 f93c
000000a0: b1bb 13be e0b7 f4bc 5005 723d 25ab 743e
000000b0: 1cd8 c3bd 75cb 49be b4a5 183e 261a 1e3e
000000c0: c9c5 1ebe 5fcd e8bd 45ab 59bd 5b23 153c
000000d0: 1521 e23d 1ba1 ea3d 5c52 143d eb3c 65be
000000e0: 831c 7fbd 7d4b d4bc 21b0 6ebc fa53 23be
000000f0: 6870 e83c 271f 14be ad1b 623e df4c 253e
00000100: f507 b0be 04be e73d da31 2f3e 8eb5 773e
00000110: d82c d7bd 4ae5 81be 1cf0 d2bd 01c8 3fbe

transformer.attn.proj_k.weight f4 [72, 72]
0.011061408 0.14792164 -0.088656105 0.08883949 0.089508854 0.021877423 0.030949716 -0.21669418
0.014257742 0.002147618 0.20336714 -0.01887701 -0.1814468 0.07688615 0.36468002 -0.03127064
0.15405335 -0.0041939663 -0.0736825 0.04863488 -0.031327616 -0.06396973 0.3372795 0.05302826
-0.42220068 -0.045660663 -0.13954829 -0.05463771 -0.029227681 -0.24794753 0.04821178 -0.15336005
0.048132285 0.24819951 -0.12735201 -0.031279363 0.09458391 0.22677882 -0.22231849 -0.01332457
0.113717884 0.082798086 -0.21128814 0.074006625 -0.21497203 0.050641276 0.16296436 -0.33298895
0.30747336 -0.013458694 -0.22483712 0.035924528 -0.22545275 0.062165074 0.016707411 -0.19594513
-0.077359736 -0.06715007 0.006053589 0.027200963 0.22395012 -0.0035363154 -0.22030246 -0.27224255
-0.018928997 -0.24855745 -0.059972443 0.16251741 -0.08459418 -0.11992697 0.06963323 0.15892108
0.10578484 0.32703012 0.14064941 -0.00017174419 -0.14932746 0.08206399 -0.037137132 -0.3604683
0.12779006 0.11915347 -0.18354197 0.01590677 -0.13551638 0.31353438 0.2908943 0.017166957
0.17837644 0.11834944 0.035404995 -0.21169493 -0.024972366 0.10523482 0.1519833 -0.2695899
-0.092279434 0.17979753 -0.17793413 -0.1526352 -0.10171504 0.14640002 -0.21213134 -0.01947524
0.25575304 0.04713031 -0.19761203 0.10088987 -0.19501425 0.33706787 -0.2680891 -0.15399121
0.13504408 -0.10247968 -0.12937021 -0.22060163 -0.20659077 -0.01408399 -0.001359222 0.1880277
0.25920644 -0.15758349 -0.069668375 0.16430579 0.0016246024 0.097374886 0.18149959 -0.25836432
-0.08076456 0.2778565 -0.21374628 0.42523888 0.05806818 0.22082789 -0.11267733 -0.076952346
-0.04534746 -0.123864956 -0.12016919 -0.19741711 -0.07428271 -0.23225822 0.337355 0.21882476
0.15743048 -0.07529478 -0.02614675 -0.36688304 -0.12771027 -0.13644172 -0.21722591 -0.13516368
-0.056106627 -0.3257904 -0.29393294 0.11785375 -0.009738473 0.06509997 0.18939899 -0.20868416
0.24053945 -0.22920844 -0.22451946 0.08606982 -0.009516278 0.18873867 -0.070105284 0.51112354
-0.0032193065 0.39268294 0.10629041 0.10414004 0.16897017 0.05837382 -0.012197135 0.042360872
-0.2589522 0.24390107 -0.4142002 -0.16358636 0.022970453 -0.21951328 0.3545582 0.06848217
-0.21782228 -0.07116865 0.15250057 -0.025881683 -0.0014033003 -0.0293933 0.031894192 -0.13677968
0.2716288 -0.044406787 -0.07654867 -0.042993 -0.117684245 0.12909877 -0.08394669 -0.16325608
0.05291079 -0.1176758 0.13205475 0.20452076 0.0064101038 0.05319729 0.19073838 -0.012208809
0.07909792 0.060242947 -0.16282076 0.3091512 0.13727625 0.29352084 0.044749297 0.1417256
-0.20145743 0.112529576 -0.144297 0.13311785 -0.14858624 -0.40074646 0.20237757 0.25913575
0.18055114 0.1694 -0.07644659 -0.15961005 -0.1822686 -0.34351844 0.4776407 0.10187852
-0.11491514 0.2909997 -0.09485512 0.062386733 0.4764284 -0.027927859 0.047400344 -0.34102792
-0.12413463 -0.15206812 0.15790537 0.018409213 0.012033643 -0.07376321 0.022946315 0.035363577
-0.09349645 -0.384127 0.4634858 -0.024776742 -0.3300753 0.24795471 -0.16523959 -0.08580648
00000000: e83a 353c c578 173e 5591 b5bd 7bf1 b53d
00000010: 6b50 b73d 4838 b33c 428a fd3c 14e5 5dbe
00000020: 4e99 693c 0dbf 0c3b 7a3f 503e f6a3 9abc
00000030: 31cd 39be 7c76 9d3d 57b7 ba3e a515 00bd
00000040: 29c0 1d3e 8a6d 89bb dae6 96bd 5e35 473d
00000050: 6351 00bd 9002 83bd e6af ac3e 2934 593d
00000060: b02a d8be ad06 3bbd bfe5 0ebe cbcb 5fbd
00000070: e46e efbc f5e5 7dbe b779 453d 6b0a 1dbe
00000080: 5c26 453d 0328 7e3e 9168 02be ca1e 00bd
00000090: 36b5 c13d b538 683e 75a7 63be 4c4f 5abc
000000a0: ece4 e83d 0b92 a93d eb5b 58be c990 973d
000000b0: a121 5cbe 3a6d 4f3d 21e0 263e 877d aabe
000000c0: 266d 9d3e db81 5cbc b43b 66be 9925 133d
000000d0: 16dd 66be cea0 7e3d fbdd 883c d7a5 48be
000000e0: c86e 9ebd fa85 89bd 2f5d c63b 8ed4 de3c
000000f0: 2e53 653e 87c1 67bb f896 61be 6063 8bbe
00000100: fc10 9bbc d885 7ebe aaa5 75bd f76a 263e
00000110: b73f adbd 459c f5bd de9b 8e3d 35bc 223e
00000120: b9a5 d83d 7e70 a73e 6606 103e 3b16 34b9
00000130: 4ce9 18be 2a11 a83d 1b1d 18bd 4d8f b8be
00000140: 66db 023e bc06 f43d 6df2 3bbe ea4e 823c
00000150: cec4 0abe 9487 a03e 19f0 943e b8a1 8c3c
00000160: 50a8 363e 3161 f23d d404 113d 8ec6 58be
00000170: d992 ccbc 5a85 d73d 83a1 1b3e b007 8abe
00000180: 00fd bcbd d81c 383e 5d34 36be 674c 1cbe
00000190: fa4f d0bd e3e9 153e f538 59be 8a8a 9fbc
000001a0: 10f2 823e b60b 413d cf5a 4abe 599f ce3d
000001b0: d1b1 47be 2994 ac3e f942 89be dfaf 1dbe
000001c0: ff48 0a3e dee0 d1bd a079 04be 65e5 61be
000001d0: 888c 53be 89c0 66bc ec27 b2ba 558a 403e
000001e0: b5b6 843e 915d 21be 4bae 8ebd c73f 283e
000001f0: 9cf0 d43a 7c6c c73d 07db 393e 5448 84be
00000200: e467 a5bd 3543 8e3e 4ee0 5abe e9b8 d93e
00000210: e6d8 6d3d b520 623e 5fc3 e6bd 3199 9dbd
00000220: 42be 39bd e9ac fdbd 441b f6bd b627 4abe
00000230: 8921 98bd 19d5 6dbe cbb9 ac3e 9913 603e
00000240: 7535 213e 2634 9abd b631 d6bc 18d8 bbbe
00000250: 7bc6 02be 61b7 0bbe 7870 5ebe 5968 0abe
00000260: 10d0 65bd 00ce a6be 617e 96be 4f5d f13d
00000270: 1e8e 1fbc 2253 853d cff1 413e 4db1 55be
00000280: f94f 763e 9eb5 6abe 6ee8 65be 6045 b03d
00000290: 2aea 1bbc b644 413e 5c93 8fbd fed8 023f
000002a0: 00fb 52bb bd0d c93e c9ae d93d 6047 d53d
000002b0: 8406 2d3e 6319 6f3d 7ed6 47bc 9882 2d3d
000002c0: 6295 84be 34c1 793e 0c12 d4be 2f83 27be
000002d0: 882c bc3c 17c8 60be a788 b53e 6140 8c3d
000002e0: ce0c 5fbe dfc0 91bd 1c29 1c3e d305 d4bc
000002f0: f2ee b7ba 38ca f0bc 7ca3 023d f90f 0cbe
00000300: ee12 8b3e e4e3 35bd 8dc5 9cbd 6e19 30bd
00000310: 7004 f1bd 7832 043e 3eec abbd 9a2c 27be
00000320: fcb8 583d 0300 f1bd 5c39 073e e46d 513e
00000330: d90b d23b 67e5 593d ec50 433e 7507 48bc
00000340: 17fe a13d 4fc1 763d 7cba 26be 1149 9e3e
00000350: 2592 0c3e 5d48 963e 0a4b 373d 8420 113e
00000360: db4a 4ebe e875 e63d 98c2 13be 0c50 083e
00000370: fe26 18be a42e cdbe 113c 4f3e 71ad 843e
00000380: 66e2 383e 3277 2d3e 0890 9cbd d170 23be
00000390: 9fa4 3abe a6e1 afbe 528d f43e afa5 d03d
000003a0: a158 ebbd eafd 943e 6743 c2bd 3b89 7f3d
000003b0: 6cee f33e f7c8 e4bc dd26 423d 369b aebe
000003c0: 4c3a febd bfb7 1bbe f2b1 213e ebce 963c
000003d0: c228 453c 2a11 97bd e9f9 bb3c 66d9 103d
000003e0: 117b bfbd 4bac c4be 034e ed3e 98f8 cabc
000003f0: a1ff a8be d7e7 7d3e 9134 29be 4fbb afbd

transformer.attn.proj_k.bias f4 [72]
-0.050608084 -0.037645582 0.06722501 0.0632312 -0.018261142 0.047049392 -0.038125593 0.04674785
0.04931955 0.053126298 -0.036788136 0.041335374 0.02427564 0.08446876 0.023267906 0.0045858757
0.07826422 0.1171493 -0.06967468 0.04343237 0.0742375 -0.00024120459 -0.026888957 -0.08367909
-0.060903 -0.10214615 -0.084325366 -0.09595601 0.09020235 0.04126727 0.11746957 0.0040573073
0.0010747274 0.054059252 -0.0884728 -0.030456921 0.057668068 0.10152335 0.07773151 0.027896414
0.027928554 -0.03863809 0.07847203 -0.0043113935 0.043773685 -0.024421975 0.021302475 -0.11787806
-0.019399067 0.085743934 0.009728294 0.11127308 -0.09892169 -0.052922156 -0.09927043 0.065248206
-0.09123036 -0.019868368 0.07431782 -0.035527218 0.02214358 -0.06539753 -0.0036582102 -0.047419146
-0.056125253 -0.019049203 0.080500305 0.07051897 -0.05728907 0.07116554 0.10064807 -0.03383109
00000000: 6c4a 4fbd 4132 1abd 44ad 893d 5c7f 813d
00000010: 6498 95bc ddb6 403d 9529 1cbd ac7a 3f3d
00000020: 4c03 4a3d f69a 593d 28af 16bd 484f 293d
00000030: b5dd c63c f5fd ac3d 569c be3c 1d45 963b
00000040: fe48 a03d f9eb ef3d 99b1 8ebd 24e6 313d
00000050: d509 983d ddeb 7cb9 3b46 dcbc f15f abbd
00000060: 6d75 79bd 0032 d1bd c7b2 acbd 9684 c4bd
00000070: 02bc b83d de07 293d e393 f03d 29f3 843b
00000080: dedd 8c3a 3c6d 5d3d 3a31 b5bd cb80 f9bc
00000090: 5a35 6c3d 79eb cf3d b331 9f3d 0587 e43c
000000a0: 6cca e43c f942 1ebd f2b5 a03d 9746 8dbb
000000b0: 094c 333d 9810 c8bc 8782 ae3c 0d6a f1bd
000000c0: cbea 9ebc 849a af3d 6c63 1f3c 24e3 e33d
000000d0: 7497 cabd e7c4 58bd 4c4e cbbd daa0 853d
000000e0: fcd6 babd fdc2 a2bc f133 983d fd84 11bd
000000f0: 7466 b53c 24ef 85bd 95be 6fbb 943a 42bd
00000100: 98e3 65bd 130d 9cbc 58dd a43d 406c 903d
00000110: f2a7 6abd 3dbf 913d 9320 ce3d 7892 0abd

transformer.attn.proj_v.weight f4 [72, 72]
-0.29599512 -0.25013024 0.18338121 -0.0755579 0.0983155 -0.008085731 -0.24608997 -0.20750554
0.19964582 -0.2027695 0.28416362 0.14575796 0.18250349 0.056639407 0.29500315 0.11046025
-0.20168641 0.09699082 -0.10434097 0.058280066 -0.1433455 0.1437956 -0.06180574 0.026358496
-0.30510256 -0.17379211 0.14195605 0.005632295 0.37264436 0.04684955 0.11549808 -0.11906438
-0.1435761 0.31961182 -0.21096776 -0.022399573 0.18774772 -0.13175097 -0.23871073 0.044735394
0.05999411 -0.12648718 0.18187319 0.12266367 0.018014543 -0.45432323 0.07045784 -0.20643078
0.09347312 0.24829479 -0.078947626 0.23284885 -0.105243556 -0.18708356 -0.2643798 -0.12186783
0.08492177 -0.018452324 0.110615276 -0.23024182 0.2700441 -0.09504233 -0.08752275 -0.12860855
0.10830741 -0.086731754 0.030638812 0.14992192 0.12980437 -0.23277469 0.38697603 -0.29700738
-0.23611322 0.06603271 -0.06097071 0.19404252 0.13382746 0.19261652 0.0043959506 -0.025145194
-0.21561325 0.3606032 -0.03247386 -0.112815276 0.023342598 0.008103492 0.27677622 -0.25009087
-0.36685747 -0.2331841 -0.12111912 -0.26260304 -0.13036877 -0.030420894 -0.045840703 -0.14361408
0.17302747 0.1749596 0.037156705 -0.20960619 0.15566443 0.12260309 -0.08159356 0.182416
-0.09939169 0.18197885 -0.124697946 0.18553934 -0.15434442 -0.027248414 0.06478354 0.02010686
-0.049776882 0.028760547 0.07731224 0.07638112 0.39778247 -0.14606127 0.16365615 0.36493358
-0.020070639 -0.16759618 0.016129225 -0.23234653 -0.02984635 -0.2075803 0.038549088 -0.11727166
0.0005141104 0.01573889 -0.1266507 0.121397644 0.07737433 0.015474993 0.26336932 0.068059616
0.028075295 0.09110737 0.04044503 -0.27105173 -0.21142471 -0.09837144 0.04100356 -0.19201332
0.033085387 -0.08810787 0.062076613 0.17052127 0.062450208 -0.1204705 0.094894126 -0.18440446
0.2966877 -0.29425627 -0.1723536 0.059698768 -0.13856417 0.070937455 0.30737856 -0.08329875
0.1036769 0.19759259 -0.28707987 -0.08263788 -0.030643625 -0.051681202 0.11397218 0.107385345
-0.1737505 0.1321835 -0.0909605 0.29612747 0.12766406 0.1223825 0.2957682 0.46508023
0.20286128 -0.044051792 0.118181564 -0.24703006 0.115615346 0.19181049 0.08372874 -0.14661379
0.31309262 0.081825025 -0.25408384 -0.032453388 0.33817568 -0.09630266 0.029721571 -0.054558087
-0.32378358 -0.01728484 -0.060120303 0.2755017 0.18019728 -0.570577 -0.093723714 0.17003378
0.046254195 -0.030653525 -0.10434946 0.20570603 -0.06868541 0.1939457 -0.03778618 0.12026118
-0.18445006 0.0562657 -0.18224381 -0.09151091 0.13282464 0.4113431 -0.18357366 -0.09276837
-0.14300741 0.097621046 0.21959239 0.18618013 -0.1290175 -0.19483706 0.009683902 0.007874381
-0.23580264 -0.042487975 0.18457177 0.18543874 0.014868001 0.29888588 0.0041513606 0.31976593
0.009691833 -0.26671532 0.09434534 -0.16908811 0.14827569 -0.13914965 -0.17511488 0.0013793122
-0.12546903 0.016109072 0.2120484 0.19725917 0.0016909253 0.00066807633 0.10806318 0.071058735
-0.09475289 -0.23951305 -0.24426894 -0.31547648 0.13550238 -0.04192649 -0.009653622 -0.3239395
00000000: ac8c 97be 1211 80be 49c8 3b3e 1abe 9abd
00000010: a359 c93d 047a 04bc 02ff 7bbe 557c 54be
00000020: f46f 4c3e cfa2 4fbe e57d 913e 9341 153e
00000030: 32e2 3a3e b9fe 673d a70a 973e fc38 e23d
00000040: e286 4ebe 1fa3 c63d b8b0 d5bd 14b7 6e3d
00000050: 2ac9 12be 273f 133e 0428 7dbd c6ed d73c
00000060: 6736 9cbe 8ff6 31be ed5c 113e 1d8f b83b
00000070: 3ecb be3e 50e5 3f3d 428a ec3d 07d8 f3bd
00000080: 9d05 13be 29a4 a33e ef07 58be 4f7f b7bc
00000090: f040 403e bae9 06be 9670 74be 763c 373d
000000a0: 62bc 753d db85 01be f73c 3a3e 1737 fb3d
000000b0: 3c93 933c 0e9d e8be 334c 903d 9762 53be
000000c0: d66e bf3d fd40 7e3e 4baf a1bd ee6f 6e3e
000000d0: ef89 d7bd d592 3fbe ca5c 87be d795 f9bd
000000e0: 77eb ad3d 5429 97bc 438a e23d 83c4 6bbe
000000f0: 3843 8a3e 8ea5 c2bd 213f b3bd f6b1 03be
00000100: 46d0 dd3d 6ba0 b1bd 3ffe fa3c 2285 193e
00000110: 70eb 043e 7d5c 6ebe b921 c63e 5a11 98be
00000120: aac7 71be 283c 873d 6cbc 79bd 15b3 463e
00000130: 110a 093e 443d 453e e80b 903b 4bfd cdbc
00000140: b8c9 5cbe fca0 b83e 4f03 05bd b20b e7bd
00000150: fa38 bf3c 82c4 043c 9db5 8d3e e90b 80be
00000160: bed4 bbbe d0c7 6ebe 4d0d f8bd e873 86be
00000170: 647f 05be 3d35 f9bc 76c3 3bbd 920f 13be
00000180: 1d2e 313e 9c28 333e a131 183d 01a3 56be
00000190: 7f66 1f3e 5417 fb3d 861a a7bd 43cb 3a3e
000001a0: df8d cbbd aa58 3a3e a361 ffbd 06fe 3d3e
000001b0: 770c 1ebe 1138 dfbc 3cad 843d 24b7 a43c
000001c0: d8e2 4bbd 3d9b eb3c e155 9e3d b46d 9c3d
000001d0: 25aa cb3e 1691 15be 7a95 273e 93d8 ba3e
000001e0: 2e6b a4bc 559e 2bbe 7021 843c 40ec 6dbe
000001f0: 5580 f4bc ee8f 54be a6e5 1d3d 202c f0bd
00000200: 5dc5 063a d8ee 803c b9b0 01be 549f f83d
00000210: 6f76 9e3d d38a 7d3c 58d8 863e d762 8b3d
00000220: 29fe e53c 8096 ba3d b0a9 253d 4bc7 8abe
00000230: b87f 58be f776 c9bd 59f3 273d 249f 44be
00000240: 8b84 073d e671 b4bd 0c44 7e3d 219d 2e3e
00000250: cacb 7f3d 3db9 f6bd da57 c23d 86d4 3cbe
00000260: 73e7 973e c2a8 96be 767d 30be b286 743d
00000270: c4e3 0dbe a847 913d b960 9d3e 8998 aabd
00000280: 8e54 d43d b655 4a3e 22fc 92be 0d3e a9bd
00000290: 5708 fbbc abaf 53bd 3f6a e93d d9ec db3d
000002a0: a7eb 31be 1d5b 073e 8049 babd 059e 973e
000002b0: 5eba 023e ada3 fa3d ee6e 973e ff1e ee3e
000002c0: deba 4f3e a76f 34bd 2d09 f23d 73f5 7cbe
000002d0: bdc7 ec3d f869 443e f979 ab3d ed21 16be
000002e0: ad4d a03e e193 a73d 4717 82be d8ed 04bd
000002f0: 5d25 ad3e 543a c5bd a77a f33c 4d78 5fbd
00000300: f6c6 a5be f098 8dbc b540 76bd 8f0e 8d3e
00000310: a385 383e 5611 12bf 38f2 bfbd 561d 2e3e
00000320: 0a75 3d3d 1a1d fbbc 2bb5 d5bd 9aa4 523e
00000330: f0aa 8cbd b499 463e aec5 1abd 7e4b f63d
00000340: 7ae0 3cbe dd76 663d 1f9e 3abe 126a bbbd
00000350: 2f03 083e 909b d23e bcfa 3bbe 58fd bdbd
00000360: 8970 12be 8bed c73d d4dc 603e 01a6 3e3e
00000370: 2a1d 04be 5e83 47be 3ba9 1e3c 8c03 013c
00000380: 3f76 71be df07 2ebd 6200 3d3e a7e3 3d3e
00000390: eb98 733c 9207 993e 2308 883b 5cb8 a33e
000003a0: 7eca 1e3c e98e 88be 2138 c13d 6f25 2dbe
000003b0: 95d5 173e 3f7d 0ebe 5151 33be 0aca b43a
000003c0: f47a 00be 2cf7 833c 3723 593e 4ffe 493e
000003d0: 0aa2 dd3a d821 2f3a 3b50 dd3d 3e87 913d
000003e0: ce0d c2bd e942 75be a321 7abe 2286 a1be
000003f0: 23c1 0a3e 1cbb 2bbd 3a2a 1ebc 66db a5be

transformer.attn.proj_v.bias f4 [72]
0.07890595 -0.061659053 0.09006558 -0.12561603 -0.31724152 -0.12127147 0.29396617 -0.027441306
0.07305734 0.06246731 -0.006507585 -0.08060579 -0.15469243 0.12681311 -0.061384287 0.035991147
-0.1088754 -0.113400154 -0.030925717 -0.024625573 -0.17705537 0.048163287 0.18522099 -0.11090246
-0.07631969 -0.16183642 -0.02739035 -0.07741502 -0.098329425 0.027241537 0.17660615 -0.08797226
0.08719673 0.01782362 -0.061025865 0.06718011 -0.0074085686 0.09776905 -0.09470682 0.0046256636
-0.18122423 -0.093147926 0.054811 -0.11735648 -0.061663467 0.11615562 -0.06398432 0.12759385
0.014721217 0.011268396 -0.04725165 -0.010184116 0.12762469 -0.16419491 -0.068865776 0.053902093
-0.109529674 -0.03687772 0.027435334 -0.19004336 0.09846321 0.09683737 0.045185596 -0.0059948685
0.029401504 -0.058640603 -0.01709735 0.098212525 0.016630722 -0.07846741 0.11222827 -0.019739384
00000000: 7199 a13d 348e 7cbd 4e74 b83d 7da1 00be
00000010: 7b6d a2be 2d5d f8bd bc82 963e 97cc e0bc
00000020: 169f 953d b9dd 7f3d 943d d5bb a614 a5bd
00000030: b167 1ebe 4cdb 013e 176e 7bbd 746b 133d
00000040: 11fa debd 573e e8bd ee57 fdbc 92bb c9bc
00000050: 014e 35be de46 453d 92aa 3d3e d420 e3bd
00000060: 7f4d 9cbd 72b8 25be ba61 e0bc c48b 9ebd
00000070: f060 c9bd a529 df3c 3ed8 343e cd2a b4bd
00000080: 3394 b23d d702 923c 42f6 79bd ba95 893d
00000090: 94c3 f2bb 243b c83d a6f5 c1bd e192 973b
000000a0: d892 39be 57c4 bebd 8081 603d 9858 f0bd
000000b0: d592 7cbd ffe2 ed3d 360a 83bd f6a7 023e
000000c0: 4231 713c 149f 383c f28a 41bd 47db 26bc
000000d0: 0cb0 023e b622 28be 8009 8dbd 71c8 5c3d
000000e0: 1851 e0bd 180d 17bd 11c0 e03c ba9a 42be
000000f0: 14a7 c93d ac52 c63d 8814 393d 9a70 c4bb
00000100: 6cdb f03c 2131 70bd be0f 8cbc a623 c93d
00000110: 273d 883c 85b3 a0bd efd7 e53d 7db4 a1bc

transformer.proj.weight f4 [72, 72]
0.31987417 0.0017221549 0.099296466 0.25928855 -0.14069872 -0.03963229 0.24346012 0.045199923
-0.08887817 -0.00443514 0.052719977 -0.07514616 -0.028406743 -0.063651174 0.2864515 -0.13612176
-0.19187896 0.08174407 -0.034939382 0.01301885 -0.029566417 -0.033503503 0.12578392 -0.18862288
0.036918372 -0.04285338 -0.18416339 0.054926656 -0.09057343 -0.08841392 0.15311761 0.20557816
0.120404854 -0.23163936 -0.14313748 -0.09507955 -0.28654826 0.14047012 -0.17723721 0.12924686
-0.2981803 0.22220531 -0.1807613 0.12030689 -0.2229985 -0.021411754 0.009499954 0.03206298
0.07002584 -0.06092944 -0.27694377 0.08338735 0.38605228 -0.08803958 0.16060741 -0.1450424
-0.21493295 0.107326925 0.046470143 0.092613995 -0.1280532 0.16847607 0.045661885 -0.18581873
0.2616353 0.010981981 -0.10612957 0.11369267 0.12529945 -0.17807518 -0.016606465 0.09789305
-0.11325187 0.24246618 0.0134141445 -0.23423763 0.03239446 0.22597605 -0.27445835 0.2312777
-0.09398851 0.13086376 -0.06757459 -0.079921745 0.15206721 -0.021015337 -0.1083445 0.009348993
-0.051790323 -0.0041134884 0.135003 -0.17780295 0.019759078 0.00054422155 0.05365639 -0.24346739
0.13097894 0.031585775 -0.18523313 0.062143 0.15862502 -0.0037630221 -0.00938534 -0.15840368
0.19009945 0.11505395 -0.12988307 -0.012770048 0.3373262 -0.031839613 0.09914506 -0.14133802
-0.0688688 -0.17104429 0.31879333 0.04089885 0.054022204 0.083853096 0.19565944 -0.12826276
-0.12634394 -0.06508904 0.115708046 0.010666846 -0.113667846 -0.120567925 -0.0047270805 0.1562235
-0.27243558 -0.13501295 -0.032963607 -0.19590294 -0.115716234 -0.109373845 -0.00046661048 0.14022502
-0.3143926 0.038903918 0.21073507 -0.059109714 -0.058643907 0.056822564 0.12177746 -0.25327346
-0.1295435 0.055262215 0.41743046 0.06908724 -0.039949987 0.16314119 0.087266125 0.21033186
0.17569718 -0.24724576 -0.046125095 -0.04956507 0.088357046 -0.009445184 0.18620785 0.07858232
0.07867006 0.22100104 0.069033176 0.041763995 -0.38921097 0.19774172 0.065553464 -0.08801741
-0.21581796 0.014470583 -0.16798525 -0.041103125 -0.08001485 0.085218444 -0.08304286 0.0704719
0.120616 0.055730928 0.029662455 -0.0057765106 -0.115754426 -0.093132965 -0.11546989 -0.06294514
-0.08106348 -0.04812288 0.3122286 0.046919066 0.21683618 -0.070259154 -0.13620488 0.07705487
-0.041586008 -0.043384 -0.065736115 -0.072706826 0.2287071 0.17009051 -0.15161951 -0.124538936
-0.22271352 -0.038811125 0.020438349 0.016733803 -0.044495817 -0.20429842 -0.13184583 0.05459474
-0.04338417 -0.19754715 -0.24700034 0.30356902 -0.03326222 0.102203876 -0.20224002 -0.14882648
0.13843091 -0.085885614 -0.03624552 0.44669893 -0.07153838 0.29377562 -0.08463087 0.07202999
-0.11546189 0.10845667 0.027336655 -0.13989608 -0.048160605 -0.083793804 -0.21170248 0.0592088
-0.005897853 -0.12433366 0.18112779 0.017795246 0.034876186 -0.16956504 -0.037806444 0.06699741
-0.06919452 0.09079237 0.24887973 -0.10124497 0.032734837 0.13024676 -0.076230444 0.08187186
-0.1004128 -0.114424236 0.08112921 -0.311169 0.20779426 -0.14544177 -0.12155213 -0.06294391
00000000: 8cc6 a33e eeb9 e13a f25b cb3d 78c1 843e
00000010: 5313 10be 7855 22bd 9c4d 793e 8e23 393d
00000020: c205 b6bd a754 91bb e7f0 573d 3be6 99bd
00000030: 42b5 e8bc 8c5b 82bd c5a9 923e 8163 0bbe
00000040: eb7b 44be 6f69 a73d 991c 0fbd 044d 553c
00000050: 4535 f2bc f83a 09bd 80cd 003e 5b26 41be
00000060: b837 173d 0787 2fbd 5495 3cbe c6fa 603d
00000070: 907e b9bd 5b12 b5bd ddca 1c3e 1583 523e
00000080: d296 f63d de32 6dbe a292 12be 11b9 c2bd
00000090: 74b6 92be 66d7 0f3e ac7d 35be 4a59 043e
000000a0: 17ab 98be ca89 633e 7d19 39be 7563 f63d
000000b0: b859 64be b467 afbc b2a5 1b3c 7954 033d
000000c0: b569 8f3d 2691 79bd 93cb 8dbe fdc6 aa3d
000000d0: a5a8 c53e 184e b4bd 4576 243e ff85 14be
000000e0: 6217 5cbe 38ce db3d 7a57 3e3d 68ac bd3d
000000f0: 6120 03be fe84 2c3e f507 3b3d 4447 3ebe
00000100: 10f5 853e c4ed 333c 765a d9bd b4d7 e83d
00000110: 804e 003e 5759 36be 480a 88bc 277c c83d
00000120: 99f0 e7bd 0e49 783e 00c7 5b3c fddb 6fbe
00000130: 0eb0 043d 4466 673e ce85 8cbe 10d4 6c3e
00000140: 0c7d c0bd 2601 063e 8c64 8abd 03ae a3bd
00000150: 82b7 1b3e 5b28 acbc b9e3 ddbd 852c 193c
00000160: 1722 54bd 71ca 86bb 3a3e 0a3e fa11 36be
00000170: cadd a13c 17aa 0e3a cec6 5b3d 844f 79be
00000180: 581f 063e 1660 013d c1ad 3dbe a989 7e3d
00000190: 996e 223e 099d 76bb f8c4 19bc 9334 22be
000001a0: 6ea9 423e 68a1 eb3d 1100 05be 7739 51bc
000001b0: 05b6 ac3e 416a 02bd 910c cb3d eaba 10be
000001c0: 160b 8dbd 3c26 2fbe e138 a33e 8d85 273d
000001d0: 6346 5d3d 2cbb ab3d f35a 483e 5057 03be
000001e0: 4e60 01be 674d 85bd 57f8 ec3d ffc3 2e3c
000001f0: b0ca e8bd 51ec f6bd a0e5 9abb 0ef9 1f3e
00000200: ad7c 8bbe d640 0abe d904 07bd c89a 48be
00000210: a2fc ecbd 65ff dfbd 66a3 f4b9 2697 0f3e
00000220: 11f8 a0be b759 1f3d efca 573e 071d 72bd
00000230: 9834 70bd c7be 683d 7666 f93d 0fad 81be
00000240: 0da7 04be a25a 623d 72b9 d53e 9c7d 8d3d
00000250: 99a2 23bd 7c0e 273e 95b8 b23d 3c61 573e
00000260: f6e9 333e fe2d 7dbe abed 3cbd be04 4bbd
00000270: 8af4 b43d f9bf 1abc 45ad 3e3e c4ef a03d
00000280: c51d a13d 194e 623e 4461 8d3d b910 2b3d
00000290: a946 c7be ce7c 4a3e e540 863d 7942 b4bd
000002a0: 62ff 5cbe 0616 6d3c 5304 2cbe c05b 28bd
000002b0: d3de a3bd 0287 ae3d 6012 aabd 9253 903d
000002c0: 8505 f73d 1d46 643d adfe f23c e248 bdbb
000002d0: a810 edbd 7fbc bebd 7a7b ecbd 62e9 80bd
000002e0: 9c04 a6bd 7f1c 45bd 6ddc 9f3e 352e 403d
000002f0: 4e0a 5e3e 08e4 8fbd 4b79 0bbe f2ce 9d3d
00000300: 1756 2abd 6cb3 31bd a8a0 86bd 51e7 94bd
00000310: 3232 6a3e 352c 2e3e 2542 1bbe 450e ffbd
00000320: 030f 64be 6af8 1ebd 536e a73c 5415 893c
00000330: 3f41 36bd 9b33 51be 9802 07be bc9e 5f3d
00000340: 99b3 31bd cd49 4abe a8ed 7cbe 666d 9b3e
00000350: f73d 08bd 4450 d13d 0218 4fbe f865 18be
00000360: d5c0 0d3e cce4 afbd 2f76 14bd b9b5 e43e
00000370: b782 92bd c269 963e f352 adbd 7684 933d
00000380: 4977 ecbd 881e de3d 1ff1 df3c eb40 0fbe
00000390: 0e44 45bd 169c abbd 89c8 58be ed84 723d
000003a0: c742 c1bb a5a2 febd 9079 393e 56c7 913c
000003b0: 55da 0e3d 75a2 2dbe eeda 1abd f035 893d
000003c0: dbb5 8dbd 5af1 b93d 54da 7e3e 8659 cfbd
000003d0: f714 063d 685f 053e b51e 9cbd 6fac a73d
000003e0: 3aa5 cdbd 4157 eabd 1227 a63d 8b51 9fbe
000003f0: 05c8 543e b0ee 14be 53f0 f8bd bde8 80bd

transformer.proj.bias f4 [72]
0.34109238 -0.17238936 0.049325768 -0.2981795 -0.2866764 -0.40760368 0.11108391 -0.19415678
0.26620042 0.16662768 0.29352617 -0.18040271 -0.030940631 0.38197875 -0.3942491 -0.29764292
-0.10250989 0.099056974 0.14212261 -0.23828325 -0.27244887 0.21120293 -0.003763853 -0.19804737
-0.27717182 -0.0463405 0.042444814 -0.30798516 0.0051465775 -0.060702935 0.14426483 -0.088667385
0.09311002 -0.096692465 0.22778949 0.1970799 0.15824701 0.045881946 -0.13140967 0.012491367
-0.2282875 -0.38368157 0.32767835 -0.23447634 -0.19475675 0.0255071 0.0679523 -0.0102427285
0.018763369 0.3679269 -0.17334549 -0.18524274 0.14811316 0.20509388 0.0938264 0.22297819
-0.10630437 -0.03381438 0.12927985 0.15197462 0.16790076 -0.16008615 0.25117865 -0.03643523
0.3571054 -0.21319315 -0.09206824 0.35400015 -0.13782823 -0.29864126 0.22848894 -0.04320718
00000000: a9a3 ae3e d686 30be d109 4a3d fcaa 98be
00000010: 40c7 92be 6eb1 d0be f67f e33d 09d1 46be
00000020: 6c4b 883e 72a0 2a3e 1049 963e 7dbb 38be
00000030: 3577 fdbc b892 c33e 05db c9be a764 98be
00000040: b5f0 d1bd 62de ca3d 9788 113e 8600 74be
00000050: 6b7e 8bbe 9545 583e faaa 76bb eecc 4abe
00000060: 77e9 8dbe 89cf 3dbd 9dda 2d3d 3bb0 9dbe
00000070: 9fa4 a83b a4a3 78bd 29ba 133e 3f97 b5bd
00000080: 77b0 be3d b306 c6bd a641 693e 50cf 493e
00000090: 810b 223e b5ee 3b3d 4290 06be 97a8 4c3c
000000a0: 33c4 69be e971 c4be 75c5 a73e 911a 70be
000000b0: 506e 47be 44f4 d03c 932a 8b3d 1ed1 27bc
000000c0: a3b5 993c ea60 bc3e 7b81 31be 46b0 3dbe
000000d0: faaa 173e 2104 523e 0e28 c03d 6554 643e
000000e0: 1bb6 d9bd f380 0abd f061 043e 3c9f 1b3e
000000f0: 2dee 2b3e a0ed 23be 7d9a 803e 1c3d 15bd
00000100: 85d6 b63e 4e4f 5abe 468e bcbd 823f b53e
00000110: d822 0dbe 82e7 98be 01f9 693e 03fa 30bd
