saved/classifier_base_gru_hhar_20_120/hhar.pt (torch, 39439 bytes, 14 tensors)

gru0.weight_ih_l0 f4 [60, 72]
-0.03470449 0.020759696 -0.0905009 -0.058155533 -0.35869688 0.013603997 0.0077212495 0.07438408
-0.030309634 -0.19082128 0.16773881 0.437408 -0.21965045 0.106091745 -0.04691968 0.07063628
-0.042892504 0.3551853 -0.027778616 0.26321948 0.09327789 0.0016161524 0.05044125 0.45356524
0.061581187 -0.038828842 0.24398741 0.2450386 0.14041342 -0.07722044 -0.031353235 -0.044919603
-0.25315368 -0.22318594 0.0076240124 -0.06413064 -0.1525033 0.10827054 -0.44745788 0.14301904
0.10530112 -0.097966075 -0.09209066 -0.14747484 -0.28869984 0.04624227 -0.010112887 0.017891845
-0.20831786 0.005699209 -0.009942516 0.0592062 0.2344861 -0.3156659 0.35702035 -0.21045652
0.008609894 -0.10756058 -0.040935572 0.11275631 0.2036341 0.046649102 -0.046191618 -0.09274832
0.08423981 0.049155243 0.19020005 -0.010826163 -0.20541705 0.033367164 -0.23419975 0.0809934
0.15095511 -0.06330006 0.08505558 0.10234057 -0.28929654 -0.04240208 0.30798566 0.041266043
-0.03941283 0.06447301 0.14677903 -0.20824626 0.25832105 -0.005453627 0.07447081 0.26898015
0.12914 -0.061558366 -0.0958675 -0.14162187 0.084475696 0.022568071 -0.009764729 0.054182757
-0.10116124 0.23814018 -0.061301142 -0.30367592 -0.05529175 -0.22659934 0.21753809 -0.029728642
-0.23570035 0.18149821 -0.18319309 -0.1605417 0.029028311 0.23802207 -0.088710405 -0.1731143
0.05166408 -0.0051435097 -0.04035568 -0.06442546 0.23891743 -0.12930274 -0.38962677 -0.1690622
-0.11700742 0.27032575 -0.28796774 0.1262302 -0.048508227 0.09027053 0.37219113 -0.011042925
0.015222467 0.15889445 -0.02144399 0.0156018175 0.10916998 -0.22481905 0.041530065 -0.006483562
0.08687683 -0.20538233 0.03431889 -0.020742394 -0.07811444 -0.09821411 -0.015917255 -0.030284218
0.008612936 0.22281179 -0.20052153 0.1753804 -0.24670403 -0.16019112 -0.09013666 -0.17897153
0.11159745 -0.03600545 0.120394945 0.33316985 0.077151775 -0.027130682 0.10605032 -0.08245302
-0.3631753 0.31575984 -0.0048038866 0.038556676 0.24040133 -0.2624621 -0.23757793 0.07304377
0.20701724 0.15161407 0.08304942 0.12475269 -0.15576556 -0.17837209 -0.10861922 -0.17911772
0.011327016 -0.13279572 0.22595187 0.18973884 -0.11379029 0.038501084 0.055070132 -0.20069477
0.20381716 0.0026355027 -0.5132732 -0.15784366 -0.06972141 0.11003433 -0.05994463 0.21179385
0.08210492 0.03933943 -0.02378775 -0.12136899 0.1882734 -0.1363993 0.16723643 -0.054607473
-0.114169255 0.08569006 0.09299815 -0.07890575 0.12577286 -0.16476782 0.09574396 -0.13889658
0.18330479 0.18156338 0.2677674 -0.036125932 0.104037605 0.0889639 -0.29719085 -0.15162084
0.03787201 -0.10102487 -0.21399227 0.12898465 0.14505596 0.07740825 -0.043058 -0.008541506
-0.2922645 0.026834093 0.05340166 -0.074820206 0.21476257 0.19175433 0.11149159 -0.31184262
-0.22645056 0.20567723 -0.0812069 -0.08856254 -0.07313098 0.081188895 -0.09538471 -0.14052758
-0.27735668 0.37141162 -0.036976166 -0.25023955 -0.07057163 -0.035977893 -0.39929196 0.12805496
0.11784138 0.43103257 0.056396127 0.029546045 0.043676022 -0.038584244 0.1222285 0.14467958
00000000: 4c26 0ebd 3d10 aa3c 8958 b9bd 7f34 6ebd
00000010: 1ea7 b7be 4de3 5e3c 8902 fd3b ae56 983d
00000020: e94b f8bc a766 43be b9c3 2b3e f1f3 df3e
00000030: 0cec 60be a146 d93d da2e 40bd c1a9 903d
00000040: 0db0 2fbd d9da b53e fb8f e3bc b4c4 863e
00000050: 7a08 bf3d 13d5 d33a 7c9b 4e3d b439 e83e
00000060: 8e3c 7c3d fe0a 1fbd d6d7 793e 66eb 7a3e
00000070: 89c8 0f3e c025 9ebd 406c 00bd 9efd 37bd
00000080: 5c9d 81be db8a 64be dad2 f93b ed56 83bd
00000090: d329 1cbe f2bc dd3d 3319 e5be 9573 123e
000000a0: 1da8 d73d 70a2 c8bd 079a bcbd a503 17be
000000b0: 77d0 93be 8968 3d3d 86b0 25bc eb91 923c
000000c0: 4751 55be 6ec0 ba3b efe5 22bc 3382 723d
000000d0: 201d 703e f69e a1be 5fcb b63e ea81 57be
000000e0: 8310 0d3c b948 dcbd 0fac 27bd c8ec e63d
000000f0: 7585 503e 2113 3f3d 6c33 3dbd d5f2 bdbd
00000100: ec85 ac3d 0257 493d cdc3 423e 3860 31bc
00000110: d958 52be 02ac 083d 0fd2 6fbe dedf a53d
00000120: fa93 1a3e 76a3 81bd 9f31 ae3d ef97 d13d
00000130: ad1e 94be cead 2dbd 4cb0 9d3e 9506 293d
00000140: 596f 21bd 6d0a 843d 3e4d 163e 823e 55be
00000150: a842 843e 57b4 b2bb 2784 983d c4b7 893e
00000160: 473d 043e a024 7cbd 2e56 c4bd 5305 11be
00000170: 9801 ad3d ade0 b83c 3efc 1fbc bdee 5d3d
00000180: a02d cfbd 05db 733e e816 7bbd 697b 9bbe
00000190: 9a79 62bd a809 68be 4ec2 5e3e 7b89 f3bc
000001a0: 6f5b 71be abda 393e f896 3bbe 0b65 24be
000001b0: c8cc ed3c 0fbc 733e cdad b5bd e044 31be
000001c0: b79d 533d e38a a8bb ff4b 25bd 7ff1 83bd
000001d0: c5a6 743e f067 04be 297d c7be a41e 2dbe
000001e0: 96a1 efbd 2368 8a3e 8270 93be 7d42 013e
000001f0: 90b0 46bd c1df b83d d68f be3e 62ed 34bc
00000200: a767 793c 3ab5 223e 4eab afbc c49e 7f3c
00000210: 8394 df3d f736 66be 6e1b 2a3d 0f74 d4bb
00000220: 7bec b13d bf4f 52be f791 0c3d f4eb a9bc
00000230: 77fa 9fbd 7b24 c9bd e764 82bc 9c16 f8bc
00000240: 461d 0d3c c628 643e 8455 4dbe eb96 333e
00000250: fb9f 7cbe 2409 24be 9299 b8bd 5044 37be
00000260: 348d e43d 737a 13bd a091 f63d 3d95 aa3e
00000270: c001 9e3d 2a41 debc e930 d93d 21dd a8bd
00000280: 1df2 b9be 46ab a13e ec69 9dbb 9bed 1d3d
00000290: c42b 763e 6f61 86be a147 73be f997 953d
000002a0: 54fc 533e b840 1b3e d015 aa3d 577e ff3d
000002b0: 0281 1fbe 2ca7 36be c173 debd a36a 37be
000002c0: f394 393c 9afb 07be ed5f 673e e64a 423e
000002d0: e20a e9bd 50b3 1d3d 3891 613d ee82 4dbe
000002e0: 72b5 503e 66b8 2c3b df65 03bf c5a1 21be
000002f0: 19ca 8ebd ae59 e13d 8088 75bd 7de0 583e
00000300: a026 a83d 6222 213d 87de c2bc 4e90 f8bd
00000310: beca 403e 42ac 0bbe 0740 2b3e 16ac 5fbd
00000320: 92d1 e9bd 457e af3d d075 be3d 5699 a1bd
00000330: 9aca 003e e5b8 28be 6915 c43d e83a 0ebe
00000340: 40b4 3b3e c0eb 393e cf18 893e c9f8 13bd
00000350: ab11 d53d b532 b63d 6629 98be 7e42 1bbe
00000360: ae1f 1b3d 21e6 cebd ca20 5bbe 8d14 043e
00000370: 8d89 143e 3788 9e3d 965d 30bd acf1 0bbc
00000380: b1a3 95be 2cd3 db3c b3bb 5a3d 563b 99bd
00000390: b8ea 5b3e 3f5b 443e b455 e43d d6a9 9fbe
000003a0: a8e2 67be 0d9d 523e ce4f a6bd 4760 b5bd
000003b0: b2c5 95bd 5d46 a63d 0f59 c3bd 76e6 0fbe
000003c0: b201 8ebe aa29 be3e 5274 17bd 661f 80be
000003d0: dc87 90bd 8e5d 13bd ff6f ccbe d720 033e
000003e0: d256 f13d 4db0 dc3e a0ff 663d 8c0a f23c
000003f0: a1e5 323d 830a 1ebd f052 fa3d e226 143e

gru0.weight_hh_l0 f4 [60, 20]
-0.025973447 -0.0075560217 0.056129046 -0.31236553 -0.1683277 0.3162204 0.3947248 0.009272308
-0.17399532 -0.1142773 0.17284626 -0.30816358 -0.1019344 -0.20413417 -0.4048605 -0.13189965
-0.06738457 0.022200037 0.035726834 0.17517346 0.43844792 0.055500016 0.35513476 -0.019383678
0.16923489 -0.44444555 0.17844892 -0.019375669 0.4897832 0.4393337 0.1936321 -0.18811369
-0.09045342 -0.2082172 0.02331451 -0.047889978 0.10143221 -0.1533737 0.048818965 0.13349804
-0.14089684 -0.034328632 0.36170682 -0.011527105 0.05396225 -0.16537093 0.18754247 -0.20146926
-0.12594685 0.14195137 -0.181004 0.03829469 -0.101314686 0.2345025 -0.19318363 -0.26922986
-0.057988063 0.23182032 0.027256181 0.55340225 0.22117056 0.055188775 -0.17233033 0.24536432
0.17106658 -0.07416193 0.09992564 -0.05224937 0.020516973 0.13265216 -0.13353866 0.14359792
0.099000014 0.1463443 -0.10839822 0.49752516 -0.21326303 -0.33747423 -0.057292726 -0.21900566
0.28605914 0.2122954 0.1798396 -0.038744684 0.07008921 -0.23973149 0.012121018 -0.1449891
-0.210616 -0.10391739 0.18974726 -0.2689119 -0.23214419 0.09568263 -0.26026744 0.028209541
-0.17457993 -0.24997884 0.18414646 0.06666644 -0.11426879 -0.1085643 -0.21284556 -0.21276265
-0.20328367 0.36981186 0.06517301 0.063987024 0.019623494 -0.2187742 -0.13351719 -0.2960548
-0.0017214713 0.004488393 -0.0098041585 -0.05567202 -0.12906085 0.1950468 0.15777329 0.055545405
-0.04184379 0.010647473 0.21746247 -0.2356209 -0.018214352 -0.16468146 0.14680962 -0.1813502
-0.17199348 0.09907115 0.03897103 0.07837506 -0.3277064 0.02105534 -0.048322324 0.22222899
-0.32728976 0.25124332 0.09845542 -0.07574115 0.10626665 0.1839005 -0.17432775 -0.23889098
0.06879902 -0.41790518 -0.089243926 -0.018874384 0.2993212 0.28623468 -0.012903362 -0.19548608
0.15449446 -0.2906867 -0.26750287 -0.048854586 -0.14995824 0.054031026 0.09169399 -0.17049831
-0.22145797 0.0068512396 -0.35327893 -0.28588617 -0.28464955 -0.14890882 0.0261973 -0.29734546
0.26553747 -0.22266969 0.2340247 0.16280994 0.049237207 -0.3035156 0.08988528 0.19343913
-0.1815814 0.050355367 -0.025930874 -0.19915973 0.2813809 0.28815526 0.21014158 -0.12216544
0.1652925 -0.13723843 0.18670397 -0.12818311 0.17084385 -0.02935681 0.016025448 -0.23839667
-0.24293615 0.2000545 -0.30019933 -0.04680262 0.09969831 0.08359704 0.21132196 -0.08571026
0.34673157 0.10089013 0.02523678 0.029504448 -0.05713789 -0.31239188 0.16054061 0.10766165
0.22967966 0.026006432 -0.11218671 -0.023359425 -0.055105086 0.14315891 -0.27049413 -0.18532878
0.025669409 -0.2565002 -0.1470205 0.33165035 -0.013418372 0.12307243 0.14139101 0.0037782283
-0.03721359 -0.21216433 -0.023313016 0.07645009 0.079373956 0.09639211 0.20572181 0.22247428
0.073640846 -0.07310782 -0.16238417 -0.00869878 -0.23239005 0.04598066 0.1429045 -0.26826262
0.29719165 -0.1985209 0.18271968 -0.16590576 -0.26491106 0.16112877 0.25005195 -0.03114972
-0.18834008 0.23202804 0.2762679 -0.17998001 -0.3165936 -0.2852392 -0.26815566 -0.38239726
00000000: 44c6 d4bc 8198 f7bb 92e7 653d 60ee 9fbe
00000010: 195e 2cbe a4e7 a13e 5e19 ca3e e1ea 173c
00000020: d42b 32be 380a eabd 9cfe 303e 9ec7 9dbe
00000030: fcc2 d0bd 8c08 51be e049 cfbe b410 07be
00000040: ec00 8abd dadc b53c 4d56 123d ac60 333e
00000050: 3f7c e03e fc53 633d 39d4 b53e 85ca 9ebc
00000060: e94b 2d3e 5e8e e3be 50bb 363e b9b9 9ebc
00000070: ddc4 fa3e 59f0 e03e 7e47 463e e0a0 40be
00000080: a53f b9bd e436 55be 12fe be3c 4828 44bd
00000090: b1bb cf3d ff0d 1dbe 65f6 473d b6b3 083e
000000a0: 4347 10be 2e9c 0cbd a331 b93e 2fdc 3cbc
000000b0: 8507 5d3d ff56 29be 220b 403e f54d 4ebe
000000c0: 36f8 00be b35b 113e 1d59 39be e5da 1c3d
000000d0: 137e cfbd 6c21 703e eed1 45be 7fd8 89be
000000e0: e484 6dbd 4e62 6d3e 5b48 df3c c5ab 0d3f
000000f0: 897a 623e a00d 623d 5d77 30be c940 7b3e
00000100: 142c 2f3e 36e2 97bd d0a5 cc3d 6f03 56bd
00000110: 3613 a83c f8d5 073e 5cbe 08be 550b 133e
00000120: 85c0 ca3d 48db 153e e3ff ddbd 9ebb fe3e
00000130: a061 5abe 6cc9 acbe c7ab 6abd 0543 60be
00000140: 5876 923e f763 593e df27 383e bfb2 1ebd
00000150: ef8a 8f3d 2c7c 75be 3c97 463c 0678 14be
00000160: b9ab 57be a4d2 d4bd 1b4d 423e d2ae 89be
00000170: 35b7 6dbe 41f5 c33d c641 85be b217 e73c
00000180: 15c5 32be 74fa 7fbe e490 3c3e 6a88 883d
00000190: c105 eabd f656 debd 30f4 59be 74de 59be
000001a0: 9829 50be fb57 bd3e 6d79 853d a10b 833d
000001b0: 73c1 a03c 5806 60be bbb8 08be 7f94 97be
000001c0: fea2 e1ba 5f13 933b 9fa1 20bc 5808 64bd
000001d0: 8728 04be 59ba 473e 528f 213e 9483 633d
000001e0: 6564 2bbd bd72 2e3c 7bae 5e3e 9b46 71be
000001f0: 4436 95bc 42a2 28be 4355 163e deb3 39be
00000200: 0f1f 30be d1e5 ca3d 16a0 1f3d 1a83 a03d
00000210: 22c9 a7be 407c ac3c a1ed 45bd ff8f 633e
00000220: 8692 a7be f7a2 803e ffa2 c93d 2d1e 9bbd
00000230: 54a2 d93d 6a50 3c3e f982 32be d69f 74be
00000240: 80e6 8c3d abf7 d5be 85c5 b6bd 749e 9abc
00000250: a140 993e 5a8d 923e 9f68 53bc 812d 48be
00000260: cc33 1e3e e3d4 94be 23f6 88be bf1b 48bd
00000270: a78e 19be a34f 5d3d 0fca bb3d 1c97 2ebe
00000280: e1c5 62be 5d80 e03b fae0 b4be ac5f 92be
00000290: 96bd 91be 8e7b 18be b89b d63c aa3d 98be
000002a0: 87f4 873e 8603 64be 2ca4 6f3e a6b7 263e
000002b0: f4ac 493d 6666 9bbe c615 b83d e814 463e
000002c0: 79f0 39be 6e41 4e3d fc6c d4bc 87f0 4bbe
000002d0: 2811 903e 1689 933e 5b2f 573e e031 fabd
000002e0: 7042 293e 3b88 0cbe 532f 3f3e 6f42 03be
000002f0: b1f1 2e3e b17d f0bc cd47 833c 421e 74be
00000300: 41c4 78be 16db 4c3e bab3 99be 1bb4 3fbd
00000310: a12e cc3d ed34 ab3d c964 583e dc88 afbd
00000320: cd86 b13e 7c9f ce3d 5dbd ce3c 50b3 f13c
00000330: 6c09 6abd d4f1 9fbe c264 243e b67d dc3d
00000340: 2531 6b3e 710b d53c 25c2 e5bd 445c bfbc
00000350: dfb5 61bd 4098 123e 357e 8abe d4c6 3dbe
00000360: a748 d23c ff53 83be 8b8c 16be 13ce a93e
00000370: bbd8 5bbc 660d fc3d cec8 103e 279c 773b
00000380: 476d 18bd 9b41 59be f0fa bebc dd91 9c3d
00000390: d08e a23d 3a69 c53d bda8 523e 4cd0 633e
000003a0: 03d1 963d 8db9 95bd 0948 26be 5485 0ebc
000003b0: a8f7 6dbe 3756 3c3d 8f55 123e b859 89be
000003c0: 8129 983e 1049 4bbe de1a 3b3e 33e3 29be
000003d0: 6ca2 87be f1fe 243e cf06 803e b32d ffbc
000003e0: 39dc 40be c298 6d3e fc72 8d3e ae4c 38be
000003f0: 8e18 a2be df0a 92be b34b 89be 93c9 c3be

gru0.bias_ih_l0 f4 [60]
0.2586203 -0.15045422 0.12629244 0.08378079 0.08976174 0.22791006 -0.120138675 -0.100359805
0.26856667 -0.08022926 -0.11941705 -0.023898497 0.18096535 0.1821263 0.034285035 0.1293947
-0.09214022 0.028912984 0.35854328 0.18663836 -0.1507828 0.19760576 0.08560187 0.087443
0.083323434 0.016289895 -0.15128012 -0.03797378 0.10051561 0.083837315 -0.35416993 0.027588427
0.2032279 -0.19454089 0.16066484 -0.0005438858 0.12005273 0.09520052 0.0627809 -0.0035180876
0.18417963 0.16448832 -0.062478423 -0.09999518 -0.03789207 -0.1497199 0.17651407 -0.03039631
0.23905064 -0.013395194 -0.023284681 -0.27500784 -0.14871818 0.19270913 0.06482217 -0.18145218
-0.2439314 -0.0478972 -0.012435029 -0.23946431
00000000: e169 843e ac10 1abe ce52 013e 4395 ab3d
00000010: 01d5 b73d 4161 693e 440b f6bd 7189 cdbd
00000020: 9281 893e 3d4f a4bd ed90 f4bd c8c6 c3bc
00000030: fb4e 393e 517f 3a3e 776e 0c3d 0b80 043e
00000040: 03b4 bcbd ecda ec3c fc92 b73e 201e 3f3e
00000050: ce66 1abe 2a59 4a3e 0950 af3d 5115 b33d
00000060: 7aa5 aa3d 6372 853c 2de9 1abe 658a 1bbd
00000070: 21db cd3d e6b2 ab3d c355 b5be 2001 e23c
00000080: fa1a 503e ba35 47be 5385 243e 8f93 0eba
00000090: 35de f53d 7df8 c23d 4693 803d b78f 66bb
000000a0: 9699 3c3e a06f 283e 60e9 7fbd 46ca ccbd
000000b0: b734 1bbd 2c50 19be 1bc0 343e af01 f9bc
000000c0: b1c9 743e 8477 5bbc 84bf bebc d4cd 8cbe
000000d0: 9449 18be 8b55 453e 7cc1 843d 9ace 39be
000000e0: 27c9 79be db2f 44bd 4bbc 4bbc 2236 75be

gru0.bias_hh_l0 f4 [60]
-0.025046464 0.08851584 0.0006618239 -0.025087455 -0.025469422 0.09847942 0.15446538 -0.08705254
0.20646834 -0.071668096 0.09219527 -0.10481874 -0.171676 0.042054556 0.14999913 0.10572717
0.14137669 -0.10151939 0.29487863 -0.036814496 0.15653525 0.13703519 -0.05918969 -0.08655084
-0.008949532 0.16518386 0.047103487 0.06958508 0.090730764 -0.058950637 -0.04707313 -0.06081293
0.1282403 -0.025791682 0.10352782 -0.34247437 -0.11876732 -0.10873455 -0.11766877 -0.0697914
0.050927524 -0.055210814 -0.026155895 0.12241868 0.029868262 -0.07962531 0.17439371 -0.10508552
0.042835902 0.21389899 0.025208618 -0.1314033 -0.13307743 -0.17286347 -0.22013035 0.08538923
0.054719746 0.06119735 0.26816455 0.088032335
00000000: 3e2e cdbc cb47 b53d 407e 2d3a 3584 cdbc
00000010: 40a5 d0bc 94af c93d 2c2c 1e3e 9a48 b2bd
00000020: 706c 533e b9c6 92bd e0d0 bc3d 35ab d6bd
00000030: d5cb 2fbe 6641 2c3d 5f99 193e 7d87 d83d
00000040: 0dc5 103e 66e9 cfbd 55fa 963e ccca 16bd
00000050: c74a 203e f452 0c3e e370 72bd 9141 b1bd
00000060: 0fa1 12bc f525 293e 96ef 403d 9f82 8e3d
00000070: 0dd1 b93d 3976 71bd c1cf 40bd fb16 79bd
00000080: 6d51 033e 1449 d3bc 6506 d43d cd58 afbe
00000090: 483c f3bd 38b0 debd 53fc f0bd cbee 8ebd
000000a0: 6199 503d bc24 62bd e344 d6bc a5b6 fa3d
000000b0: 49ae f43c 9812 a3bd 4494 323e 1437 d7bd
000000c0: b374 2f3d 5608 5b3e 4e82 ce3c 968e 06be
000000d0: 7345 08be 1f03 31be da69 61be 8ce0 ae3d
000000e0: d021 603d 13aa 7a3d dd4c 893e 4c4a b43d

gru0.weight_ih_l1 f4 [60, 20]
-0.16542034 -0.081577264 0.039953995 0.4127174 0.14993462 0.18083833 -0.052079868 0.16857213
-0.2771454 0.03127874 -0.21747814 0.32891166 0.06273907 0.27088657 0.3922331 0.199909
0.17689654 -0.084494084 -0.28891146 -0.018313147 -0.06616678 0.040344253 0.026572553 -0.084435694
-0.05210051 0.0527528 -0.12643735 0.07050391 -0.2827024 -0.3313511 0.106301285 -0.11980196
-0.039083578 0.21628392 -0.15371871 0.17845738 -0.07569827 0.24113907 0.13994007 -0.11072473
-0.018473573 0.11764062 -0.010914951 0.013554059 0.2255505 -0.09544294 -0.38008508 0.4474027
-0.050217494 -0.24953389 0.14804183 -0.031282384 0.44785574 0.11300775 -0.04858296 0.022011898
0.11748721 -0.29306126 -0.091074675 -0.31759956 0.35310957 0.17694888 -0.26722568 0.029460367
-0.10229679 0.14315541 0.09991958 -0.035023004 -0.15101963 0.20775768 0.08700791 -0.092119746
0.13092531 0.093959846 -0.20357963 -0.09285801 0.0017031868 -0.05151842 -0.054717388 -0.32227352
-0.15125203 0.05364246 -0.010520247 -0.14149989 0.2294313 -0.13519341 0.028575908 -0.18275325
0.06763045 -0.053695057 -0.19008228 0.07635291 0.19752973 0.27129135 0.036147185 -0.22471556
0.15428069 0.21114369 0.12067128 -0.27675286 0.3669995 0.14897539 -0.3913006 0.01083467
0.053245954 -0.26428366 0.27520594 -0.29449013 0.07245614 0.1198694 0.18752941 -0.174186
0.13530393 0.13764651 -0.08412565 -0.1227124 -0.38897568 -0.22802131 -0.0059973653 -0.13211586
0.33525303 0.14498644 0.10402975 0.11527701 0.2074385 -0.13853244 0.24369694 -0.1469242
0.12507233 0.091991395 -0.2583243 -0.16999644 0.08119525 0.048744824 -0.12625007 0.27026504
-0.29105866 -0.27056578 0.08107718 0.11432942 -0.18414779 0.16397789 0.1957498 0.2683903
0.16355649 0.18906295 0.12678882 -0.2673158 -0.2013512 -0.28477252 -0.0026618796 0.1068607
-0.1132166 0.23947896 0.058056366 0.020648444 -0.0025254423 -0.10537898 -0.22586171 0.07990654
0.06791183 0.032899342 -0.21407184 0.0635 -0.26593912 -0.027163096 0.42390037 0.057935767
0.2520235 -0.07553807 -0.078959 -0.30285585 -0.0072099236 0.20224582 -0.33117357 0.006084939
-0.3027359 0.20955576 -0.07404033 0.089523956 0.137735 0.33344993 -0.35943577 0.3149104
0.11367511 -0.19945216 0.0929612 0.38643014 0.21193738 -0.09005224 -0.018841077 -0.23988089
0.37804624 0.18399332 -0.3053055 -0.019421114 -0.19641094 -0.023405943 0.123787776 0.18214768
4.5076336e-05 -0.0792 -0.10267959 0.0363974 -0.1225902 -0.17005564 -0.035167977 -0.29883146
-0.29136166 -0.073682666 0.21456324 -0.08621373 -0.15478148 0.052293412 -0.14132927 -0.055282168
-0.28344604 -0.22716221 0.10660709 -0.012616496 0.17394254 0.12055978 -0.25570452 -0.10682321
-0.16673294 0.10860682 0.18810283 -0.073253475 0.12458504 -0.3402582 -0.013220733 0.043543585
-0.14335217 0.069325015 0.061789356 0.0540356 0.023775544 -0.015786523 0.050690603 -0.42673007
0.18366496 -0.019385058 -0.27202785 0.11934873 0.07444625 -0.3093502 0.04154752 0.2544407
-0.05467248 0.16075437 -0.11367405 -0.33940902 0.07498054 -0.2341359 -0.14145131 -0.42879492
00000000: f363 29be fb11 a7bd cda6 233d b24f d33e
00000010: 7688 193e af2d 393e b351 55bd 2c9e 2c3e
00000020: 00e6 8dbe 231e 003d 97b2 5ebe 1c67 a83e
00000030: 577d 803d a5b1 8a3e c7d2 c83e f2b4 4c3e
00000040: 5e24 353e 3c0b adbd 34ec 93be 7405 96bc
00000050: 7382 87bd 0440 253d afae d93c 9fec acbd
00000060: 5867 55bd 5213 583d cb78 01be 5b64 903d
00000070: 5ebe 90be daa6 a9be 7db4 d93d bb5a f5bd
00000080: 1a16 20bd 8879 5d3e 7068 1dbe 88bd 363e
00000090: b207 9bbd 29ed 763e 734c 0f3e a6c3 e2bd
000000a0: e455 97bc 91ed f03d 9fd4 32bc d811 5e3c
000000b0: b6f6 663e 9777 c3bd 839a c2be f711 e53e
000000c0: dcb0 4dbd d085 7fbe 4798 173e f521 00bd
000000d0: 594d e53e 9b70 e73d edfe 46bd 4c52 b43c
000000e0: 229d f03d 200c 96be 5c85 babd 699c a2be
000000f0: c7ca b43e 1632 353e ced1 88be de56 f13c
00000100: fb80 d1bd 5597 123e a3a2 cc3d 4874 0fbd
00000110: e4a4 1abe 6ebe 543e 3431 b23d 47a9 bcbd
00000120: 4911 063e 056e c03d 2e77 50be 572c bebd
00000130: 773d df3a fb04 53bd 571f 60bd 0901 a5be
00000140: d0e1 1abe 32b8 5b3d 1d5d 2cbc 59e5 10be
00000150: 0af0 6a3e 2470 0abe 0618 ea3c ab23 3bbe
00000160: d581 8a3d 59ef 5bbd eea4 42be ea5e 9c3d
00000170: 3c45 4a3e b3e6 8a3e 120f 143d d61b 66be
00000180: c2fb 1d3e 0d36 583e 8122 f73d 8db2 8dbe
00000190: 5ce7 bb3e 018d 183e 8d58 c8be e683 313c
000001a0: 6e18 5a3d 3050 87be cbe7 8c3e 69c7 96be
000001b0: e263 943d 177e f53d b607 403e d15d 32be
000001c0: 1d8d 0a3e 35f3 0c3e 124a acbd a450 fbbd
000001d0: d227 c7be 6b7e 69be 8c85 c4bb 6149 07be
000001e0: 49a6 ab3e 5377 143e 8d0d d53d 5a16 ec3d
000001f0: c26a 543e 73db 0dbe b18b 793e 4c73 16be
00000200: f612 003e fc65 bc3d 1543 84be 8c13 2ebe
00000210: b249 a63d a7a8 473d b347 01be 2e60 8a3e
00000220: a405 95be 9987 8abe cb0b a63d 8b25 ea3d
00000230: 3d91 3cbe d2e9 273e a372 483e 746a 893e
00000240: 5a7b 273e b899 413e eed4 013e 9edd 88be
00000250: 022f 4ebe b4cd 91be ee72 2ebb c8d9 da3d
00000260: 1bde e7bd f939 753e 83cc 6d3d ed26 a93c
00000270: e481 25bb efd0 d7bd 4b48 67be 0aa6 a33d
00000280: 5c15 8b3d 76c1 063d a635 5bbe 4a0c 823d
00000290: 2c29 88be 2485 debc 7809 d93e 0e4e 6d3d
000002a0: 3909 813e b4b3 9abd 42b5 a1bd ec0f 9bbe
000002b0: 3941 ecbb 8719 4f3e 958f a9be 2b64 c73b
000002c0: 3300 9bbe c995 563e 75a2 97bd 5658 b73d
000002d0: 670a 0d3e f3b9 aa3e f707 b8be f03b a13e
000002e0: 7fce e83d 303d 4cbe 7162 be3d 2cda c53e
000002f0: 1d06 593e 4f6d b8bd 9a58 9abc 56a3 75be
00000300: 478f c13e bf68 3c3e 0151 9cbe 0719 9fbc
00000310: f31f 49be d2bd bfbc 7284 fd3d ec84 3a3e
00000320: 5910 3d38 9c33 a2bd ad49 d2bd 7115 153d
00000330: 9210 fbbd 1123 2ebe 4c0c 10bd 7000 99be
00000340: 5b2d 95be f0e6 96bd 77b6 5b3e d390 b0bd
00000350: 097f 1ebe 9e31 563d 9fb8 10be 8e6f 62bd
00000360: d71f 91be 369d 68be d154 da3d 6bb5 4ebc
00000370: fe1d 323e 0ce8 f63d b4eb 82be 21c6 dabd
00000380: 0abc 2abe 416d de3d 079e 403e eb05 96bd
00000390: 7126 ff3d 5336 aebe c69b 58bc c25a 323d
000003a0: e9ca 12be 46fa 8d3d d616 7d3d 6f54 5d3d
000003b0: eec4 c23c bd52 81bc f3a0 4f3d 5d7c dabe
000003c0: ab12 3c3e 6acd 9ebc 3c47 8bbe 1b6d f43d
000003d0: 4777 983d 2663 9ebe bb2d 2a3d 0d46 823e
000003e0: 40f0 5fbd cb9c 243e f1cd e8bd 05c7 adbe
000003f0: 668f 993d 52c1 6fbe 9dd8 10be 028b dbbe

gru0.weight_hh_l1 f4 [60, 20]
0.37029895 0.07328001 0.077759214 -0.28653306 0.19344175 -0.09713653 0.3300571 -0.2817611
0.21029362 0.10750451 0.26451045 -0.13247447 0.11506519 0.28892568 -0.19691572 -0.12652145
-0.21443269 -0.19420618 0.07603814 0.12825342 0.3291589 0.11741204 -0.28916925 0.13577239
-0.14059584 0.13091022 0.029807294 -0.04459702 -0.09616954 -0.17052856 0.105072714 0.13596141
0.29597852 0.24298482 0.14701526 -0.14710936 -0.2601362 0.047768127 -0.17692909 0.16846775
-0.061748076 -0.05435335 0.4314575 0.09795046 0.18158902 0.27382547 0.11630699 -0.3215574
-0.14447606 0.14296578 -0.046665143 0.020264346 -0.38415998 0.093305685 0.123351045 0.31166145
0.14961728 -0.12715511 0.33084273 0.047618177 0.09793989 -0.122469716 -0.066023394 0.081925444
-0.05438838 0.11238512 0.042574555 -0.16356881 -0.26572588 -0.24133454 0.2913953 -0.18622424
-0.000960576 0.2538212 -0.13539886 0.032673683 0.053140074 -0.15906447 0.04379635 -0.07696141
0.08978463 0.027175145 0.2530068 -0.006249091 -0.13826399 0.2516447 0.013754322 -0.124267876
-0.14563406 0.03837299 0.20039776 -0.034951206 -0.17782068 0.300439 -0.17611071 -0.18021765
0.23278645 0.021041155 0.25523984 -0.02203839 -0.32733902 -0.026565602 -0.21757653 0.21217753
-0.08753449 0.4512401 0.1570582 0.05460571 -0.099055074 -0.016777089 -0.034280024 -0.0020076248
0.024387022 0.09660444 -0.06752697 -0.020961028 0.14452204 -0.08050653 0.30658326 0.1367715
0.2703463 0.2262466 -0.2599768 -0.011643449 -0.031701013 0.048098348 -0.09749606 0.11897619
-0.11914408 -0.026880663 -0.06325896 -0.13823427 0.40476462 0.08756097 0.1299157 0.0012531142
-0.07759314 -0.05451575 -0.045830064 0.23694496 0.15449291 0.08385674 -0.11758534 -0.12423181
0.133333 0.22720084 -0.10133411 -0.15622465 -0.202134 -0.123601675 0.024961794 -0.3522072
-0.015790401 0.46807653 -0.26249495 0.04505484 -0.33757406 -0.2699918 -0.2304509 0.3033666
0.016466126 -0.22450589 -0.19936956 0.4310589 -0.097118154 0.24562512 -0.058226652 0.3345636
0.11960392 -0.006242103 -0.08488509 -0.03391223 -0.101635836 -0.0026798374 -0.08182073 -0.011616285
-0.11033211 0.12883644 0.13678427 0.13662995 0.09694844 0.08935248 0.43432626 0.30142397
-0.20408142 0.40255588 0.010658026 0.14161688 -0.35387498 0.1099545 0.14750437 -0.102922246
0.1156626 0.056701597 0.016006628 0.24867128 0.19704057 0.16855966 0.023130924 0.027293
0.26020715 0.090210944 -0.005365035 0.06773387 -0.27482435 0.17135935 -0.16260366 -0.31559432
0.062705666 -0.2515561 -0.23820955 -0.16618946 0.05129902 -0.13249224 -0.091783896 -0.07686007
0.050548427 0.06135065 -0.10409497 -0.026220564 -0.13633086 0.27859074 -0.09091777 -0.07205002
-0.1424896 -0.1538784 -0.13074607 -0.011285029 0.058686815 0.17826085 0.04364038 0.2917673
-0.063619904 0.23088768 0.24711034 0.28415856 -0.17318079 -0.2085535 -0.15006265 0.097105615
0.11594436 -0.206711 0.22602388 0.21752465 0.02411224 0.15182416 0.23687215 -0.02432878
-0.11727448 0.024100194 -0.16817611 -0.15140457 -0.104681 -0.05842425 -0.027535997 -0.21342713
00000000: d397 bd3e d413 963d 3940 9f3d 76b4 92be
00000010: 9815 463e 84ef c6bd 3ffd a83e fe42 90be
00000020: 3657 573e 532b dc3d ea6d 873e 63a7 07be
00000030: 4ca7 eb3d 11ee 933e 46a4 49be d78e 01be
00000040: 3e94 5bbe fcdd 46be e2b9 9b3d dd54 033e
00000050: 8487 a83e b975 f03d fe0d 94be eb07 0b3e
00000060: 5bf8 0fbe 540d 063e 6d2e f43c 5dab 36bd
00000070: 89f4 c4bd 0a9f 2ebe 5d30 d73d 7839 0b3e
00000080: 7f8a 973e 03d1 783e 2b8b 163e d6a3 16be
00000090: 9230 85be 83a8 433d e62c 35be cf82 2c3e
000000a0: 8deb 7cbd 9ea1 5ebd ffe7 dc3e 409a c83d
000000b0: 79f2 393e da32 8c3e 5c32 ee3d 2ca3 a4be
000000c0: 88f1 13be 9f65 123e f323 3fbd 6a01 a63c
000000d0: 9eb0 c4be 0d17 bf3d 799f fc3d 1792 9f3e
000000e0: 4635 193e f334 02be 3864 a93e 470b 433d
000000f0: b694 c83d 67d1 fabd 4637 87bd 87c8 a73d
00000100: 5ac6 5ebd 2b2a e63d a862 2e3d 957e 27be
00000110: 390d 88be 6720 77be c431 953e 91b1 3ebe
00000120: 2acf 7bba daf4 813e 00a6 0abe d7d4 053d
00000130: 68a9 593d cce1 22be cd63 333d f29d 9dbd
00000140: 01e1 b73d 699e de3c 1b8a 813e 2dc5 ccbb
00000150: 1395 0dbe 93d7 803e cf59 613c 2880 febd
00000160: 1821 15be ff2c 1d3d 1235 4d3e ff28 0fbd
00000170: a016 36be 24d3 993e 5e56 34be fa8a 38be
00000180: 925f 6e3e 805e ac3c ccae 823e db89 b4bc
00000190: fb98 a7be 1ba0 d9bc 62cc 5ebe 1145 593e
000001a0: 4845 b3bd f108 e73e ddd3 203e 3daa 5f3d
000001b0: 63dd cabd 1b70 89bc 3669 0cbd 5b92 03bb
000001c0: 4bc7 c73c 8cd8 c53d 944b 8abd 76b6 abbc
000001d0: 96fd 133e 9ce0 a4bd 7bf8 9c3e d40d 0c3e
000001e0: d56a 8a3e 30ad 673e ae1b 85be 2ac4 3ebc
000001f0: ecd8 01bd c602 453d 04ac c7bd caa9 f33d
00000200: d001 f4bd d634 dcbc ea8d 81bd 498d 0dbe
00000210: 4f3d cf3e 2a53 b33d 9f08 053e 893f a43a
00000220: 27e9 9ebd e84b 5fbd 4eb8 3bbd b3a1 723e
00000230: 6433 1e3e 15bd ab3d 95d0 f0bd 3f6d febd
00000240: 7288 083e 56a7 683e 4288 cfbd 5bf9 1fbe
00000250: 37fc 4ebe e022 fdbd ad7c cc3c 8154 b4be
00000260: df5a 81bc baa7 ef3e bd65 86be 6d8b 383d
00000270: 82d6 acbe 5d3c 8abe 52fb 6bbe de52 9b3e
00000280: f8e3 863c dfe4 65be 8927 4cbe c1b3 dc3e
00000290: e2e5 c6bd 2785 7b3e 127f 6ebd ec4b ab3e
000002a0: e6f2 f43d 8e8a ccbb 3cd8 adbd 8de7 0abd
000002b0: 7326 d0bd 36a0 2fbb a091 a7bd 3b52 3ebc
000002c0: cdf5 e1bd b3ed 033e 2d11 0c3e b9e8 0b3e
000002d0: e78c c63d 6ffe b63d 0360 de3e 3e54 9a3e
000002e0: b8fa 50be ce1b ce3e 009f 2e3c 0404 113e
000002f0: 1a2f b5be d32f e13d 630b 173e e6c8 d2bd
00000300: 83e0 ec3d ef3f 683d 5520 833c afa3 7e3e
00000310: 01c5 493e e79a 2c3e 107d bd3c 9295 df3c
00000320: df39 853e 84c0 b83d 2dcd afbb 0eb8 8a3d
00000330: c7b5 8cbe d378 2f3e 9381 26be 9495 a1be
00000340: d46b 803d f6cb 80be 34ed 73be 922d 2abe
00000350: ec1e 523d 0cac 07be 32f9 bbbd d068 9dbd
00000360: de0b 4f3d d24a 7b3d be2f d5bd 82cc d6bc
00000370: 519a 0bbe 72a3 8e3e 1933 babd f68e 93bd
00000380: cbe8 11be 4d92 1dbe 4ce2 05be d8e4 38bc
00000390: 9661 703d 038a 363e 41c0 323d 8662 953e
000003a0: 274b 82bd d26d 6c3e 7e0a 7d3e 3b7d 913e
000003b0: 4e56 31be 0c8f 55be 06aa 19be 4fdf c63d
000003c0: 3d74 ed3d 0cac 53be ce72 673e c8be 5e3e
000003d0: 0887 c53c cb77 1b3e 9d8e 723e 264d c7bc
000003e0: 9a2d f0bd c56d c53c 5c36 2cbe cd09 1bbe
000003f0: fe62 d6bd 444e 6fbd 2c93 e1bc a48c 5abe

gru0.bias_ih_l1 f4 [60]
0.08668031 0.19994724 0.013996226 0.050337676 0.019182378 0.269628 0.15503807 0.34606093
0.08891648 0.32012174 0.30080152 0.43588078 -0.08030289 0.17158985 -0.099483 0.22956672
0.041356657 0.12859023 0.074491255 0.046307888 0.23373988 -0.27481696 -0.39635968 -0.10151884
0.002527398 0.04798745 -0.37890232 0.0038978308 -0.014658103 -0.0046256273 -0.15261751 -0.19084148
0.06758701 -0.42934033 0.13925536 -0.047422078 -0.1166942 0.01499553 -0.22721452 -0.11844631
0.09928595 0.03154438 -0.20104067 0.01608685 -0.058856897 -0.091673076 -0.100368194 -0.05788795
-0.061626945 0.070591494 0.10005143 -0.05555501 -0.12471985 0.06778917 0.056986924 0.15869331
-0.22279966 -0.03928619 0.121324085 0.1808734
00000000: 7285 b13d f8be 4c3e 6d50 653c e12e 4e3d
00000010: 5d24 9d3c ae0c 8a3e 4dc2 1e3e e62e b13e
00000020: d819 b63d ffe6 a33e a802 9a3e c42b df3e
00000030: d775 a4bd 40b5 2f3e bebd cbbd 8a13 6b3e
00000040: 9965 293d 28ad 033e df8e 983d 57ad 3d3d
00000050: 8259 6f3e cfb4 8cbe a8ef cabe 1ce9 cfbd
00000060: b4a2 253b 7d8e 443d 7cff c1be c072 7f3b
00000070: 8a28 70bc 9392 97bb c447 1cbe f36b 43be
00000080: 0f6b 8a3d 7fd2 dbbe f598 0e3e a73d 42bd
00000090: 5efd eebd d0af 753c ecaa 68be fb93 f2bd
000000a0: 6f56 cb3d ae34 013d 9bdd 4dbe 92c8 833c
000000b0: ee13 71bd 18bf bbbd d78d cdbd ea1b 6dbd
000000c0: 896c 7cbd 4692 903d c4e7 cc3d a68d 63bd
000000d0: 1f6d ffbd 0cd5 8a3d 1f6b 693d 8080 223e
000000e0: 9825 64be 8eea 20bd c378 f83d e036 393e

gru0.bias_hh_l1 f4 [60]
-0.19674306 0.27301002 0.23758289 0.016746704 -0.007464213 0.33587456 0.06769914 0.18161795
0.25613305 0.10861475 -0.031961557 0.07552961 0.2603729 0.12998527 0.2615508 -0.08191244
0.43682942 0.23920625 0.3534672 0.16771649 -0.17099328 -0.3873966 -0.3955819 0.17453088
-0.11874636 0.035297308 -0.29648346 -0.16239257 0.048748642 -0.28515542 -0.035342526 -0.032767974
-0.041707233 -0.24612683 0.20244877 -0.12544693 -0.261701 -0.3836735 0.0405385 -0.34562853
-0.09007458 -0.17018795 0.20411825 -0.035541333 -0.015460118 0.21196064 0.11368344 0.016879236
-0.20358746 0.20882948 -0.07801619 -0.10471145 0.06647048 0.18061529 0.21126081 -0.02751878
0.1706307 -0.111662604 0.23638612 -0.06161919
00000000: 0377 49be f8c7 8b3e ee48 733e 6230 893c
00000010: 5b96 f4bb c0f7 ab3e d9a5 8a3d 0efa 393e
00000020: df23 833e 6971 de3d 1fea 02bd 45af 9a3d
00000030: 994f 853e dc1a 053e fde9 853e b6c1 a7bd
00000040: 1ba8 df3e 7cf2 743e a7f9 b43e dfbd 2b3e
00000050: dd18 2fbe d958 c6be b689 cabe 39b8 323e
00000060: 4b31 f3bd e993 103d aecc 97be 3d4a 26be
00000070: a8ac 473d e4ff 91be 53c3 10bd b637 06bd
00000080: 34d5 2abd ac08 7cbe bb4e 4f3e 2975 00be
00000090: acfd 85be da70 c4be b30b 263d 39f6 b0be
000000a0: 0579 b8bd c045 2ebe 6004 513e ca93 11bd
000000b0: 6f4c 7dbc 360c 593e ddd2 e83d 5346 8a3c
000000c0: 3b79 50be 65d7 553e f4c6 9fbd f572 d6bd
000000d0: ad21 883d 37f3 383e c154 583e 116f e1bc
000000e0: d0b9 2e3e 5daf e4bd 340f 723e 6764 7cbd

gru1.weight_ih_l0 f4 [30, 20]
-0.14323698 -0.17795897 -0.08161168 0.31626052 -0.34608886 -0.44498265 -0.16900283 0.26810727
0.31867436 -0.052497562 -0.0011688345 0.4819418 0.04090862 0.06354141 0.5306484 0.04533995
0.06774234 0.074463286 -0.05645788 -0.52760375 0.02538666 0.20891137 0.089187466 -0.07537443
0.0252033 -0.105261914 -0.20566434 0.11990735 0.028837405 0.064260736 0.2661831 0.34115195
-0.22304668 0.14004436 0.3113811 0.67004955 0.051880836 0.02882627 0.031050967 -0.3346601
-0.19587933 0.37395173 0.23852868 -0.31762588 0.04747928 -0.13094664 0.0725546 0.07698091
0.20861726 0.06523409 -0.07191973 -0.1822345 -0.33951038 -0.04093444 -0.011439789 0.1599577
0.18252057 -0.20334694 -0.11055394 -0.25368905 -0.06656713 0.08331356 -0.36048043 -0.23201682
-0.18850389 -0.08399296 0.020239461 0.26999304 0.07515366 -0.25551933 -0.25245777 0.3515324
-0.028402962 -0.13963133 -0.074650854 -0.21821296 -0.25868252 0.0048562884 -0.1955317 -0.04481327
0.42697328 -0.15108742 -0.32254115 -0.28733352 -0.3672469 -0.04395002 -0.6012038 -0.31343445
0.07323559 -0.30087224 -0.04800975 0.2406338 -0.25843948 -0.28011805 0.2870634 -0.25196353
-0.1556531 -0.0070711784 -0.26602516 -0.41329703 -0.088779956 0.5139316 0.17876533 -0.07347715
-0.10880803 0.5995389 -0.06433107 -0.37925246 -0.33210665 0.03618905 0.028891454 0.14686148
-0.3903232 0.3144022 0.060451027 0.41384152 0.16525738 -0.008504468 0.47860447 0.117725104
-0.114196554 -0.16225007 0.093822315 0.39041492 -0.41479364 0.05818602 -0.26225477 -0.092185445
-0.15375362 -0.3294536 0.010468379 0.16385603 -0.050312545 -0.089788586 0.24222851 -0.3688506
-0.31390548 0.08230096 0.065226264 -0.4390593 0.22916615 0.096310705 -0.12498122 0.02141056
-0.004632544 0.048598144 0.15578173 -0.23531765 -0.21828593 0.029104345 0.04666566 -0.1493545
0.14927427 0.08472464 -0.31358337 0.33072656 0.07307695 -0.3554422 -0.066022485 0.050290845
-0.12315829 -0.17304459 -0.005621349 -0.008973131 -0.11314463 -0.0819598 0.05450821 0.104621656
0.22723067 -0.09169773 0.009661859 0.4140145 -0.15088819 0.1254341 0.21962096 0.22814204
0.41171706 0.19822647 -0.39150083 0.13295247 0.38315958 -0.20545267 0.25214648 -0.20361888
0.29884776 0.35828784 0.29372144 -0.23410936 0.230341 0.43198016 0.052209023 -0.18918794
-0.28792024 -0.07306028 -0.32703584 0.17417826 0.23735291 -0.27984077 -0.1402477 0.32716382
0.01257633 0.10796834 -0.19240229 -0.3695678 0.27484724 -0.5283768 -0.03378159 0.022737592
0.3324204 0.11729189 -0.1012132 -0.11107623 0.1443593 0.074545465 -0.38374418 -0.032316282
-0.38515952 0.10629911 -0.31645334 0.11730683 0.386562 -0.6935812 -0.7939759 0.16359861
-0.4649316 -0.31598052 -0.59095645 0.423115 -0.29669115 -0.26850516 -0.48324114 0.2772538
0.27739686 -0.69130224 -0.26712534 -0.12428987 -0.6438222 0.5455899 -0.9400959 -0.45231253
-0.17424276 0.029920101 -0.17162557 -0.08529515 -0.055078868 -0.12234389 0.18211533 0.05292291
0.135422 0.043716315 -0.41360667 -0.19094808 0.15775509 0.037179954 -0.2481981 -0.29585317
00000000: b7ac 12be e03a 36be 0624 a7bd e6ec a13e
00000010: 8f32 b1be c4d4 e3be 140f 2dbe 5b45 893e
00000020: 4929 a33e af07 57bd 9433 99ba 13c1 f63e
00000030: cc8f 273d 0022 823d 93d8 073f 62b6 393d
00000040: 7fbc 8a3d 3580 983d 6140 67bd 0a11 07bf
00000050: aff7 cf3c ddec 553e eba7 b63d e95d 9abd
00000060: 2777 ce3c 8f93 d7bd ac99 52be fc91 f53d
00000070: 6c3c ec3c 229b 833d 2749 883e 78ab ae3e
00000080: 5966 64be ca67 0f3e 586d 9f3e 5e88 2b3f
00000090: 0081 543d 1225 ec3c 995e fe3c 9258 abbe
000000a0: 9794 48be 9a76 bf3e dd40 743e dc9f a2be
000000b0: a279 423d e016 06be 8297 943d 2ba8 9d3d
000000c0: c39f 553e 7399 853d a74a 93bd ae9b 3abe
000000d0: 4ed4 adbe dfaa 27bd f46d 3bbc f4cb 233e
000000e0: ace6 3a3e 2e3a 50be 1b6a e2bd 88e3 81be
000000f0: 5954 88bd 4da0 aa3d e490 b8be d195 6dbe
00000100: 2a07 41be 8004 acbd 3acd a53c 873c 8a3e
00000110: 29ea 993d 6ed3 82be 2542 81be 0efc b33e
00000120: 54ad e8bc 84fb 0ebe 8ce2 98bd 3873 5fbe
00000130: 0972 84be 8021 9f3b 7639 48be 1f8e 37bd
00000140: 3e9c da3e a9b6 1abe 1d24 a5be 611d 93be
00000150: c907 bcbe f004 34bd 7ee8 19bf 7b7a a0be
00000160: 8afc 953d ed0b 9abe dfa5 44bd b568 763e
00000170: 2e52 84be a26b 8fbe f9f9 923e 5d01 81be
00000180: 8763 1fbe 58b5 e7bb 7334 88be ab9b d3be
00000190: 44d2 b5bd 0591 033f 420e 373e 307b 96bd
000001a0: bfd6 debd 627b 193f 02c0 83bd 612d c2be
000001b0: e209 aabe f83a 143d c5ad ec3c db62 163e
000001c0: 71d8 c7be 53f9 a03e 7f9b 773d 09e3 d33e
000001d0: 3b39 293e 5356 0bbc a50b f53e dc19 f13d
000001e0: e2df e9bd e224 26be ea25 c03d 77e4 c73e
000001f0: d55f d4be 7754 6e3d 4246 86be b9cb bcbd
00000200: 9771 1dbe 24ae a8be 9083 2b3c e0c9 273e
00000210: 8714 4ebd 14e3 b7bd c00a 783e fcd9 bcbe
00000220: 38b8 a0be 688d a83d 5995 853d 61cc e0be
00000230: 88aa 6a3e 8c3e c53d 27f6 ffbd 3365 af3c
00000240: 98cc 97bb d90e 473d 3f85 1f3e 1cf7 70be
00000250: 5986 5fbe 3c6c ee3c 7e24 3f3d 63f0 18be
00000260: 5bdb 183e 1d84 ad3d 008e a0be fe54 a93e
00000270: 5ea9 953d 85fc b5be cc36 87bd c6fd 4d3d
00000280: 6a3a fcbd 9a32 31be 4b33 b8bb 0a04 13bc
00000290: 5fb8 e7bd 8ada a7bd 0044 5f3d e143 d63d
000002a0: 28af 683e 05cc bbbd c64c 1e3c b5f9 d33e
000002b0: 6f82 1abe cc71 003e 51e4 603e 119e 693e
000002c0: 94cc d23e e1fb 4a3e cc72 c8be b124 083e
000002d0: 7e2d c43e 2f62 52be 5819 813e 7881 50be
000002e0: 9302 993e 8171 b73e a862 963e 5dba 6fbe
000002f0: 83de 6b3e 812c dd3e 21d9 553d 7cba 41be
00000300: 486a 93be a1a0 95bd 3e71 a7be c95b 323e
00000310: a40c 733e 4a47 8fbe 189d 0fbe 0482 a73e
00000320: f40c 4e3c 811e dd3d 1b05 45be fe37 bdbe
00000330: c7b8 8c3e b443 07bf 915e 0abd 3044 ba3c
00000340: 0233 aa3e bb36 f03d de48 cfbd ef7b e3bd
00000350: edd2 133e 4bab 983d 1e7a c4be 145e 04bd
00000360: a133 c5be 59b3 d93d 2c06 a2be 903e f03d
00000370: 74eb c53e 8a8e 31bf 0142 4bbf 6586 273e
00000380: 840b eebe 33c8 a1be ec48 17bf 87a2 d83e
00000390: e7e7 97be 8279 89be 626b f7be 36f4 8d3e
000003a0: f606 8e3e 2ff9 30bf a7c4 88be b08b febd
000003b0: 88d1 24bf c8ab 0b3f 20aa 70bf 8295 e7be
000003c0: b26c 32be 001b f53c 9dbe 2fbe 39af aebd
000003d0: 619a 61bd 6f8f fabd 717c 3a3e b1c5 583d
000003e0: 11ac 0a3e e10f 333d 41c4 d3be e587 43be
000003f0: 8d8a 213e 024a 183d a527 7ebe 117a 97be

gru1.weight_hh_l0 f4 [30, 10]
-0.22580004 0.042951465 0.41269365 -0.0010730851 -0.2844258 -0.10575309 0.032482136 -0.5531108
-0.4156177 -0.2620798 0.07966702 -0.117375635 0.15042827 -0.10403877 0.12521282 0.2321753
-0.18465838 -0.14768736 -0.18559866 -0.29649395 0.2350233 -0.051215075 0.21484154 -0.3165518
0.17038994 -0.047181282 -0.095603436 0.078905374 -0.08043475 -0.44606823 -0.297218 -0.11973267
0.23939584 -0.06414257 0.023541378 -0.21070503 -0.3574141 -0.2723635 0.030712988 0.18461257
0.053454798 0.39483726 0.06926708 -0.13428755 -0.19714281 -0.30837005 -0.14807661 -0.44555816
-0.46162868 0.0014059737 0.18824217 -0.15979044 -0.20018527 0.35962647 0.104556635 0.21037397
0.34630743 0.24451974 0.3625337 -0.31336877 0.06440918 -0.14113903 0.29198134 0.066787034
-0.008468258 -0.12288433 -0.041001145 0.16252287 -0.22717735 0.13448918 -0.03929141 0.09993349
0.18252108 -0.38679537 0.24161561 0.053797342 0.37321383 0.05414289 0.0805046 -0.19748476
-0.24117027 0.0089365365 -0.054530207 0.0028761164 0.009094326 -0.4108983 0.04532307 0.20266628
0.15586704 -0.15657996 0.50169474 -0.34481025 -0.20028831 -0.0061155492 -0.37006387 -0.24047635
-0.013542594 0.0998435 0.3319289 0.053792823 0.25506967 -0.22107074 0.19209969 -0.16107985
0.25436392 -0.35988042 -0.01831702 -0.12403309 -0.0666998 -0.1441395 -0.53944755 -0.21314977
0.104249276 -0.40012088 -0.41852978 -0.4587045 -0.5172413 0.10431721 -0.46290174 0.37217844
0.2564111 -0.19343515 0.06326291 -0.12178978 -0.27320397 -0.009476583 0.14210981 0.003098971
-0.2520295 0.027301505 0.31177634 -0.31316122 0.013195807 -0.03119323 -0.07115219 0.18523657
-0.29860714 -0.30564904 0.18139434 -0.21131465 0.03454812 -0.3349438 0.22497933 -0.1406645
-0.12710313 -0.037402917 -0.1778106 0.2701132 -0.29688904 -0.21364215 -0.31937245 -0.14409037
-0.21192159 0.17788446 0.0544614 -0.24433032 0.17372358 0.13712817 -0.34188426 0.11456087
-0.25456992 0.10086898 0.11554319 -0.2834324 0.026554741 0.054387968 0.3020802 0.26958898
-0.18396617 0.2308229 -0.04630783 -0.15987891 -0.23634595 0.33785492 0.0054194373 -0.05879146
0.03193902 -0.12994936 -0.12244941 0.18134701 -0.2895379 -0.09457205 -0.06587178 0.2462837
-0.28155425 -0.13756745 0.3356734 -0.114938 0.076504126 -0.2682971 -0.201249 -0.22334686
0.035340823 -0.14220995 -0.12926702 0.08357783 -0.13947082 0.12877987 -0.13390578 -0.07309157
0.28624326 0.21889746 0.21703002 0.49949956 -0.039017547 -0.34365964 -0.16077323 -0.368163
0.52583295 0.10215773 -0.027246857 0.25593576 0.2991197 -0.33550814 -0.1605124 -0.03465991
-0.15738645 -0.44038883 -0.2951959 -0.19665346 0.114263885 0.009968643 0.3657119 -0.1264474
-0.048336912 -0.033179685 -0.4472589 -0.37152475 -0.051886432 0.23775525 -0.15258424 -0.06824511
-0.30300868 0.42148167 0.2910911 -0.24550213 0.36768457 0.34951144 0.5653179 0.11336628
-0.117937416 0.3085269 -0.015185444 -0.34709686 0.35864526 0.2675218 0.12632284 -0.13575917
-0.050064754 -0.13875382 -0.49693793 0.38734898 -0.062221464 -0.14496386 0.3285632 0.18519945
00000000: 2038 67be e0ed 2f3d 954c d33e c3a6 8cba
00000010: 42a0 91be 1395 d8bd fd0b 053d ab98 0dbf
00000020: d8cb d4be 532f 86be 7628 a33d a362 f0bd
00000030: de09 1a3e 4712 d5bd ca37 003e 5dbf 6d3e
00000040: 1617 3dbe 5b3b 17be 930d 3ebe 0ece 97be
00000050: f3a9 703e e6c6 51bd 6cff 5b3e 1413 a2be
00000060: b37a 2e3e 2941 41bd bccb c3bd 2499 a13d
00000070: f9ba a4bd 0e63 e4be f52c 98be 6736 f5bd
00000080: 2f24 753e 2e5d 83bd d9d9 c03c 0fc3 57be
00000090: fbfe b6be 3b73 8bbe ce99 fb3c 140b 3d3e
000000a0: 6bf3 5a3d 1c28 ca3e e6db 8d3d ad82 09be
000000b0: cedf 49be aee2 9dbe 65a1 17be 3320 e4be
000000c0: 985a ecbe a648 b83a 8ec2 403e 1ba0 23be
000000d0: 5efd 4cbe f620 b83e ca21 d63d 466c 573e
000000e0: 354f b13e 6263 7a3e 049e b93e df71 a0be
000000f0: f6e8 833d c086 10be 947e 953e a4c7 883d
00000100: 73be 0abc c8aa fbbd d1f0 27bd 656c 263e
00000110: 2ea1 68be 88b7 093e 08f0 20bd eea9 cc3d
00000120: cee6 3a3e 0b0a c6be 156a 773e 9a5a 5c3d
00000130: e215 bf3e efc4 5d3d 99df a43d 7239 4abe
00000140: 57f5 76be 8d6a 123c 115b 5fbd 3a7d 3c3b
00000150: 5e00 153c 4361 d2be afa4 393d c087 4f3e
00000160: 9c9b 1f3e 7f56 20be 116f 003f f88a b0be
00000170: 6118 4dbe f264 c8bb 0379 bdbe 6f3f 76be
00000180: c2e1 5dbc c07a cc3d 96f2 a93e dd55 5c3d
00000190: 7e98 823e 5e60 62be c8b5 443e 1ef2 24be
000001a0: fd3b 823e 3f42 b8be 930d 96bc 1005 febd
000001b0: e899 88bd 4e99 13be 3c19 0abf ef43 5abe
000001c0: a580 d53d a5dc ccbe 8949 d6be 51db eabe
000001d0: ed69 04bf 43a4 d53d 7501 edbe 2c8e be3e
000001e0: 5148 833e dd13 46be fc8f 813d ec6c f9bd
000001f0: 64e1 8bbe ac43 1bbc 3c85 113e 1b18 4b3b
00000200: 030a 81be 68a7 df3c 26a1 9f3e ab56 a0be
00000210: 3a33 583c f288 ffbc 3db8 91bd a8ae 3d3e
00000220: 09e3 98be 087e 9cbe 70bf 393e de62 58be
00000230: 5482 0d3d c17d abbe fb60 663e 5b0a 10be
00000240: 5327 02be cd33 19bd fb13 36be 474c 8a3e
00000250: d701 98be 02c5 5abe c984 a3be 6d8c 13be
00000260: f901 59be 5827 363e eb12 5f3d ba31 7abe
00000270: 98e4 313e 546b 0c3e 740b afbe e49e ea3d
00000280: fd56 82be 6594 ce3d e8a1 ec3d 0d1e 91be
00000290: 5489 d93c ebc5 5e3d 42aa 9a3e 9107 8a3e
000002a0: a161 3cbe d75c 6c3e 47ad 3dbd 4cb7 23be
000002b0: ac04 72be 52fb ac3e 8995 b13b 50cf 70bd
000002c0: 7dd2 023d 7211 05be c2c6 fabd 08b3 393e
000002d0: 503e 94be feae c1bd c9e7 86bd cb31 7c3e
000002e0: e127 90be 7bde 0cbe 62dd ab3e 9d64 ebbd
000002f0: 32ae 9c3d 3d5e 89be 3814 4ebe 0ab5 64be
00000300: 8ac1 103d 7c9f 11be 935e 04be da2a ab3d
00000310: 70d1 0ebe dfde 033e 991e 09be 08b1 95bd
00000320: 7a8e 923e a826 603e 1e3d 5e3e 68be ff3e
00000330: ddd0 1fbd 28f4 afbe bda1 24be dc7f bcbe
00000340: fd9c 063f 1238 d13d cd34 dfbc 030a 833e
00000350: 3826 993e b9c7 abbe 5d5d 24be 8df7 0dbd
00000360: ea29 21be a57a e1be eb23 97be 865f 49be
00000370: 2f03 ea3d 8553 233c 973e bb3e 6d7b 01be
00000380: edfc 45bd 6ce7 07bd 1eff e4be 7e38 bebe
00000390: de86 54bd 1d76 733e 0b3f 1cbe 18c4 8bbd
000003a0: f423 9bbe 72cc d73e e509 953e e964 7bbe
000003b0: 2741 bc3e 2af3 b23e adb8 103f 952c e83d
000003c0: 2c89 f1bd 3df7 9d3e 5ecc 78bc aeb6 b1be
000003d0: 5aa0 b73e 9ef8 883e c65a 013e 7404 0bbe
000003e0: b310 4dbd 7b15 0ebe a66e febe 9b52 c63e
000003f0: efdb 7ebd 6871 14be 7039 a83e eda4 3d3e

gru1.bias_ih_l0 f4 [30]
-0.009996159 0.15831496 0.28912467 -0.22673337 0.18772879 0.31567156 -0.021621402 0.37176314
0.12463541 -0.08485128 0.16409382 0.6236597 -0.20721567 -0.44712877 -0.02114316 -0.44675848
-0.38505533 -0.026276728 -0.36735722 -0.3372967 -0.07670121 -0.1505933 0.11021706 0.13917461
0.25331458 -0.0075887702 0.23772162 -0.12145525 -0.13106072 -0.030561779
00000000: eec6 23bc 511d 223e 2608 943e cb2c 68be
00000010: fa3b 403e b49f a13e 5e1f b1bc bd57 be3e
00000020: da40 ff3d 82c6 adbd 3608 283e 29a8 1f3f
00000030: 5830 54be 10ee e4be 6c34 adbc 87bd e4be
00000040: f925 c5be 4b42 d7bc 3f16 bcbe 27b2 acbe
00000050: 8615 9dbd 2135 1abe 7bb9 e13d ca83 0e3e
00000060: 73b2 813e 38ab f8bb 4c6d 733e 88bd f8bd
00000070: c834 06be b25c fabc

gru1.bias_hh_l0 f4 [30]
0.15363309 0.20864236 0.14968915 -0.077092744 0.14994963 0.025197603 0.2227146 0.07649236
0.050526563 -0.07792466 -0.086324595 0.6323546 -0.04262571 -0.21984226 -0.4246036 -0.09568892
0.06813938 -0.369908 -0.49287957 -0.2760485 -0.15652834 0.33087644 -0.12491367 -0.3624041
-0.06715073 0.12559977 -0.14256221 0.014673592 -0.07262581 0.2873274
00000000: fe51 1d3e 58a6 553e 1d48 193e cde2 9dbd
00000010: 658c 193e 346b ce3c 4c0f 643e 07a8 9c3d
00000020: f1f4 4e3d f796 9fbd f3ca b0bd fee1 213f
00000030: 4c98 2ebd 541e 61be a565 d9be 8df8 c3bd
00000040: a98c 8b3d 9564 bdbe b65a fcbe 3b56 8dbe
00000050: f748 20be a368 a93e bdd2 ffbd 088d b9be
00000060: 5286 89bd 3a9d 003e d4fb 11be 8169 703c
00000070: d7bc 94bd 941c 933e

lin0.weight f4 [6, 10]
-0.6739992 0.6601484 -0.4022333 -0.6321196 0.46902874 0.39724222 0.5658057 -0.65886325
-0.560404 -0.6494854 0.5056975 -0.6890584 -0.44661254 0.48730138 0.21216582 -0.7952092
0.6488478 0.5199124 0.49936354 -0.6091827 0.3148957 0.59309274 0.5870923 0.68201894
0.4535081 0.49519062 -0.7075207 0.57840997 0.45849735 0.69437623 -0.6725604 -0.11583847
0.730237 -0.70120865 -0.63584214 -0.78396654 -0.6672739 -0.5874293 -0.7365504 0.5064431
0.5711776 -0.56453115 -0.48175815 -0.714856 0.46356928 0.32323232 0.63088125 0.63904727
-0.5198764 0.6653148 0.55765367 0.5630037 0.7079869 0.635876 -0.8538903 -0.71833014
-0.22458588 -0.6365958 0.4694969 -0.7119415
00000000: 368b 2cbf 7cff 283f 86f1 cdbe 97d2 21bf
00000010: 8924 f03e 5563 cb3e a4d8 103f 43ab 28bf
00000020: a376 0fbf ad44 26bf 6475 013f 2266 30bf
00000030: 66aa e4be 917f f93e ff41 593e d592 4bbf
00000040: e41a 263f fb18 053f 94ac ff3e 66f3 1bbf
00000050: 023a a13e edd4 173f ae4b 163f cb98 2e3f
00000060: 3732 e83e a089 fd3e 1420 35bf ad12 143f
00000070: 2ac0 ea3e a4c2 313f eb2c 2cbf b83c edbd
00000080: d0f0 3a3f 6982 33bf 8dc6 22bf 08b2 48bf
00000090: 76d2 2abf c461 16bf 918e 3cbf 41a6 013f
000000a0: b238 123f 1d85 10bf 01a9 f6be ce00 37bf
000000b0: f458 ed3e b57e a53e 6f81 213f 9a98 233f
000000c0: 9f16 05bf 1252 2a3f 64c2 0e3f 0321 103f
000000d0: a13e 353f c5c8 223f 8e98 5abf 7ce4 37bf
000000e0: d7f9 65be f1f7 22bf e661 f03e cc41 36bf

lin0.bias f4 [6]
-0.04206521 0.10396856 -0.11723898 0.1294945 -0.129521 -0.014854877
00000000: 924c 2cbd 78ed d43d fe1a f0bd 359a 043e
00000010: 27a1 04be df61 73bc
