saved/classifier_base_gru_shoaib_20_120/shoaib.pt (torch, 39503 bytes, 14 tensors)

gru0.weight_ih_l0 f4 [60, 72]
-0.33822918 -0.037564915 0.06305099 -0.039352506 0.09056556 -0.25710672 -0.27497548 0.1348129
0.06713991 -0.44309193 0.0513367 0.21562025 -0.08674549 0.47257933 -0.34140155 0.61310637
0.0693842 0.20193231 -0.056947004 -0.048998706 0.22212511 -0.23639227 -0.023596695 0.36322784
-0.3030657 0.19451241 0.52987665 0.24900497 0.60684144 0.33174658 -0.100353844 0.25307745
-0.25767097 -0.18480542 -0.5731659 -0.2593 -0.0730056 0.19505478 -0.40317822 0.2928412
-0.024457712 -0.01244452 0.33757216 -0.16513345 -0.010125408 0.04518613 0.38996267 -0.22960876
-0.22401012 0.03570896 -0.112763055 0.009584625 0.3267474 -0.49662063 0.20581646 -0.26149774
-0.045445982 -0.3877544 -0.22484219 0.011309556 0.116421 -0.06966076 -0.096572526 -0.0995607
0.31410524 -0.10557252 -0.05589165 -0.1573448 -0.13898768 0.09946323 0.17137566 -0.06823495
0.109628335 -0.12319581 0.21877128 0.22234349 -0.17436707 -0.17473592 0.19770122 0.13846584
-0.06489079 -0.122468784 -0.044662867 -0.32999295 0.09689208 0.20362724 0.18435131 -0.0043291603
-0.021488601 0.10331325 -0.20388594 -0.037276346 0.20066676 0.016294839 0.04098538 -0.13741474
-0.1729246 0.06349337 -0.17054309 -0.21166246 0.13570526 -0.4571934 0.0012833988 -0.36047924
-0.06426165 0.24030697 -0.06351426 -0.056268074 0.030887512 0.05248383 -0.088863835 -0.13452013
0.24882442 -0.27137086 -0.08897646 0.045327034 0.09685073 0.12706527 -0.46004406 -0.08911957
-0.067186415 0.15981884 -0.07787049 -0.16776636 -0.04305057 0.16517568 0.20280632 -0.07715022
0.09262309 0.22927988 -0.020578407 -0.30833998 -0.04965634 -0.099451974 0.47630233 -0.02634092
0.017610827 0.13925555 -0.076073535 0.058142655 -0.016556222 -0.06271268 0.28207764 0.287451
-0.35024288 0.086150214 -0.32566637 0.55890524 -0.022616938 0.11293949 -0.10084041 0.21322271
0.23994116 -0.35692188 0.029014358 0.3256243 -0.43858588 0.004096573 -0.08328352 0.1085172
0.07310411 -0.35994333 0.37255636 -0.1862843 -0.059234235 -0.21571575 -0.13590972 0.18332717
-0.091922015 0.09664659 0.09113676 0.20299487 -0.016717266 -0.18265748 0.10937193 -0.37576872
0.44444925 -0.020787327 -0.0678791 0.33254302 0.43574634 -0.23886777 0.31187168 -0.02251898
-0.0008426909 -0.15268134 0.006285319 -0.16476676 0.3975049 0.254925 0.063409746 0.17200051
-0.16031489 -0.2056465 -0.26558995 -0.27612177 0.4670129 -0.18236858 0.4436014 -0.021006636
-0.34191954 -0.21210733 0.2700003 -0.28929192 0.1753895 -0.17212877 0.16170022 -0.1699105
0.035101295 -0.06073786 0.2057848 -0.45272908 0.13969515 -0.19162636 0.0015188543 -0.009151504
0.00086231285 -0.17604716 -0.051340625 0.24306205 0.008370513 0.16072476 -0.004097474 0.061996553
0.031418152 -0.037499003 -0.11261195 0.21433836 -0.023357507 0.009691671 0.08289385 -0.17923838
-0.1011384 0.19209813 -0.14515516 -0.20983934 -0.09068904 0.36016154 -0.29646268 0.05437673
-0.039321117 0.23895611 -0.109249175 -0.12221444 0.09573227 -0.17220242 -0.1363521 0.1198109
0.18835315 0.16028206 0.22069918 -0.26423877 -0.25083894 0.07367555 0.12334947 0.23818783
00000000: 602c adbe abdd 19bd e120 813d 1830 21bd
00000010: 707a b93d 7ea3 83be 96c9 8cbe 650c 0a3e
00000020: a680 893d f2dc e2be 6e46 523d 8ecb 5c3e
00000030: 9fa7 b1bd ebf5 f13e 2fcc aebe 8af4 1c3f
00000040: 4e19 8e3d 58c7 4e3e 4341 69bd deb2 48bd
00000050: c474 633e d110 72be db4d c1bc 00f9 b93e
00000060: 6d2b 9bbe 432e 473e ffa5 073f 29fb 7e3e
00000070: f659 1b3f b0da a93e 5186 cdbd 5e93 813e
00000080: 73ed 83be a23d 3dbe 00bb 12bf f8c2 84be
00000090: f683 95bd 71bc 473e 606d cebe 48ef 953e
000000a0: 8a5b c8bc 1ae4 4bbc 42d6 ac3e be18 29be
000000b0: 0ae5 25bc 1715 393d 30a9 c73e 8f1e 6bbe
000000c0: e962 65be 8f43 123d 51f0 e6bd d508 1d3c
000000d0: 6f4b a73e 0f45 febe 8dc1 523e 08e3 85be
000000e0: 9125 3abd bf87 c6be 083d 66be b74b 393c
000000f0: 226e ee3d 4daa 8ebd d1c7 c5bd 7be6 cbbd
00000100: 67d2 a03e 6836 d8bd a5ee 64bd ff1e 21be
00000110: c952 0ebe 61b3 cb3d 1a7d 2f3e c4be 8bbd
00000120: d284 e03d 164e fcbd 9405 603e 03ae 633e
00000130: 488d 32be f9ed 32be 3072 4a3e fdc9 0d3e
00000140: 76e5 84bd ead0 fabd 69f0 36bd d6f4 a8be
00000150: 5b6f c63d a983 503e 97c6 3c3e a1db 8dbb
00000160: dd08 b0bc e695 d33d 7ac7 50be 15af 18bd
00000170: 967b 4d3e c17c 853c 49e0 273d 73b6 0cbe
00000180: 2513 31be d008 823d d9a2 2ebe 0bbe 58be
00000190: 52f6 0a3e 4115 eabe b837 a83a bc90 b8be
000001a0: 9d9b 83bd 0813 763e c413 82bd 5a79 66bd
000001b0: cf07 fd3c 49f9 563d 3efe b5bd a5bf 09be
000001c0: d4cb 7e3e 1ff1 8abe 4a39 b6bd d7a8 393d
000001d0: ad59 c63d 661d 023e e58a ebbe 5284 b6bd
000001e0: 0899 89bd 8da7 233e 907a 9fbd f2ca 2bbe
000001f0: cb55 30bd d023 293e 76ac 4f3e ef00 9ebd
00000200: 2db1 bd3d 58c8 6a3e 0c94 a8bc bdde 9dbe
00000210: 7264 4bbd 7aad cbbd e6dd f33e eac8 d7bc
00000220: 9544 903c 0299 0e3e 71cc 9bbd fe26 6e3d
00000230: eaa0 87bc 816f 80bd 7b6c 903e c72c 933e
00000240: 0953 b3be 866f b03d bebd a6be 6a14 0f3f
00000250: 2847 b9bc d24c e73d 6b85 cebd 0e57 5a3e
00000260: 23b3 753e 77be b6be 85af ed3c 3ab8 a63e
00000270: 548e e0be 8c3c 863b 8d90 aabd 443e de3d
00000280: 9cb7 953d 7e4a b8be b5bf be3e 50c1 3ebe
00000290: 999f 72bd 97e4 5cbe eb2b 0bbe 1eba 3b3e
000002a0: 9c41 bcbd a6ee c53d e9a5 ba3d e3dd 4f3e
000002b0: a6f2 88bc 900a 3bbe 64fe df3d c264 c0be
000002c0: da8e e33e 2f4a aabc 3304 8bbd 1443 aa3e
000002d0: 251a df3e c199 74be a5ad 9f3e b979 b8bc
000002e0: 07e8 5cba 7f58 1cbe 14f5 cd3b 9eb8 28be
000002f0: c385 cb3e 8885 823e f8dc 813d e720 303e
00000300: 9629 24be ff94 52be 68fb 87be d55f 8dbe
00000310: 511c ef3e d4be 3abe b91f e33e 1c16 acbc
00000320: 1410 afbe aa32 59be 7b3d 8a3e 121e 94be
00000330: 4e99 333e 8642 30be be94 253e 05fd 2dbe
00000340: 60c6 0f3d 43c8 78bd 40b9 523e 1bcc e7be
00000350: 3f0c 0f3e b339 44be 4b14 c73a 31f0 15bc
00000360: d60c 623a b545 34be 8c4a 52bd 42e5 783e
00000370: 7a24 093c 0895 243e 1a44 86bb 19f0 7d3d
00000380: 52b0 003d 8e98 19bd 18a1 e6bd 847b 5b3e
00000390: 3e58 bfbc d0c9 1e3c 40c4 a93d 448a 37be
000003a0: a621 cfbd 5fb5 443e 8ea3 14be 20e0 56be
000003b0: 2dbb b9bd 1867 b83e f5c9 97be 22ba 5e3d
000003c0: 2e0f 21bd e9b0 743e 08be dfbd 904b fabd
000003d0: 480f c43d d555 30be e39f 0bbe 6b5f f53d
000003e0: a6df 403e fb20 243e f7fe 613e 4e4a 87be
000003f0: f66d 80be 35e3 963d a69e fc3d 83e7 733e

gru0.weight_hh_l0 f4 [60, 20]
-0.18674074 0.17156868 -0.086767614 -0.26990575 -0.012468297 0.09835459 0.40206793 0.23775247
-0.0918436 -0.17173716 0.07962146 -0.2524126 -0.04766103 -0.09202609 -0.40854427 -0.0016036028
0.06544791 -0.10315619 -0.20664646 0.25756773 0.36690748 -0.06595317 0.06946788 0.06298125
0.083569884 -0.13251509 0.15730916 0.10887908 0.12720454 0.11136199 0.19713306 -0.19316565
-0.22493903 -0.2417332 0.21160504 -0.09256657 -0.08488643 -0.22125548 0.034595557 -0.03494546
-0.18608141 0.1254892 0.24499537 0.24536547 0.43480465 -0.1291602 0.022644475 -0.043747928
0.06935598 -0.1414655 -0.0675157 0.17605215 -0.054468073 0.45312622 0.20023236 -0.19252896
0.32660878 0.036159754 -0.29064727 0.23769727 0.14880559 0.20218244 0.0735214 0.36492527
0.08364987 0.18917543 -0.015136857 0.17194137 0.24815218 0.031605344 -0.19003233 -2.4672965e-05
0.12099311 0.21602069 0.110558674 0.10136595 -0.16163567 -0.17710549 -0.042161305 -0.3487288
0.2679081 -0.06448743 0.09284883 -0.20127492 -0.30850667 -0.34688437 -0.082753636 -0.029572586
-0.2463571 -0.022268444 0.34686592 -0.27116367 -0.16048478 -0.10975659 -0.2888392 0.16289183
-0.16545407 -0.20725316 0.23973943 -0.06308328 0.1757098 -0.18486354 -0.07893638 -0.020955987
0.019247212 0.03896395 0.05426099 0.1409098 0.20167206 -0.11551809 -0.26332024 -0.11779029
0.08349798 0.17305753 -0.051088657 0.307248 -0.08807947 -0.1063478 -0.07175305 0.38771948
-0.012744445 0.14311044 0.14196339 0.1420796 0.17850307 0.2344131 -0.16030447 -0.18177076
-0.0982666 -0.15809064 -0.29208842 0.34084672 -0.04628194 0.20786783 0.35950512 0.051247418
-0.06403896 0.095738694 -0.2290304 -0.045934945 -0.18010412 -0.056663215 -0.12712911 -0.36240214
-0.05338339 -0.3751282 0.01170037 -0.409226 0.015930004 0.27581722 -0.01686878 -0.11904224
0.119424775 -0.35811007 -0.4619361 0.2562137 -0.20800635 0.007514814 0.36419964 0.0583672
-0.193596 0.13603026 -0.2158979 -0.007541482 0.0080664605 -0.033247065 -0.015039396 -0.10540079
0.3184095 -0.4486719 0.018294977 0.16144748 0.09499177 -0.27082372 0.0898858 -0.11163916
-0.4891289 -0.05100492 0.0231318 -0.0922195 0.1429148 0.27957243 0.016595762 -0.10100168
0.21619779 0.0070132418 0.24111694 0.01142425 0.20181045 -0.26230186 0.09062324 -0.29626766
-0.35791457 0.21410675 -0.2243497 -0.021510808 0.041019414 0.099914014 0.11449083 -0.18003534
0.07478654 0.0080323145 0.13722989 -0.022919754 -0.10347854 -0.27025202 0.0735127 0.05871704
0.15408999 0.020322049 0.014474872 0.111738555 -0.25450522 0.25635377 -0.09827015 0.11851598
0.022179095 -0.32100195 -0.16158888 0.060636368 0.084723294 0.030102229 0.1964188 -0.066488944
-0.03953989 -0.30915937 0.09899002 -0.027336834 0.07456081 0.12581414 0.062517665 0.013815495
0.045183383 -0.08207858 -0.18210313 -0.23880103 -0.033981636 0.03521847 -0.030243777 0.12676485
0.025377784 -0.16955765 0.05007838 0.13220537 0.12958026 0.06885903 0.011539054 0.2956402
-0.094897814 0.03958407 0.14055027 0.01701803 -0.06512299 -0.19287123 -0.17480032 -0.19882326
00000000: f738 3fbe b3af 2f3e 38b3 b1bd 1631 8abe
00000010: d447 4cbc 226e c93d d9db cd3e 6275 733e
00000020: 7f18 bcbd dedb 2fbe 9310 a33d 393c 81be
00000030: 3638 43bd 2d78 bcbd b72c d1be fb2f d2ba
00000040: 8e09 863d 8d43 d3bd 219b 53be ebdf 833e
00000050: 4cdb bb3e 7512 87bd 2d45 8e3d 50fc 803d
00000060: b026 ab3d 09b2 07be a715 213e fffb de3d
00000070: e841 023e c111 e43d 40dd 493e 37cd 45be
00000080: 6b56 66be e888 77be feae 583e 8b93 bdbd
00000090: f0d8 adbd cc90 62be 12b4 0d3d f822 0fbd
000000a0: 208c 3ebe 3e80 003e 11e0 7a3e 1641 7b3e
000000b0: b79e de3e 9242 04be e880 b93c 0731 33bd
000000c0: 820a 8e3d 55dc 10be ac45 8abd 0447 343e
000000d0: ea19 5fbd 2900 e83e b609 4d3e 5026 45be
000000e0: 4439 a73e 401c 143d b8cf 94be ea66 733e
000000f0: 7e60 183e ea08 4f3e 6392 963d 7cd7 ba3e
00000100: 9f50 ab3d 34b7 413e 9400 78bc 6611 303e
00000110: 9b1b 7e3e 9b74 013d d697 42be caf8 ceb7
00000120: 3ccb f73d 8734 5d3e 966c e23d f498 cf3d
00000130: d283 25be 245b 35be 55b1 2cbd 958c b2be
00000140: 402b 893e fc11 84bd 8727 be3d 031b 4ebe
00000150: 96f4 9dbe d49a b1be bd7a a9bd 3542 f2bc
00000160: 0945 7cbe 506c b6bc 6998 b13e f7d5 8abe
00000170: 1f56 24be 10c8 e0bd bbe2 93be 1ecd 263e
00000180: cb6c 29be 2c3a 54be 417e 753e cf31 81bd
00000190: 45ed 333e de4c 3dbe 66a9 a1bd e4ab abbc
000001a0: 54ac 9d3c aa98 1f3d c640 5e3d a94a 103e
000001b0: 1f83 4e3e c094 ecbd e9d1 86be 093c f1bd
000001c0: fd00 ab3d fe35 313e 5742 51bd 9c4f 9d3e
000001d0: 0263 b4bd e0cc d9bd 43f3 92bd 2b83 c63e
000001e0: 14ce 50bc 8b8b 123e da5e 113e 517d 113e
000001f0: 82c9 363e fd09 703e db26 24be 1d22 3abe
00000200: 0040 c9bd 83e2 21be 9d8c 95be 7683 ae3e
00000210: 2292 3dbd 4edb 543e 0e11 b83e d0e8 513d
00000220: dc26 83bd a612 c43d f286 6abe 4826 3cbd
00000230: 376d 38be b017 68bd 222e 02be c68c b9be
00000240: 8ba8 5abd ce10 c0be e9b2 3f3c 1286 d1be
00000250: a47f 823c ea37 8d3e 6530 8abc 6bcc f3bd
00000260: fa94 f43d 345a b7be e382 ecbe 712e 833e
00000270: 9eff 54be d43e f63b 6078 ba3e 7212 6f3d
00000280: 083e 46be 844b 0b3e 5714 5dbe 891e f7bb
00000290: 3029 043c 132e 08bd cc67 76bc 5fdc d7bd
000002a0: 9206 a33e 53b8 e5be 59df 953c 7d52 253e
000002b0: 0c8b c23d 68a9 8abe 0c16 b83d 12a3 e4bd
000002c0: 1a6f fabe 89ea 50bd e77e bd3c 94dd bcbd
000002d0: 4258 123e 1e24 8f3e d6f3 873c f8d9 cebd
000002e0: f462 5d3e 56cf e53b 5ce7 763e c72c 3b3c
000002f0: 66a7 4e3e 6e4c 86be ad98 b93d 65b0 97be
00000300: 9440 b7be cd3e 5b3e eebb 65be 6f37 b0bc
00000310: f903 283d b89f cc3d 2b7a ea3d 2f5b 38be
00000320: af29 993d f899 033c fe85 0c3e 35c2 bbbc
00000330: 8fec d3bd 795e 8abe d48d 963d 4781 703d
00000340: c4c9 1d3e 6d7a a63c 0328 6d3c 2fd7 e43d
00000350: 824e 82be cd40 833e dc41 c9bd 82b8 f23d
00000360: efb0 b53c 5e5a a4be 8e77 25be d75d 783d
00000370: 6883 ad3d f398 f63c 0322 493e 5b2b 88bd
00000380: 94f4 21bd 234a 9ebe 48bb ca3d 7ff1 dfbc
00000390: 57b3 983d 6cd5 003e 4309 803d 635a 623c
000003a0: 3612 393d d118 a8bd 3e79 3abe 4288 74be
000003b0: 5430 0bbd 3e41 103d ccc1 f7bc a5ce 013e
000003c0: 12e5 cf3c 85a0 2dbe fd1e 4d3d d860 073e
000003d0: b0b0 043e f705 8d3d 4d0e 3d3c 275e 973e
000003e0: c959 c2bd e822 223d 69ec 0f3e 6569 8b3c
000003f0: 345f 85bd 0980 45be dbfe 32be 5398 4bbe

gru0.bias_ih_l0 f4 [60]
0.26811016 -0.08002422 0.2436733 0.07447943 0.085143045 0.2625829 -0.23972254 -0.16313581
0.24967085 -0.079200044 -0.14261788 -0.018255807 0.20869038 0.26023167 -0.020860096 0.048810203
-0.04260372 0.21420115 0.31931472 0.25164375 -0.18390295 0.34160733 0.07957456 0.19569221
0.13077076 0.016962746 -0.17515822 0.088786855 0.07658575 0.035205137 -0.09803823 0.11980422
0.3495722 -0.16986366 0.2890519 0.24871288 0.09107245 0.027123528 0.14863858 0.062036794
0.19874567 0.064241186 -0.09193543 -0.17303061 -0.05120299 -0.1591027 0.115887575 0.052323528
0.15177886 -0.002322995 -0.005274585 -0.2093659 -0.2116259 0.1440551 0.07575959 -0.16889629
-0.23216493 -0.16020297 0.016781854 -0.30395025
00000000: bc45 893e bde3 a3bd 7e85 793e ac88 983d
00000010: 7a5f ae3d 4471 863e d379 75be 130d 27be
00000020: b7a9 7f3e a233 a2bd 6c0a 12be 348d 95bc
00000030: eeb2 553e 163d 853e cbe2 aabc 35ed 473d
00000040: 3d81 2ebd 8c57 5b3e 387d a33e 73d7 803e
00000050: 0e51 3cbe 28e7 ae3e fdf7 a23d 8a63 483e
00000060: c5e8 053e 75f5 8a3c ad5c 33be e2d5 b53d
00000070: fdd8 9c3d 4333 103d 44c8 c8bd ea5b f53d
00000080: 21fb b23e bdf0 2dbe 9cfe 933e 97ae 7e3e
00000090: 3184 ba3d 2932 de3c b634 183e 4b1a 7e3d
000000a0: fc83 4b3e e290 833d a548 bcbd f02e 31be
000000b0: 3aba 51bd d1eb 22be 7756 ed3d 3251 563d
000000c0: eb6b 1b3e 643d 18bb 6dd6 acbb 0464 56be
000000d0: 76b4 58be 2e83 133e d827 9b3d 26f3 2cbe
000000e0: a5bc 6dbe 3f0c 24be 197a 893c 5e9f 9bbe

gru0.bias_hh_l0 f4 [60]
-0.015556998 0.15894556 0.11804241 -0.034388866 -0.030088203 0.1331524 0.034881543 -0.14982851
0.18757261 -0.07063878 0.068994336 -0.09917606 -0.14395091 0.120159574 0.09485413 0.025142876
0.19091313 0.08376876 0.2556505 0.028191097 0.12341526 0.28103706 -0.065217026 0.021698585
0.038497966 0.16585676 0.023225466 0.19634552 0.06680087 -0.10758288 0.20905839 0.03140279
0.2745846 -0.0011142947 0.23191465 -0.09321759 -0.1477475 -0.17681155 -0.03181093 -0.004236586
0.09329334 -0.16630161 0.012494303 0.06529024 -0.03126834 -0.08771642 0.06344914 -0.026739417
-0.06453133 0.18358237 0.03938762 -0.1372799 -0.18127279 -0.20251861 -0.19474876 0.17583798
0.048090164 -0.045666713 0.29913282 -0.0058558392
00000000: c7e2 7ebc a0c2 223e 38c0 f13d 57db 0cbd
00000010: 897b f6bc 1a59 083e f3df 0e3d a56c 19be
00000020: 0913 403e 11ab 90bd e74c 8d3d d11c cbbd
00000030: de67 13be 3916 f63d e242 c23d 6ff8 cd3c
00000040: bb7e 433e f58e ab3d 9fe4 823e 04f1 e63c
00000050: 24c1 fc3d 17e4 8f3e 8190 85bd 3bc1 b13c
00000060: 0bb0 1d3d 5bd6 293e 5543 be3c cd0e 493e
00000070: e5ce 883d 6a54 dcbd 6713 563e 36a0 003d
00000080: 5a96 8c3e 870d 92ba 097b 6d3e dde8 bebd
00000090: 1f4b 17be 160e 35be 2e4c 02bd 0fd3 8abb
000000a0: 9410 bf3d f84a 2abe e8b4 4c3c e4b6 853d
000000b0: 3b13 00bd aba4 b3bd 9ff1 813d 9f0c dbbc
000000c0: 0029 84bd 04fd 3b3e ea54 213d 1a93 0cbe
000000d0: 939f 39be 0a61 4fbe 386c 47be df0e 343e
000000e0: 31fa 443d 050d 3bbd f027 993e 57e2 bfbb

gru0.weight_ih_l1 f4 [60, 20]
0.1328261 -0.022249235 0.2667829 0.1362711 -0.13948843 -0.0010540847 -0.0461339 -0.02768435
-0.25306454 0.31100747 -0.09903108 0.1771874 -0.1100283 0.35201615 0.5290545 0.1579752
0.6046958 -0.119903915 -0.043445554 -0.37638 -0.04623089 -0.03643665 0.10577536 -0.14772163
-0.12939665 -0.037036624 -0.18964994 0.27712145 -0.18070278 -0.13134505 0.10607897 -0.06595617
-0.0032245638 0.28728205 0.0830807 0.3689453 0.078713104 0.08136728 -0.11657041 -0.07878962
-0.068809874 -0.2621925 0.28542218 -0.30675313 -0.0014565694 -0.22693555 -0.03519055 0.21898076
-0.095336854 -0.17269991 0.20644832 -0.073315546 0.18068871 0.20214151 -0.21652865 0.32767874
-0.05414969 -0.23104373 -0.024328632 0.050642274 0.26009163 0.20762652 -0.16431658 0.016293008
-0.07453974 0.12332584 0.028712407 0.4250002 -0.06381069 0.113945074 -0.01832738 -0.039308287
0.031646036 0.12945367 0.052891653 -0.16581197 0.12974124 -0.19991167 -0.22999416 -0.4135711
-0.52344304 -0.2802153 0.2116158 -0.2050991 0.14562294 -0.0074646072 -0.0016802622 -0.2736858
-0.29418215 0.28690937 -0.12625033 0.19106205 -0.15057327 -0.0034413459 0.005695646 0.010742937
0.14596798 -0.05268402 -0.029547364 -0.45494977 0.35780236 -0.16178353 0.173736 -0.021594873
-0.008172653 -0.014393079 0.17025824 -0.19310224 -0.106342 0.16004525 0.30154458 -0.15649697
-0.081947856 0.0062106354 -0.036046848 -0.14211902 -0.3848936 -0.37816527 -0.06217232 -0.3206663
0.52476513 0.28769916 -0.009018133 0.033046894 0.1477526 -0.17977494 0.23833565 0.089136295
0.25476402 0.07732611 -0.14993711 -0.3535832 0.23969358 0.28687316 0.083066106 0.044317733
0.016406605 -0.24888144 -0.0076087485 0.044964213 -0.1916519 0.1642403 0.19617161 0.12571403
-0.03294488 -0.025552213 0.28607395 -0.11536225 -0.08036156 -0.0050313785 0.0643302 -0.05769576
-0.15992396 0.2316696 0.222679 0.06982714 0.07418362 -0.18299755 -0.35989174 0.010172962
-0.25148365 -0.21306846 0.0027916543 -0.013552522 -0.19068557 0.030878292 0.2526254 0.117517464
0.020526625 -0.036754034 -0.009097232 -0.081957825 -0.124608696 0.13219401 -0.3885753 0.31310648
-0.00018863652 0.09032073 -0.3148108 0.32172826 -0.16275105 0.08926115 -0.059960168 0.08372133
0.0021564933 -0.29106352 0.1281369 0.085197255 0.119011275 0.030605244 0.035870858 -0.23530236
0.071465 0.2964028 -0.21078733 0.39412743 0.10166703 0.018928723 -0.19169436 0.28597215
-0.013772762 -0.16586821 0.13311416 -4.5881567e-05 -0.34219605 -0.16335799 -0.15023683 -0.015247574
-0.2994632 0.14593233 0.21153452 -0.06479192 -0.16638371 0.13479471 0.14641751 -0.062854774
0.029642193 -0.4584535 -0.12007681 -0.02478616 -0.003393319 -0.11346471 -0.07683482 -0.13926706
-0.3801454 0.12919307 -0.048954967 -0.036699533 0.04072567 -0.017848682 0.060423303 0.2276651
-0.04986112 -0.063672 0.19233884 0.25492838 0.14397179 -0.17198955 -0.10963795 -0.26591
-0.08419442 -0.21998848 0.07623275 0.101371445 0.07685996 -0.3471623 0.013360227 0.23615216
-0.21298839 0.21194406 -0.19214906 -0.2597003 -0.091174856 -0.08877828 -0.030261498 -0.1931291
00000000: 9103 083e 0744 b6bc c597 883e a78a 0b3e
00000010: 0ed6 0ebe 3729 8aba e6f6 3cbd 4aca e2bc
00000020: ad91 81be 5f3c 9f3e cfd0 cabd 9d70 353e
00000030: 8456 e1bd 763b b43e 1e70 073f 40c4 213e
00000040: 58cd 1a3f 2f90 f5bd f7f3 31bd e1b4 c0be
00000050: 9a5c 3dbd 993e 15bd c0a0 d83d 5744 17be
00000060: 8e80 04be b7b3 17bd 9833 42be dde2 8d3e
00000070: 260a 39be 517f 06be ee3f d93d 0714 87bd
00000080: 3453 53bb a216 933e 3726 aa3d 66e6 bc3e
00000090: 5634 a13d e3a3 a63d 78bc eebd 745c a1bd
000000a0: 31ec 8cbd 183e 86be db22 923e bf0e 9dbe
000000b0: 5cea beba cb61 68be f723 10bd 7e3c 603e
000000c0: f83f c3bd 3fd8 30be 3067 533e 7626 96bd
000000d0: 7606 393e 2ffe 4e3e b0b9 5dbe 82c5 a73e
000000e0: 11cc 5dbd ba96 6cbe d74c c7bc 466e 4f3d
000000f0: bb2a 853e 0c9c 543e 9b42 28be ea78 853c
00000100: 4ba8 98bd 4292 fc3d 4836 eb3c a099 d93e
00000110: 2eaf 82bd 095c e93d 4d23 96bc ba01 21bd
00000120: 469f 013d 818f 043e eba4 583d 9dca 29be
00000130: e3da 043e a5b5 4cbe 9783 6bbe 97bf d3be
00000140: 5d00 06bf 6178 8fbe d0b1 583e 8005 52be
00000150: 2e1e 153e aa99 f4bb 3e3c dcba 8c20 8cbe
00000160: 0b9f 96be c9e5 923e c447 01be c5a5 433e
00000170: e12f 1abe 3488 61bb 8ba2 ba3b 2503 303c
00000180: a178 153e 33cb 57bd 500d f2bc 2def e8be
00000190: df31 b73e 95aa 25be dae7 313e bbe7 b0bc
000001a0: 97e6 05bc f3d0 6bbc 2d58 2e3e 98bc 45be
000001b0: d6c9 d9bd e7e2 233e 0d64 9a3e be40 20be
000001c0: 47d4 a7bd 9682 cb3b dca5 13bd a687 11be
000001d0: c610 c5be e19e c1be 67a8 7ebd 602e a4be
000001e0: 0257 063f 4e4d 933e cbc0 13bc 2e5c 073d
000001f0: 754c 173e ec16 38be 430e 743e 178d b63d
00000200: 6e70 823e 275d 9e3d 1d89 19be db08 b5be
00000210: 3c72 753e 0ae1 923e 901e aa3d 8386 353d
00000220: 2567 863c c7da 7ebe cf52 f9bb 652c 383d
00000230: 6540 44be 9c2e 283e 36e1 483e 2ebb 003e
00000240: 36f1 06bd e052 d1bc 4978 923e 0b43 ecbd
00000250: 9a94 a4bd 43de a4bb 8dbf 833d 6452 6cbd
00000260: 1bc3 23be cc3a 6d3e f705 643e 8801 8f3d
00000270: 95ed 973d b663 3bbe bb43 b8be 7fac 263c
00000280: 77c2 80be 9e2e 5abe 30f4 363b 660b 5ebc
00000290: 1443 43be 79f4 fc3c 1e58 813e ffac f03d
000002a0: 7427 a83c 668b 16bd 8e0c 15bc 81d9 a7bd
000002b0: d832 ffbd de5d 073e 57f3 c6be 7e4f a03e
000002c0: bbcc 45b9 13fa b83d e22e a1be 91b9 a43e
000002d0: 36a8 26be 8dce b63d cb98 75bd 1776 ab3d
000002e0: f453 0d3b 4706 95be 5236 033e e67b ae3d
000002f0: 2fbc f33d d9b7 fa3c 52ed 123d 1af3 70be
00000300: 3e5c 923d 1cc2 973e a2d8 57be 12cb c93e
00000310: ce36 d03d 6910 9b3c 874b 44be f16a 923e
00000320: 27a7 61bc 5bd9 29be 144f 083e f570 40b8
00000330: 5234 afbe 5147 27be afd7 19be f6d0 79bc
00000340: 3e53 99be 496f 153e 819c 583e a0b1 84bd
00000350: 7e60 2abe a007 0a3e 79ee 153e 01ba 80bd
00000360: 2fd4 f23c 6bba eabe d5ea f5bd 580c cbbc
00000370: 7262 5ebb 3060 e8bd 935b 9dbd 069c 0ebe
00000380: 6ba2 c2be 304b 043e 0185 48bd 4052 16bd
00000390: f6cf 263d 6637 92bc 6d7e 773d 0a21 693e
000003a0: 2c3b 4cbd 7766 82bd 79f4 443e f985 823e
000003b0: 576d 133e 071e 30be dd89 e0bd 5b25 88be
000003c0: 206e acbd a944 61be eb1f 9c3d d59b cf3d
000003d0: c168 9d3d 42bf b1be dbe4 5a3c dfd1 713e
000003e0: a119 5abe dd07 593e b9c2 44be 70f7 84be
000003f0: e2b9 babd 63d1 b5bd f6e6 f7bc a3c3 45be

gru0.weight_hh_l1 f4 [60, 20]
0.38156477 -0.14057747 -0.026866728 -0.27690277 0.22126053 0.03774469 -0.031578347 0.029128762
0.25661838 0.31215867 0.14965062 -0.049610246 0.15302677 0.1459283 0.043785017 -0.17638153
0.20468715 0.03212677 0.089564584 0.060480893 0.25147787 -0.071579225 -0.026000367 -0.13980903
-0.14765376 0.19931944 0.05164966 0.17249459 0.20382772 0.17058289 0.18845509 0.18275428
-0.029945672 -0.046807375 0.10474346 0.008992586 -0.060015675 -0.011409825 -0.14051142 0.14535274
-0.05183733 -0.31319597 0.3225516 0.35043943 -0.027945528 0.028044688 -0.08867266 0.008964932
-0.25977352 0.048687357 -0.35317856 0.043672223 -0.51288086 -0.11510346 0.34297156 -0.073297
0.1207431 0.20804948 0.064263254 -0.18485023 0.03476265 -0.031217707 0.11040968 0.04214913
0.004035989 0.18122219 -0.016067775 -0.3120894 0.034018867 -0.051226012 0.34464973 -0.16789459
-0.13204709 0.2300019 -0.1312208 0.064512156 0.09968229 -0.30325386 0.040326707 -0.14198655
0.7495228 -0.0036201722 0.04885373 -0.07433576 -0.012947583 -0.051504396 -0.344745 -0.21266341
-0.114130475 0.12530896 0.30923697 0.13431308 0.10088347 0.13463697 -0.16120546 -0.22422315
-0.4438698 -0.06488439 0.14038542 -0.32653493 0.101723775 0.14289834 -0.19016494 0.19598868
-0.1400791 0.0021989744 -0.016517535 -0.29100454 0.08633856 -0.089884974 -0.043836094 0.30661774
-0.09586142 -0.081854515 -0.0520211 0.094909176 -0.5970544 -0.41459003 0.062114086 -0.14378704
-0.13421024 0.21214329 0.11631043 0.007030092 0.014267867 0.17719792 -0.044610478 0.11716561
0.2766696 0.38214305 -0.14705822 0.050505318 0.07018049 -0.09038192 0.10746932 0.175151
0.3273694 -0.032419153 -0.06997807 0.23331591 0.09730769 -0.13604356 -0.12502414 -0.07201135
0.07208192 0.29952198 -0.2984187 0.09208881 -0.11663137 0.24115574 -0.023883725 -0.18242477
-0.1588858 0.24801525 -0.17394242 0.1640243 0.037743304 -0.1833987 -0.15488255 0.21507995
0.120376416 -0.33620968 -0.10526418 0.3786935 -0.037934545 -0.050965585 -0.104376756 0.45743525
0.1379861 0.11174852 -0.14774783 0.07479952 -0.1626982 -0.1972001 0.008670822 -0.29583725
-0.19012597 0.25624654 -0.118685424 0.024952656 0.07995382 -0.12416982 0.2613981 0.41254362
-0.1355473 0.13864583 -0.13833795 0.47111103 -0.17592533 0.5255554 0.042183477 0.024679366
-0.016675435 -0.18618882 0.08844356 -0.013231279 0.07401141 0.45512334 -0.25504482 -0.1684434
0.3029852 0.055052895 0.17504913 -0.038179763 -0.20145963 0.17181762 -0.18990949 -0.17403367
0.25790045 0.030170402 -0.18509486 -0.06407888 -0.16028324 -0.3213829 -0.123026624 -0.047134083
0.13531473 0.02602819 -0.09686011 -0.09773403 0.08174281 0.09073752 -0.13484377 -0.25055912
-0.0039939447 -0.36587015 -0.11228542 0.1137794 0.18148409 0.18458916 0.04604399 0.310882
0.080263644 -0.1439492 0.17419799 0.17704485 -0.33890194 -0.14560518 -0.17479633 -0.031688266
0.33925614 -0.16319276 0.29151452 0.14228274 0.283268 0.053198747 0.09285323 -0.07634624
0.005667483 0.24414062 -0.27362147 -0.04540618 -0.1066147 -0.038454242 -0.0037824835 -0.2787228
00000000: 755c c33e 8af3 0fbe 9d17 dcbc 33c6 8dbe
00000010: 1f92 623e 2d9a 1a3d 4c58 01bd 719f ee3c
00000020: 7c63 833e 43d3 9f3e 033e 193e 1d34 4bbd
00000030: 0db3 1c3e 3a6e 153e eb57 333d 5c9d 34be
00000040: 8299 513e 5c97 033d a36d b73d d0ba 773d
00000050: b5c1 803e 2198 92bd b9fe d4bc 192a 0fbe
00000060: 8c32 17be 651a 4c3e 988e 533d 6ca2 303e
00000070: 37b8 503e 48ad 2e3e 5ffa 403e f023 3b3e
00000080: a050 f5bc 17b9 3fbd bd83 d63d a455 133c
00000090: ffd2 75bd 46f0 3abc 3ae2 0fbe 59d7 143e
000000a0: 6153 54bd 395b a0be 7c25 a53e cc6c b33e
000000b0: 05ee e4bc f9bd e53c 039a b5bd a6e1 123c
000000c0: 0901 85be 656c 473d d2d3 b4be a5e1 323d
000000d0: 294c 03bf 5dbb ebbd f899 af3e bd1c 96bd
000000e0: 2948 f73d ec0a 553e 749c 833d 6149 3dbe
000000f0: 4863 0e3d 47bc ffbc 781e e23d 91a4 2c3d
00000100: 5440 843b 4f92 393e 91a0 83bc 2fca 9fbe
00000110: 5e57 0b3d 5ed2 51bd ee75 b03e 8fec 2bbe
00000120: 5a37 07be 9e85 6b3e bf5e 06be f31e 843d
00000130: 3a26 cc3d 1744 9bbe 9e2d 253d ec64 11be
00000140: bae0 3f3f 6940 6dbb d91a 483d 593d 98bd
00000150: 1922 54bc 46f6 52bd 6b82 b0be 70c4 59be
00000160: 3dbd e9bd fe50 003e 4f54 9e3e 5e89 093e
00000170: fe9b ce3d 46de 093e 0b13 25be c19a 65be
00000180: e742 e3be 1be2 84bd 32c1 0f3e 962f a7be
00000190: 8e54 d03d f153 123e 99ba 42be 42b1 483e
000001a0: e570 0fbe ab1c 103b c84f 87bc 8cfe 94be
000001b0: 45d2 b03d 9d15 b8bd 7a8d 33bd 00fd 9c3e
000001c0: fe52 c4bd 57a3 a7bd 1414 55bd be5f c23d
000001d0: 8fd8 18bf 2545 d4be 576b 7e3d e93c 13be
000001e0: 696e 09be 173c 593e 2a34 ee3d b05c e63b
000001f0: c6c3 693c 5f73 353e 7ab9 36bd 86f4 ef3d
00000200: a3a7 8d3e 41a8 c33e 6e96 16be aade 4e3d
00000210: caba 8f3d 281a b9bd e018 dc3d c95a 333e
00000220: f69c a73e f2c9 04bd aa50 8fbd 5eea 6e3e
00000230: 4149 c73d 014f 0bbe 5406 00be b07a 93bd
00000240: b09f 933d f25a 993e 56ca 98be 0f99 bc3d
00000250: 6ddc eebd 88f1 763e cda7 c3bc 8fcd 3abe
00000260: f6b2 22be b6f7 7d3e f61d 32be fcf5 273e
00000270: b998 1a3d decc 3bbe 8899 1ebe eb3d 5c3e
00000280: e987 f63d ad23 acbe bf94 d7bd 1de4 c13e
00000290: 4161 1bbd 4ac1 50bd 7bc3 d5bd f434 ea3e
000002a0: 3a4c 0d3e 68dc e43d 354b 17be 7e30 993d
000002b0: 5b9a 26be d3ee 49be 1010 0e3c fb77 97be
000002c0: 62b0 42be bf32 833e 5811 f3bd 8369 cc3c
000002d0: d4be a33d bf4c febd f9d5 853e eb38 d33e
000002e0: e9cc 0abe 2cf9 0d3e 77a8 0dbe 7735 f13e
000002f0: c525 34be cc8a 063f 95c8 2c3d 622c ca3c
00000300: ec9a 88bc 48a8 3ebe e621 b53d 02c8 58bc
00000310: 4b93 973d ed05 e93e 3c95 82be 6d7c 2cbe
00000320: e020 9b3e 257f 613d 1440 333e 6262 1cbd
00000330: 6f4b 4ebe f5f0 2f3e a277 42be e235 32be
00000340: 870b 843e eb27 f73c 8289 3dbe ca3b 83bd
00000350: 4a21 24be 4d8c a4be 62f5 fbbd ab0f 41bd
00000360: f28f 0a3e 1239 d53c 985e c6bd c728 c8bd
00000370: c668 a73d 98d4 b93d 7c14 0abe 4949 80be
00000380: a3df 82bb 5553 bbbe e6f5 e5bd 2d05 e93d
00000390: f7d6 393e f104 3d3e 9f98 3c3d ed2b 9f3e
000003a0: 4461 a43d 6b67 13be f560 323e 3f4b 353e
000003b0: 8e84 adbe 8619 15be cffd 32be 8ecb 01bd
000003c0: fbb2 ad3e 011c 27be 6441 953e 91b2 113e
000003d0: 8108 913e eee6 593d d629 be3d 6b5b 9cbd
000003e0: 4bb6 b93b 0000 7a3e 1d18 8cbe d5fb 39bd
000003f0: cf58 dabd 3282 1dbd 8be3 77bb c1b4 8ebe

gru0.bias_ih_l1 f4 [60]
0.12348259 0.17741387 0.019453187 -0.010467491 -0.17119175 0.279184 0.23525916 0.37514153
-0.086783856 0.22662129 0.3352586 0.14322075 0.025833286 0.16766825 0.024563732 0.19313829
-0.02984706 0.2004672 -0.03306205 0.03864844 -0.026369108 0.055311963 -0.20128325 -0.2751154
-0.24318032 0.23636019 -0.23284729 -0.07854494 0.18036515 -0.030419065 0.13408872 0.06390263
-0.026815468 -0.07754667 0.1140893 0.13987763 -0.31909788 0.12376567 0.11768672 -0.12182944
0.12327868 0.09855366 -0.115072 0.08591081 -0.057454966 -0.071154945 -0.15280923 -0.10960462
0.009196825 0.035761528 -0.005541774 -0.034750104 -0.10173353 0.0728832 0.14545831 0.101252936
-0.2923287 -0.10970905 0.04090523 0.11245774
00000000: 71e4 fc3d fbab 353e 4a5c 9f3c d77f 2bbc
00000010: e44c 2fbe 35f1 8e3e c7e7 703e 8d12 c03e
00000020: bcbb b1bd 690f 683e 04a7 ab3e 76a8 123e
00000030: 54a0 d33c 3ab1 2b3e e139 c93c 0bc6 453e
00000040: d281 f4bc 4647 4d3e 126c 07bd d44d 1e3d
00000050: 0704 d8bc cc8e 623d 321d 4ebe eddb 8cbe
00000060: 4304 79be 6808 723e 856f 6ebe 2bdc a0bd
00000070: a4b1 383e 6731 f9bc 8e4e 093e 62df 823d
00000080: 1dac dbbc cad0 9ebd a7a7 e93d 153c 0f3e
00000090: cc60 a3be db78 fd3d bc05 f13d b781 f9bd
000000a0: 8879 fc3d 80d6 c93d deaa ebbd 02f2 af3d
000000b0: e655 6bbd afb9 91bd 067a 1cbe 6378 e0bd
000000c0: 48ae 163c ae7a 123d c597 b5bb 2056 0ebd
000000d0: ab59 d0bd ca43 953d 06f3 143e b35d cf3d
000000e0: 1bac 95be 23af e0bd 3e8c 273d 3e50 e63d

gru0.bias_hh_l1 f4 [60]
-0.15994065 0.2504771 0.24303928 -0.04405834 -0.19783838 0.34543046 0.1479202 0.21069865
0.08043235 0.015113944 0.0024945189 -0.21713002 0.3665094 0.12606359 0.3855975 -0.11834121
0.36562562 0.31108382 0.245914 0.16005671 -0.43110216 -0.05726763 -0.2005055 0.000934238
-0.364454 0.22367014 -0.15042834 -0.24483539 0.24377201 -0.31094897 0.2513637 0.22197606
-0.13610953 0.10566651 0.17728314 0.061852638 -0.4641049 -0.27490413 0.3854396 -0.3490118
-0.047904484 -0.12023919 0.25107908 0.015212224 0.030471401 0.21846658 0.05187178 -0.01861241
-0.12621662 0.21567632 -0.18169442 -0.09963725 0.07536751 0.20494297 0.32213983 -0.09096587
0.15525568 -0.19565442 0.1367319 -0.12113315
00000000: 7bc7 23be 893e 803e 4adf 783e 8576 34bd
00000010: 2596 4abe 43dc b03e 6578 173e 63c1 573e
00000020: b7b9 a43d 7aa0 773c 157b 233b 5557 5ebe
00000030: 1fa7 bb3e d016 013e 096d c53e e05c f2bd
00000040: 4833 bb3e 6146 9f3e e1d0 7b3e e8e5 233e
00000050: 6cb9 dcbe 7691 6abd 5051 4dbe a7e7 743a
00000060: b799 babe c909 653e e309 1abe 21b6 7abe
00000070: 5f9f 793e b434 9fbe beb2 803e b14d 633e
00000080: 4c60 0bbe af67 d83d b689 353e 3159 7d3d
00000090: 289f edbe 3cc0 8cbe 5758 c53e adb1 b2be
000000a0: 7e37 44bd f73f f6bd 708d 803e b13c 793c
000000b0: 299f f93c b4b5 5f3e 8177 543d 0e79 98bc
000000c0: ee3e 01be 41da 5c3e 1a0e 3abe 9d0e ccbd
000000d0: 485a 9a3d 92dc 513e 83ef a43e 504c babd
000000e0: 58fb 1e3e a259 48be 7203 0c3e a814 f8bd

gru1.weight_ih_l0 f4 [30, 20]
-0.27206346 -0.36302775 -0.25441405 0.6586977 -0.16879165 -0.2065957 0.11969746 0.49232233
0.15731987 -0.12716593 -0.14449887 0.1596539 0.32790035 0.21444516 0.6562298 -0.52192706
0.5472146 0.37526435 -0.05319221 0.13028334 -0.39776444 -0.11659441 0.13472678 0.2859069
-0.006748928 0.046299666 0.12370366 0.5262753 -0.032131802 0.18747164 -0.048252493 -0.0058377287
-0.26089773 0.12239541 0.2605091 0.21493778 0.3355406 0.46847787 -0.10207664 -0.047898278
0.21156776 0.045360155 -0.0040618638 0.16787788 0.23778188 -0.42978284 -0.2331721 0.39470452
0.04180878 0.22572945 0.07777697 -0.10082891 0.21598974 0.044432092 0.2606636 -0.34478304
0.077340625 0.32689136 -0.2248384 -0.13752942 -0.503595 0.082538165 -0.17663959 -0.16665001
-0.26018023 0.02123996 0.13271195 0.22733755 -0.021478267 -0.38171443 -0.3840019 0.31451994
0.10385638 -0.022754379 2.6985525e-05 -0.21200724 -0.29764256 0.061393354 -0.06746026 -0.01757256
0.61347264 -0.38640124 -0.16161418 -0.1759019 -0.49486777 -0.0023313374 -0.5464239 -0.03699007
0.024441792 -0.1568296 -0.08814408 0.13344519 -0.11462337 -0.29752326 0.41632664 -0.5827646
-0.21466015 0.08913193 -0.3641293 -0.28594658 -0.28613314 0.31136227 0.08127024 -0.0437568
0.26514757 0.6583256 0.17041484 -0.18554373 -0.10114961 0.4015677 0.028210701 -0.2393977
-0.27350384 0.13549551 -0.12758914 0.26088023 0.5448694 0.23785508 0.26486105 0.3921809
-0.1589979 -0.30257377 0.40537333 0.65101177 -0.5019824 0.109554976 -0.22160213 0.030538954
-0.16252308 -0.12297905 -0.23118532 0.16277783 -0.18567923 -0.18192649 0.3423413 -0.543743
-0.10485081 0.3608679 -0.01140168 -0.35702488 0.3022387 -0.14314638 0.029452486 0.29877892
0.22422718 0.033251196 -0.021318868 -0.048706375 -0.06226386 0.030399045 -0.27361813 -0.18223174
0.18570091 -0.090956636 -0.12776671 0.07758628 -0.0015609509 -0.12912026 -0.107667096 0.14047298
0.10507446 0.18022436 -0.17103416 0.23922288 -0.0072744433 0.036604133 0.15129307 -0.58305246
-0.09893285 -0.6798948 0.15204847 0.03288303 0.56324625 0.6675621 0.22701842 0.11973188
0.29758275 -0.2107461 -0.23196678 0.39959538 0.7663074 -0.3638865 -0.07158942 -0.18816501
0.4666497 0.14218672 -0.1367647 0.050698195 -0.010206225 0.4887764 0.16363339 -0.10719266
0.11139696 -0.023069903 -0.10476665 -0.2422786 -0.27777055 -0.14663066 -0.17104003 0.26722807
-0.5253642 -0.086916395 -0.26725054 -1.7056645 0.5713669 0.008241815 -0.33340442 0.43596658
0.3026454 0.15472364 -0.045385025 -0.0059393453 0.045882344 -0.06475417 -0.24988586 -0.050045617
0.3396881 0.26757777 0.016160801 0.59452605 0.33884758 -0.033108618 -0.11485667 -0.42299366
-0.07082953 0.17169689 -0.12919612 0.10110734 0.13783002 0.15899475 0.1198359 0.27172226
-0.005358262 -0.0802615 -0.3061311 0.21183065 -0.29524425 0.07700214 -0.11311763 -0.024764888
-0.38442034 0.15221065 -0.13285898 -0.05407668 -0.13554555 -0.20591159 0.24709152 -0.065745994
-0.21317491 -0.007302982 -0.119092904 -0.14419751 0.15640457 0.21571532 -0.24320953 -0.2127818
00000000: e74b 8bbe c6de b9be 8f42 82be 6aa0 283f
00000010: b8d7 2cbe d38d 53be f123 f53d ac11 fc3e
00000020: 7618 213e c937 02be 83f7 13be 507c 233e
00000030: 8ee2 a73e 8397 5b3e adfe 273f 039d 05bf
00000040: 4216 0c3f a622 c03e 13e0 59bd ff68 053e
00000050: c8a7 cbbe 0dc9 eebd d1f5 093e 6462 923e
00000060: 1d26 ddbb b8a4 3d3d 5858 fd3d fab9 063f
00000070: a39c 03bd 91f8 3f3e 68a4 45bd 6b4a bfbb
00000080: 6394 85be 72aa fa3d 7361 853e a618 5c3e
00000090: facb ab3e 55dc ef3e 8f0d d1bd fc30 44bd
000000a0: 38a5 583e 92cb 393d 6219 85bb 2ee8 2b3e
000000b0: 187d 733e 7f0c dcbe abc4 6ebe b616 ca3e
000000c0: af3f 2b3d 9f25 673e 8849 9f3d 637f cebd
000000d0: 6a2c 5d3e 6dfe 353d b375 853e 6787 b0be
000000e0: c364 9e3d 4e5e a73e 0a3c 66be 83d4 0cbe
000000f0: 9aeb 00bf c509 a93d 02e1 34be 4da6 2abe
00000100: 5836 85be 6dff ad3c a4e5 073e 2dcb 683e
00000110: 31f3 afbc 1370 c3be e69b c4be c208 a13e
00000120: a7b2 d43d 6467 babc f95e e237 6d18 59be
00000130: 9b64 98be 9977 7b3d 9b28 8abd 54f4 8fbc
00000140: 8b0c 1d3f 62d6 c5be 307e 25be a11f 34be
00000150: 4f5f fdbe 5ac9 18bb 70e2 0bbf e682 17bd
00000160: 273a c83c f097 20be e284 b4bd dba5 083e
00000170: a8bf eabd f854 98be c428 d53e 1030 15bf
00000180: dfcf 5bbe cd8a b63d 286f babe 9767 92be
00000190: 0b80 92be e06a 9f3e 0371 a63d 553a 33bd
000001a0: 6cc1 873e 0788 283f 3a81 2e3e 2dff 3dbe
000001b0: 8727 cfbd 489a cd3e 211a e73c ac24 75be
000001c0: b208 8cbe 56bf 0a3e baa6 02be 1892 853e
000001d0: 907c 0b3f 4890 733e de9b 873e efcb c83e
000001e0: 58d0 22be f3ea 9abe 188d cf3e b5a8 263f
000001f0: eb81 00bf 5c5e e03d abeb 62be d42c fa3c
00000200: 736c 26be 71dc fbbd d8bb 6cbe 3baf 263e
00000210: b222 3ebe f04a 3abe 5c47 af3e be32 0bbf
00000220: 05bc d6bd adc3 b83e 1dce 3abc f7cb b6be
00000230: 08bf 9a3e f794 12be 5746 f13c 8df9 983e
00000240: cf9b 653e 6832 083d e8a4 aebc 5680 47bd
00000250: 6408 7fbd 6b07 f93c ad17 8cbe f59a 3abe
00000260: 6128 3e3e 7947 babd 47d5 02be 8ee5 9e3d
00000270: d298 ccba 1a38 04be 9180 dcbd 26d8 0f3e
00000280: 4731 d73d bc8c 383e 9423 2fbe d8f6 743e
00000290: 745e eebb 37ee 153d 92ec 1a3e ed42 15bf
000002a0: 4e9d cabd 960d 2ebf 98b2 1b3e 5bb0 063d
000002b0: e830 103f 5ae5 2a3f 8477 683e fd35 f53d
000002c0: c45c 983e d3cd 57be b388 6dbe c497 cc3e
000002d0: b92c 443f 554f babe 799d 92bd 54ae 40be
000002e0: b6ec ee3e 6599 113e 0c0c 0cbe e9a8 4f3d
000002f0: 0338 27bc e640 fa3e 838f 273e d387 dbbd
00000300: 1724 e43d 18fd bcbc e68f d6bd e217 78be
00000310: f137 8ebe 5926 16be 1e25 2fbe 1ed2 883e
00000320: 457e 06bf 3901 b2bd 10d5 88be 3753 dabf
00000330: 1a45 123f ad08 073c fcb3 aabe 0337 df3e
00000340: 56f4 9a3e e06f 1e3e a6e5 39bd d79e c2bb
00000350: 20ef 3b3d d69d 84bd 14e2 7fbe a2fc 4cbd
00000360: 99eb ad3e f4ff 883e a863 843c dc32 183f
00000370: 6e7d ad3e e79c 07bd f939 ebbd a092 d8be
00000380: 130f 91bd 4fd1 2f3e fd4b 04be 5d11 cf3d
00000390: 5023 0d3e 85cf 223e 866c f53d 2e1f 8b3e
000003a0: 5c94 afbb 2460 a4bd 37bd 9cbe 22ea 583e
000003b0: 412a 97be 4cb3 9d3d 37aa e7bd bcdf cabc
000003c0: bed2 c4be 1cdd 1b3e 2f0c 08be 827f 5dbd
000003d0: 74cc 0abe 7dda 52be 8f05 7d3e d6a5 86bd
000003e0: 864a 5abe da4d efbb fbe6 f3bd 83a8 13be
000003f0: 8528 203e 7ae4 5c3e eb0b 79be 79e3 59be

gru1.weight_hh_l0 f4 [30, 10]
-0.20657368 0.1164036 0.38078195 0.3351534 -0.13185264 0.23015724 0.0072474275 -0.15987009
-0.20738053 -0.0027049996 0.05232154 -0.21701261 0.424233 0.26265734 -0.002799149 0.28950694
-0.098079234 -0.057450667 0.17823176 -0.068115704 0.0026528242 0.27929774 0.26346123 -0.086190745
-0.16416828 0.083173074 -0.14058901 0.21553473 -0.38224208 -0.07376955 -0.29341853 -0.083140604
0.31380722 0.17594431 0.044166755 -0.18549065 -0.4390225 -0.3080576 0.21180919 0.10770101
-0.0051238327 0.47139052 0.14961565 -0.13315359 -0.25060606 -0.46804288 -0.17889808 -0.3015147
-0.46038485 0.091470815 0.50498164 -0.38507482 -0.1640291 0.36515528 -0.12156473 0.250396
0.48857203 0.47458526 0.333895 0.1268976 0.09492051 -0.042772166 0.55225426 0.20228642
-0.096570216 -0.25420684 0.024707166 0.1292017 -0.19081166 0.22701351 -0.07481344 0.20284967
0.57233 -0.33049214 0.043606173 0.253922 0.25087038 -0.074233785 0.02296359 -0.06029173
-0.35833678 -0.022277782 -0.3127238 -0.128668 0.6565428 -0.0687509 -0.3350402 0.44579953
-0.3455497 0.13333476 0.13908675 -0.039887726 -0.24663712 -0.03671605 -0.46879148 0.07638747
0.09620811 0.1496938 0.08923283 0.30045208 -0.26914892 -0.112357326 0.13898103 0.076899014
0.11454214 0.13715734 -0.10378207 -0.1632765 0.10573392 0.041117463 0.08972525 -0.3265121
-0.27647647 -0.29368997 -0.049378876 -0.25498715 -0.10430382 0.16310203 0.04699852 -0.049332958
0.29376155 -0.1438056 -0.11896432 -0.18564877 -0.19177684 0.057781868 0.1578439 0.054192465
-0.23409502 -0.17985898 0.09496443 -0.2526868 0.0518051 -0.5019935 -0.15385827 0.037539124
-0.33090147 -0.33655873 -0.08820101 -0.17534252 0.15845455 -0.33447233 0.20471722 -0.14640221
-0.41046387 0.04142489 -0.0456779 0.3263426 -0.16275787 -0.27510855 -0.047829244 -0.25777897
-0.3494893 0.23204942 0.19946188 -0.31011337 0.1347325 0.15208548 -0.19450374 -0.01627311
-0.17109658 0.09930811 -0.18298686 -0.21979606 0.19852617 0.0503999 0.40155685 0.24213038
-0.0017619507 0.040716395 0.022936227 -0.1717949 -0.2373349 0.28201336 0.11969388 -0.02506588
0.075512625 -0.1960108 0.032358773 -0.12193399 -0.2421893 -0.08954822 -0.071335755 0.020026088
-0.25215822 -0.21668546 0.18962102 0.03126941 -0.17971215 -0.016607203 -0.17571695 -0.111722894
-0.07631521 -0.31625843 -0.12894803 0.17202336 0.06988071 0.2456881 -0.24091534 0.042540845
0.42375574 -0.00015413675 0.3147315 0.5586748 0.2844788 0.08147554 -0.048197854 -0.39756626
0.6565949 0.037540343 -0.081275724 0.22713666 0.16646564 -0.059916932 -0.7154542 -0.29826745
0.2900902 -0.23094787 -0.36647165 -0.115845256 0.2023296 -0.021804973 0.48563993 -0.1513085
0.12646037 0.035439726 -0.3489817 -0.5244762 0.12060056 -0.21115354 -0.1310228 -0.21676818
-0.46603948 0.21330997 0.36408135 -0.18754397 0.24973513 0.4022588 0.34718487 0.36457807
-0.04411155 0.19111553 0.18361598 -0.57298344 0.5303357 -0.1995843 -0.43119782 -0.30841032
-0.22043966 -0.22576383 -0.3717149 0.39880913 0.16974768 0.51847506 -0.02020756 0.13505761
00000000: 0d88 53be 0365 ee3d daf5 c23e 3a99 ab3e
00000010: 6104 07be 57ae 6b3e d47b ed3b fcb4 23be
00000020: 905b 54be 5d46 31bb 1c4f 563d 8e38 5ebe
00000030: 1135 d93e 067b 863e ed71 37bb 413a 943e
00000040: c4dd c8bd 6451 6bbd 6382 363e 3f80 8bbd
00000050: 01db 2d3b 1d00 8f3e 64e4 863e c684 b0bd
00000060: bb1b 28be a556 aa3d 91f6 0fbe 23b5 5c3e
00000070: 3cb5 c3be 7d14 97bd f43a 96be 9f45 aabd
00000080: 57ab a03e bf2a 343e 33e8 343d 43f1 3dbe
00000090: 8fc7 e0be bab9 9dbe 82e4 583e 5992 dc3d
000000a0: d3e5 a7bb 195a f13e d834 193e 6a59 08be
000000b0: 704f 80be 51a3 efbe 0f31 37be 2260 9abe
000000c0: 90b7 ebbe 0d55 bb3d 7a46 013f 8728 c5be
000000d0: 3ff7 27be a2f5 ba3e eef6 f8bd e833 803e
000000e0: 1d26 fa3e d7fc f23e 49f4 aa3e 72f1 013e
000000f0: af65 c23d de31 2fbd 8960 0d3f 2c24 4f3e
00000100: 9bc6 c5bd 6627 82be af66 ca3c 734d 043e
00000110: 2264 43be 3b76 683e ca37 99bd d3b7 4f3e
00000120: 3884 123f 4436 a9be 639c 323d 1002 823e
00000130: 1572 803e e207 98bd 241e bc3c 76f4 76bd
00000140: eb77 b7be e57f b6bc 551d a0be 8bc1 03be
00000150: 3013 283f 46cd 8cbd 648a abbe d63f e43e
00000160: e4eb b0be e888 083e c26c 0e3e 5061 23bd
00000170: 718e 7cbe 9263 16bd 7005 f0be 0971 9c3d
00000180: c208 c53d 5549 193e b4bf b63d dbd4 993e
00000190: e3cd 89be 991b e6bd 0b51 0e3e 3b7d 9d3d
000001a0: 1295 ea3d f972 0c3e b28b d4bd f431 27be
000001b0: 078b d83d c96a 283d dfc1 b73d 982c a7be
000001c0: 538e 8dbe 885e 96be 8141 4abd ad8d 82be
000001d0: 3e9d d5bd 3804 273e 8581 403d 5b11 4abd
000001e0: ea67 963e c641 13be 91a3 f3bd b61a 3ebe
000001f0: 2661 44be aeac 6c3d d5a1 213e ebf8 5d3d
00000200: 9bb6 6fbe f42c 38be b67c c23d 2a60 81be
00000210: 9631 543d a582 00bf 068d 1dbe a0c2 193d
00000220: eb6b a9be 6d51 acbe bba2 b4bd fd8c 33be
00000230: e941 223e f53f abbe 64a1 513e 76ea 15be
00000240: 5228 d2be 25ad 293d c018 3bbd 6116 a73e
00000250: 00aa 26be 07db 8cbe 99e8 43bd 9bfb 83be
00000260: 43f0 b2be 5d9e 6d3e bc3f 4c3e 2ec7 9ebe
00000270: 51f7 093e 4cbc 1b3e fd2b 47be 2f4f 85bc
00000280: f133 2fbe 0d62 cb3d e860 3bbe 3812 61be
00000290: 724a 4b3e 2070 4e3d dc98 cd3e 07f1 773e
000002a0: 41f1 e6ba 3cc6 263d c1e4 bb3c 01eb 2fbe
000002b0: ec07 73be 0e64 903e 1122 f53d f656 cdbc
000002c0: 5da6 9a3d 0eb7 48be a28a 043d 87b8 f9bd
000002d0: 7900 78be 0f65 b7bd 7b18 92bd c00d a43c
000002e0: e21a 81be cbe2 5dbe 032c 423e 5a14 003d
000002f0: 7606 38be d40b 88bc 25ef 33be f9ce e4bd
00000300: 264b 9cbd a0ec a1be f40a 04be e426 303e
00000310: 9e1d 8f3d a995 7b3e 83b2 76be 4f3f 2e3d
00000320: 83f6 d83e c59f 21b9 7d24 a13e 5005 0f3f
00000330: 35a7 913e a6dc a63d 1d6b 45bd ce8d cbbe
00000340: 9a16 283f e7c3 193d e373 a6bd 8396 683e
00000350: f875 2a3e 756b 75bd 0228 37bf 83b6 98be
00000360: b486 943e 997d 6cbe 2ca2 bbbe 4740 edbd
00000370: 7e2f 4f3e 58a0 b2bc cca5 f83e 9ef0 1abe
00000380: d47e 013e 3f29 113d bbad b2be 1244 06bf
00000390: 6dfd f63d a238 58be d72a 06be 7af8 5dbe
000003a0: ba9c eebe ee6d 5a3e df68 ba3e 870b 40be
000003b0: 91ba 7f3e def4 cd3e 37c2 b13e faa9 ba3e
000003c0: 50ae 34bd cab3 433e d405 3c3e 0baf 12bf
000003d0: 15c4 073f d45f 4cbe f6c5 dcbe f5e7 9dbe
000003e0: efba 61be a22e 67be 6a51 bebe b630 cc3e
000003f0: 56d2 2d3e c8ba 043f 538a a5bc 8b4c 0a3e

gru1.bias_ih_l0 f4 [30]
0.17569862 0.26998892 0.0969429 -0.20286076 0.25588873 0.3334618 0.15016307 0.3165155
0.31781214 -0.34416807 0.041913714 -0.03100567 -0.3210837 -0.42703742 0.014348489 -0.52348745
-0.32588774 -0.030595897 -0.19393177 -0.22291042 -0.09423316 -0.14023931 0.1730876 0.13956736
0.23978388 -0.052587226 0.20135015 -0.19704781 -0.059406865 -0.16976543
00000000: 57ea 333e fd3b 8a3e 008a c63d bbba 4fbe
00000010: d903 833e 81bb aa3e 59c4 193e 520e a23e
00000020: 46b8 a23e cc36 b0be b7ad 2b3d 9aff fdbc
00000030: 1565 a4be a6a4 dabe ed15 6b3c 4603 06bf
00000040: c2da a6be 3fa4 fabc 0d96 46be a142 64be
00000050: 51fd c0bd e59a 0fbe e03d 313e bfea 0e3e
00000060: e889 753e b465 57bd bc2e 4e3e e7c6 49be
00000070: 9d54 73bd fdd6 2dbe

gru1.bias_hh_l0 f4 [30]
0.33932823 0.32031634 -0.042492952 -0.05322009 0.21810967 0.042987406 0.39449918 0.021243852
0.24370363 -0.3372414 -0.20850523 -0.022310643 -0.15649363 -0.19975092 -0.3891117 -0.17241843
0.1273067 -0.37422737 -0.31945476 -0.16166191 -0.24034485 0.282335 0.07870013 -0.35311317
-0.1294387 0.11101936 -0.123027526 -0.08306991 -0.29349536 0.2153781
00000000: 6ebc ad3e 8100 a43e 170d 2ebd 4ffd 59bd
00000010: 2458 5f3e 9013 303d ccfb c93e 9607 ae3c
00000020: 728d 793e e8aa acbe 6582 55be cfc4 b6bc
00000030: de3f 20be 818b 4cbe a639 c7be 758e 30be
00000040: b05c 023e bb9a bfbe 938f a3be b38a 25be
00000050: f61c 76be 378e 903e 892d a13d 40cb b4be
00000060: 948b 04be 1e5e e33d dbf5 fbbd 8f20 aabd
00000070: 0645 96be 148c 5c3e

lin0.weight f4 [7, 10]
-0.8679293 0.67260706 0.62451047 -0.43646201 -0.84927183 -0.7876739 0.73681724 -0.5394354
0.35239145 -0.6213121 0.68472373 -0.8620996 -0.7714204 0.49047983 0.6206923 -0.796356
0.15500818 -0.3498747 0.52552426 -0.7338883 0.65769494 -0.7203473 0.5925903 0.7410841
0.57381946 0.55839247 -0.9191203 0.86035585 0.5047322 0.6956825 -0.83416945 0.55737096
0.7066214 -0.84599483 0.6599536 -0.7992992 -1.0150598 -0.6027869 -1.1710838 -0.57685816
0.6787503 -0.46605116 -0.79838616 -1.092947 0.60260504 -0.88296527 0.8029433 0.9906341
-0.8646984 0.80111027 0.5685674 0.6788454 0.6554124 0.8916809 -0.8387465 0.54904693
0.69949824 -0.5887779 0.38616326 -0.59512293 -0.8993262 0.8145743 -0.7913331 0.8027387
-0.8780867 0.5716323 0.68242645 0.8651426 -0.96113396 0.8404134
00000000: 9d30 5ebf fa2f 2c3f ebdf 1f3f f377 dfbe
00000010: e169 59bf ffa4 49bf 0ea0 3c3f 7018 0abf
00000020: a76c b43e 4f0e 1fbf 0e4a 2f3f 8fb2 5cbf
00000030: cf7b 45bf 2c20 fb3e b1e5 1e3f fddd 4bbf
00000040: 77ba 1e3e c722 b3be c288 063f 1be0 3bbf
00000050: b25e 283f ae68 38bf ffb3 173f b0b7 3d3f
00000060: d5e5 123f cff2 0e3f 784b 6bbf 4840 5c3f
00000070: 2136 013f 4018 323f 218c 55bf ddaf 0e3f
00000080: 24e5 343f 1e93 58bf b8f2 283f df9e 4cbf
00000090: 7bed 81bf 3e50 1abf 13e6 95bf faac 13bf
000000a0: 94c2 2d3f 429e eebe 0963 4cbf b0e5 8bbf
000000b0: 5344 1a3f 030a 62bf b18d 4d3f 329a 7d3f
000000c0: e05c 5dbf 9015 4d3f a28d 113f d0c8 2d3f
000000d0: 1bc9 273f 3345 643f 17b8 56bf 578e 0c3f
000000e0: 5112 333f 26ba 16bf 31b7 c53e fa59 18bf
000000f0: 3e3a 66bf f187 503f ce94 4abf 4980 4d3f
00000100: 4aca 60bf 7f56 123f 80b3 2e3f fc79 5d3f
00000110: e00c 76bf 5525 573f

lin0.bias f4 [7]
0.2625236 0.38534808 0.17908596 -0.04333515 0.10431232 0.04771956 -0.04488137
00000000: 7e69 863e 584c c53e 4f62 373e 3380 31bd
00000010: b3a1 d53d 9675 433d 87d5 37bd
