saved/pretrain_base_hhar_20_120/hhar.pt (torch, 260183 bytes, 29 tensors)

transformer.embed.lin.weight f4 [72, 6]
0	0xbdf9c5cd	-0.12195931
1	0x3f14755b	0.5799157
2	0xbeb967c9	-0.36211994
3	0xbe63e894	-0.2225669
4	0xbe22f785	-0.15914734
5	0xbe3d6e7b	-0.18499176
6	0xbedc14a0	-0.42984486
7	0xbf770440	-0.9649086
8	0xbeea7abf	-0.45796773
9	0xbe896b22	-0.26839548
10	0x3e0b93ec	0.13630646
11	0x3e7fbc4a	0.2497417
12	0xbe90e04c	-0.28296125
13	0x3fa2dae8	1.2723055
14	0xbce4c83e	-0.027927514
15	0x3dde5b22	0.10857226
16	0xbe79559b	-0.24349062
17	0x3e823fdd	0.2543935
18	0xbf16f8c9	-0.58973366
19	0x3f4f4ba0	0.8097477
20	0x3ffd2f42	1.9780047
21	0xbd8ffb80	-0.07030392
22	0xbe76526f	-0.24054883
23	0x3e310c13	0.17289762
24	0xbf23e168	-0.6401582
25	0xbefa6b57	-0.4891002
26	0x3f983d3b	1.1893686
27	0x3ef4e9c3	0.47834596
28	0x3cc61454	0.024179615
29	0x3e0cc48d	0.13746853
30	0xbf04da5f	-0.5189571
31	0x3e5cd4c4	0.21565539
32	0x3c8b296c	0.016987525
33	0x3df6ce89	0.12051112
34	0xbe5b8a47	-0.21439467
35	0xbd866efe	-0.06564139
36	0xbeaafeb4	-0.33397448
37	0x3f4599cd	0.77187806
38	0xbed2aac2	-0.41145903
39	0x3e8bcc84	0.2730447
40	0x3e0776ff	0.13228987
41	0x3cbb2795	0.022846023
42	0x3f039e96	0.5141386
43	0x3e00ed6f	0.12590574
44	0xbe881bc3	-0.2658368
45	0xbc9244c2	-0.017855052
46	0xbc152293	-0.009102481
47	0xbe113fc5	-0.14184482
48	0xbe9751fc	-0.29554737
49	0x3ed76cf3	0.4207531
50	0x3cf478a4	0.029842682
51	0x3eb06de0	0.34458828
52	0x3e4f5108	0.20245755
53	0xbe64eab5	-0.22355159
54	0x3f4df066	0.80444944
55	0xbeb1bcd8	-0.3471439
56	0x3e062d6c	0.13103265
57	0x3d9fc1d5	0.078006424
58	0xbe5dd208	-0.21662152
59	0x3e7c9a69	0.24668278
60	0x3f8f5d61	1.1200372
61	0x3ea43de8	0.3207848
62	0xbeac3747	-0.33635923
63	0x3df602a9	0.12012226
64	0x3e02504e	0.12725946
65	0x3bb8a5f0	0.0056350157
66	0xbf70c7d8	-0.9405494
67	0xbf90c86f	-1.1311167
68	0xbf82612d	-1.0185906
69	0x3e48533a	0.19562998
70	0xbd070b6e	-0.032969885
71	0x3d5e6dbe	0.054303877
72	0x3f78d827	0.9720482
73	0xbde7b587	-0.113139205
74	0xbec92f32	-0.3929382
75	0x3f05992c	0.52186847
76	0xbd880119	-0.06640834
77	0x3d6dec03	0.058086406
78	0x3d453b0d	0.04815202
79	0x3f956766	1.167218
80	0x3e14b081	0.14520456
81	0xbe33484b	-0.17508046
82	0x3d82b40c	0.063819975
83	0xbe11cb92	-0.14237812
84	0x3f4767ae	0.7789258
85	0x3f413b16	0.75480783
86	0xbe2c0950	-0.16800427
87	0x3eaa4744	0.33257496
88	0x3d1f7168	0.038926512
89	0xbe0df275	-0.13862021
90	0xbe1b9722	-0.15194371
91	0xbfa08e73	-1.2543472
92	0x3ea6c759	0.32573965
93	0xbe8986cb	-0.2686065
94	0x3da4f4d7	0.08054512
95	0x3d97406a	0.07385333
96	0x3e370d3d	0.17876144
97	0xbd887299	-0.06662483
98	0xbe93b01f	-0.28845307
99	0xbe1cd53a	-0.15315714
100	0xbd9bc5a6	-0.07606058
101	0xbda6998f	-0.08134758
102	0x3e6d3a12	0.23166683
103	0xbe124b18	-0.14286458
104	0xbf04579b	-0.51696175
105	0x3ea6d92c	0.32587564
106	0xbde06ca0	-0.109582186
107	0xbd24bc64	-0.040218726
108	0xbe91c524	-0.2847072
109	0x3ebc1219	0.36732557
110	0xbcfbdf24	-0.03074605
111	0xbf1a6ee7	-0.60325474
112	0x3e917dfe	0.28416437
113	0xbea986c2	-0.33110625
114	0xbf64968b	-0.8929221
115	0xbec4d2b5	-0.38442007
116	0x3f5c70bc	0.8610952
117	0xbe5fc564	-0.21852642
118	0xbe829a68	-0.25508428
119	0xbde67a06	-0.11253743
120	0x3f03f0d7	0.5153937
121	0x3dcfefa8	0.10153133
122	0xbf94f2ca	-1.1636593
123	0xbb8371f2	-0.004011386
124	0x3da5f846	0.08103995
125	0xbde51a22	-0.11186625
126	0x3f33c41b	0.7022111
127	0xbf0f4c71	-0.55976015
128	0x3dbba111	0.0916158
129	0x3e04436b	0.12916343
130	0xbc139b7a	-0.0090092365
131	0xbeca8ca7	-0.39560434
132	0x3e2bbc52	0.16771057
133	0xbf2d0fb6	-0.676021
134	0xbc96c1b4	-0.018402912
135	0xbe1ecd82	-0.15508083
136	0xbc98781e	-0.018611964
137	0xbe12a797	-0.14321743
138	0x3e590ef8	0.21197116
139	0x3f0b13ab	0.54326886
140	0xbecbb827	-0.39788935
141	0xbe44d9df	-0.19223736
142	0x3e604c35	0.2190407
143	0x3e5b6268	0.21424258
144	0x3f08c8ac	0.534312
145	0x3f777f82	0.96678936
146	0xbf177731	-0.59166247
147	0x3d931f5a	0.07183714
148	0x3a843b0c	0.0010088398
149	0xbd50202d	-0.050811935
150	0xbeabf10b	-0.3358234
151	0x3f0f61bf	0.56008524
152	0x3f0d029a	0.55082095
153	0xbdf9762d	-0.12180743
154	0xbdf54a3b	-0.11977049
155	0x3dfa97f7	0.12236016
156	0xbe98b69b	-0.29826817
157	0x3f3085b0	0.6895399
158	0x3f157b67	0.5839142
159	0x3c3762d2	0.011192994
160	0xbd91eae1	-0.07124878
161	0x3e521d97	0.205191
162	0x3eadb799	0.33929136
163	0xbf77961b	-0.9671342
164	0x3e9cf827	0.30658075
165	0xbf05f579	-0.52327687
166	0xbe6aab87	-0.22916995
167	0xbe310d21	-0.17290165
168	0x3c578c51	0.013156013
169	0x3ebebe8f	0.3725476
170	0x3e4e1881	0.20126535
171	0xbca39c3b	-0.019971957
172	0xbe07c69a	-0.13259354
173	0xbe0ae0cb	-0.13562314
174	0xbf33ab0b	-0.70182866
175	0xbe3bf16f	-0.18353818
176	0x3e83fc04	0.2577821
177	0xbbab3640	-0.005224973
178	0xbd2b8a57	-0.041879978
179	0x3e495328	0.19660628
180	0x3e47f767	0.1952797
181	0x3eb7ba2e	0.3588423
182	0x3e707fd9	0.2348627
183	0xbe77e4e3	-0.24208407
184	0x3e137fed	0.14404269
185	0x3e611077	0.21978937
186	0xbf61dd1d	-0.8822802
187	0xbe97f801	-0.296814
188	0x3fb6752e	1.425451
189	0x3e19206a	0.14953771
190	0xbef43b34	-0.47701418
191	0x3e40b28d	0.18818112
192	0xbea85444	-0.3287679
193	0xbf8ab4e9	-1.0836459
194	0x3e4caec0	0.19988537
195	0xbe888a82	-0.26668173
196	0x3dc705bd	0.09717891
197	0xbdb82689	-0.08991725
198	0x3f82f740	1.0231705
199	0x3f67d5b6	0.9056047
200	0xbee3e0b1	-0.44507363
201	0x3f011f0f	0.50438017
202	0x3e0b6e8a	0.13616386
203	0xbd692fa0	-0.056930184
204	0x3f105355	0.56377155
205	0x3e57679a	0.21035615
206	0x3f31ec42	0.69501126
207	0xbe6f1ffe	-0.23352048
208	0xbdb5a0c3	-0.088685535
209	0x3dd61087	0.10452371
210	0x3eb236f3	0.34807548
211	0xbe976a22	-0.2957316
212	0x3f38cca3	0.7218725
213	0xbe1a4292	-0.15064457
214	0xbef80bc6	-0.48446482
215	0xbe64a9ca	-0.22330394
216	0x3d5acf90	0.053420603
217	0xbdcebedf	-0.100949995
218	0xbf329c91	-0.6977015
219	0x3ebfab76	0.37435502
220	0x3e0ee08e	0.13952848
221	0x3e323da6	0.1740633
222	0x3e45bfbd	0.19311424
223	0xbcdf3b47	-0.027249945
224	0xba76da4a	-0.0009416683
225	0x3dc45e8b	0.09588345
226	0x3d6d2caa	0.057903923
227	0x3df5afa7	0.11996394
228	0x3e1704f5	0.14747985
229	0x3f867bf5	1.0506579
230	0x3f2598cd	0.6468628
231	0xbec790e5	-0.38977733
232	0x3d022d9f	0.03178179
233	0x3e4319e7	0.1905285
234	0xbf0a0a8c	-0.53922343
235	0xbf35cf6d	-0.7101963
236	0xbe1f0b00	-0.1553154
237	0x3ec477d9	0.38372687
238	0xbd5477d8	-0.051872104
239	0x3e50e5f9	0.20400228
240	0x3e964d3c	0.293558
241	0x3e86ba12	0.26313835
242	0xbee00228	-0.43751645
243	0xbee088cf	-0.43854377
244	0x3df99ad3	0.121877335
245	0xbe2cf5a4	-0.1689058
246	0xbe8d34d4	-0.27579367
247	0x3f9d8658	1.2306623
248	0x3e8ea73d	0.27861968
249	0x3c959a53	0.018262064
250	0xbe2c1db3	-0.16808204
251	0xbdc66cd8	-0.09688729
252	0xbf10a4d8	-0.5650153
253	0xbee640b4	-0.4497124
254	0x3ed2d04b	0.4117454
255	0x3eb7c750	0.3589425

transformer.embed.lin.bias f4 [72]
0	0xbe9d9767	-0.30779573
1	0x3ebf55a5	0.3737003
2	0x3e42899a	0.18997803
3	0xbf20dd34	-0.6283753
4	0xbf25e129	-0.6479669
5	0xbd4045dc	-0.046941623
6	0xbea27cf5	-0.3173596
7	0xbe92aab8	-0.28645873
8	0x3de686b0	0.11256158
9	0xbeb34758	-0.35015368
10	0x3ec06671	0.37578157
11	0x3efa2035	0.48852697
12	0x3ef7756d	0.48331776
13	0x3ed5e240	0.41774178
14	0x3eab64e5	0.33475414
15	0x3e56991a	0.20956841
16	0x3e3b2590	0.18276048
17	0xbec00a09	-0.37507656
18	0xbc4e5690	-0.01259388
19	0xbe53b19a	-0.20673218
20	0x3f428715	0.7598737
21	0x3dbcda1e	0.0922129
22	0x3e2889bd	0.16458793
23	0x3ec15b13	0.37764797
24	0xbee3d05d	-0.44494906
25	0xbeba5c13	-0.36398372
26	0x3df9b229	0.121921845
27	0xbd0ffd5c	-0.03515373
28	0xbdb5dde1	-0.08880211
29	0x3d9dc8a8	0.07704288
30	0x3d725d53	0.059171032
31	0xbf5951d6	-0.84890497
32	0xbe96fec5	-0.2949125
33	0x3f43abe6	0.7643417
34	0xbea570bd	-0.32312575
35	0xbdda3869	-0.10655291
36	0x3f01f23d	0.5076025
37	0xbe97b0b7	-0.2962701
38	0xbe8b3ade	-0.2719335
39	0xbe74fa17	-0.23923527
40	0x3e9f26b5	0.3108422
41	0x3e667c7b	0.22508423
42	0xbd25c8f9	-0.040474866
43	0x3d86bc5b	0.06578895
44	0xbe5865bc	-0.21132559
45	0x3e4cc613	0.19997434
46	0x3da1a1ff	0.078922264
47	0xbee1a10a	-0.44068176
48	0x3ee328e0	0.44367123
49	0xbb6c8ad5	-0.0036093493
50	0xbed96442	-0.42459303
51	0x3e6f86ea	0.2339131
52	0xbee3c22d	-0.44484082
53	0x3f14fd61	0.58199126
54	0x3f15d40d	0.5852669
55	0xbe21fdf0	-0.15819526
56	0x3ccd42b6	0.025056224
57	0xbd6e42e6	-0.058169268
58	0x3ecdce66	0.40196532
59	0x3f4da5c7	0.8033108
60	0x3dd1387b	0.10215851
61	0xbe46eaba	-0.19425479
62	0xbd304fe7	-0.04304495
63	0xbe000db0	-0.12505221
64	0x3f3da05b	0.7407281
65	0xbf0dfc71	-0.5546332
66	0x3e9e0071	0.30859712
67	0x3f66bc1d	0.9013079
68	0x3df938cb	0.121690355
69	0xbead396a	-0.33832866
70	0x3e4f2529	0.20229019
71	0xbe9dce21	-0.30821326

transformer.embed.pos_embed.weight f4 [120, 72]
0	0x3e9860bc	0.29761302
1	0xbf900b61	-1.1253473
2	0xbec22f2a	-0.37926608
3	0x3ea5ff5f	0.32421395
4	0x3edee50c	0.43534124
5	0x3f07437b	0.5283734
6	0x3f522635	0.8208955
7	0x3fcbb799	1.5915405
8	0xbfdc67b2	-1.7219145
9	0xbf8abad3	-1.0838264
10	0xbfbe5045	-1.4868246
11	0x402f6e2d	2.7410996
12	0x3f77dcc6	0.9682125
13	0x3f3c5827	0.7357201
14	0x3e05c021	0.13061573
15	0xc0211253	-2.5167434
16	0xbf6668ac	-0.90003467
17	0xbf7ea2b9	-0.99467045
18	0x3ea3bb35	0.31978765
19	0x3fd2516d	1.6431099
20	0x3ff6a0d3	1.926783
21	0xbfa6f66a	-1.304395
22	0xc019c0e4	-2.402398
23	0x3f22b0da	0.63551104
24	0xbe38b449	-0.18037523
25	0x3fe98196	1.8242671
26	0xbf4c62b2	-0.798381
27	0x3e64c2a4	0.22339875
28	0xbff28cf2	-1.8949263
29	0xbea66f23	-0.32506666
30	0x3f930db9	1.1488563
31	0x3dc1d0af	0.09463631
32	0x3fa3abc4	1.2786794
33	0x3ff784c0	1.9337387
34	0x3f732595	0.9497922
35	0x3f1ce67d	0.612892
36	0xbf8ab00d	-1.0834976
37	0x40029c73	2.040799
38	0xbdbc2068	-0.091858685
39	0xbf09da45	-0.5384868
40	0xbe844ee1	-0.2584143
41	0x3fd358e1	1.6511499
42	0x3d6f2279	0.058382485
43	0xbeb13323	-0.34609327
44	0xbf18a9a7	-0.5963387
45	0x3fa6ad47	1.302163
46	0xbf96780f	-1.1755389
47	0x3f431cda	0.762159
48	0x3f4e392c	0.8055599
49	0x3f15e4ba	0.58552134
50	0x3f2609a8	0.64858484
51	0x3f37b6cb	0.71763295
52	0xbf45b1dd	-0.7722452
53	0xbfd254fa	-1.6432183
54	0x3d92c933	0.07167282
55	0xbf8cb86a	-1.0993779
56	0x3f3c1849	0.73474556
57	0xbefd0e74	-0.4942509
58	0x3f781ae4	0.9691603
59	0xbf111fa7	-0.5668892
60	0xbff2c94c	-1.8967681
61	0xbf1530f1	-0.58277804
62	0x3e97aba4	0.2962314
63	0x3f5b1044	0.85571694
64	0xbf07d1c0	-0.5305443
65	0x3ec42a97	0.38313743
66	0x3f9184ac	1.1368613
67	0x3ec54dba	0.38535863
68	0x3eb5fec3	0.3554593
69	0x3f4a5528	0.7903619
70	0xbf83df43	-1.0302509
71	0x3f609aea	0.8773638
72	0xbe975146	-0.29554194
73	0x3e131792	0.1436446
74	0xbeb32b55	-0.34993997
75	0x3e954f0d	0.29161873
76	0xbf5034a4	-0.81330323
77	0x3fb781fb	1.4336542
78	0x3f51ecc3	0.82001895
79	0x4045d2fc	3.0910025
80	0xbdb984ae	-0.0905851
81	0xbff243ac	-1.8926902
82	0xbf0d3860	-0.55164146
83	0xbd5a2154	-0.05325444
84	0x3fba56fd	1.4557797
85	0xbf061abe	-0.52384555
86	0x3fcb67ce	1.5891054
87	0xbf8a0941	-1.0784074
88	0xbf5f11e8	-0.871367
89	0x3ee220b1	0.44165567
90	0x3f9d9ae1	1.231289
91	0x3f622551	0.8833819
92	0x3f23dd9f	0.6401004
93	0xbf25072e	-0.6446408
94	0x3eb0a841	0.34503368
95	0x3eed1758	0.46306872
96	0x3f2bd72c	0.671252
97	0x3f07db35	0.5306886
98	0x3e7a65c9	0.2445289
99	0x3f1afc4b	0.6054122
100	0xbe9d6a4b	-0.30745158
101	0xbfbd97ed	-1.4811989
102	0x3f267990	0.6502924
103	0x3f76e67e	0.96445453
104	0x3fc58b6b	1.5433172
105	0x3fba7698	1.4567442
106	0x3ed6b196	0.41932362
107	0x3f2662c4	0.64994454
108	0xbfb474d5	-1.4098154
109	0xbf790b1c	-0.97282577
110	0x3ea33839	0.31878832
111	0xbe7c628d	-0.24646969
112	0x3f194af9	0.59880024
113	0x3e783574	0.24239141
114	0xbde1813d	-0.11010978
115	0xbf537082	-0.8259355
116	0xbf8da18a	-1.1064923
117	0x3fe80f09	1.8129588
118	0x3eb8ed33	0.3611847
119	0x3fb9bca4	1.4510694
120	0x3f493b42	0.78606045
121	0x402680fd	2.6016228
122	0x3f27cd3c	0.6554754
123	0x3e0748e8	0.13211405
124	0xbe92101d	-0.28527918
125	0x3f83efa2	1.0307505
126	0xbfc6bf8a	-1.5527203
127	0x3eec9c4a	0.4621299
128	0x3fb1ef77	1.3901204
129	0x3f8534fc	1.0406795
130	0x3fd320ae	1.6494348
131	0xbf5c01fa	-0.85940516
132	0xbfe476ef	-1.7848796
133	0x3f96838f	1.1758898
134	0xbf86c1fd	-1.052795
135	0xbf8dbbc7	-1.107293
136	0x3dfe0d96	0.12404935
137	0x3d31de26	0.043424748
138	0x3eeda704	0.46416485
139	0x3f3667f0	0.71252346
140	0x3f3e11d6	0.74245965
141	0xc0173e93	-2.3631942
142	0xbf443c83	-0.76654834
143	0x3f16dce2	0.5893079
144	0x3ea972ea	0.33095485
145	0xbf85519e	-1.0415533
146	0xbfd8ebfd	-1.6947018
147	0x3f8c2e49	1.0951625
148	0x3f29d25a	0.66336596
149	0x3e9967cd	0.29962006
150	0x3fbe265c	1.4855456
151	0x3fbb459c	1.4630618
152	0xbfcc7c27	-1.5975388
153	0xbfd8dabc	-1.6941752
154	0x3ec25757	0.3795726
155	0x40189e92	2.3846784
156	0xbf4842ef	-0.7822713
157	0x3ec0f74b	0.3768867
158	0x3ddaa189	0.10675342
159	0xbdd05ef5	-0.101743616
160	0xbd6d311b	-0.05790816
161	0x3f0d6bed	0.55242807
162	0xbfdc5458	-1.721324
163	0x3f89f6a7	1.0778397
164	0xbe62cf3a	-0.22149363
165	0x3dfd3b0f	0.1236478
166	0xbf6ca1ff	-0.92434686
167	0x3ffac3af	1.9590968
168	0xbf1baa88	-0.60807085
169	0x3efa6b35	0.48909917
170	0x3dcec97f	0.10097026
171	0xbf8e756a	-1.1129582
172	0xbf8f90d6	-1.1216075
173	0xbf269516	-0.6507124
174	0x3fb7438a	1.4317486
175	0xbf849bb3	-1.0360016
176	0xbeaf2a88	-0.34212136
177	0x3ef28995	0.47370592
178	0x3f2bea08	0.6715398
179	0x3f28e0c2	0.65967953
180	0x3f36fc68	0.7147889
181	0xbdfc1636	-0.12308924
182	0x3f29e8e6	0.66371
183	0x3f3ec7e4	0.7452376
184	0x3ee5f495	0.44913164
185	0x3feac028	1.8339891
186	0xbfb75d38	-1.4325323
187	0x3c5879ec	0.013212662
188	0x3eb3f98a	0.3515132
189	0x3eb24b0d	0.34822884
190	0x3e230101	0.15918352
191	0x4016b46d	2.3547623
192	0xbfbfebf0	-1.4993877
193	0x3fa95401	1.3228761
194	0x3c867405	0.016412744
195	0xbe9c7bc6	-0.30563182
196	0x3eba3109	0.36365536
197	0xbfda9153	-1.70756
198	0xbf10318c	-0.563256
199	0x3e71e449	0.2362224
200	0x3ffe7898	1.9880552
201	0xbfbf2e3d	-1.4935986
202	0x3f573409	0.84063774
203	0xbf4b1aee	-0.79337966
204	0x3e27ca4d	0.16385765
205	0xbef3345e	-0.4750089
206	0x3e9b6739	0.3035219
207	0xbfc841c5	-1.5645071
208	0xbf72792f	-0.9471616
209	0xbf5a4df8	-0.8527522
210	0x3f5bfce6	0.8593277
211	0x3fa3501f	1.2758826
212	0x3f5b6926	0.8570732
213	0xbedd55d2	-0.43229538
214	0xbf97f740	-1.187233
215	0x3f013d61	0.5048428
216	0xbf6d1113	-0.9260418
217	0x3d8a5785	0.06754974
218	0xbef0baa0	-0.47017384
219	0x3dc814cf	0.09769594
220	0x3f1803c2	0.59380734
221	0xbf9f2f51	-1.2436315
222	0x3fb48ba2	1.4105113
223	0x3f4b7f17	0.794908
224	0xc00935f9	-2.1439192
225	0xbf609cde	-0.8773936
226	0xbf3492c6	-0.7053646
227	0xbefffcfb	-0.49997696
228	0xbdb6abc2	-0.08919479
229	0x3e65358f	0.22383712
230	0x3f8d5ef6	1.1044605
231	0xbf421e27	-0.7582726
232	0xbde5f40c	-0.11228189
233	0x3e9298a7	0.2863209
234	0x3f8b4f7f	1.0883635
235	0x3f506fcb	0.8142058
236	0x3f82d0aa	1.0219929
237	0xbfe2a1fa	-1.7705681
238	0xbfbfa5f9	-1.4972526
239	0x400dbcec	2.2146559
240	0xbe3e14a4	-0.18562561
241	0xbf853e2e	-1.0409601
242	0x3d8a5044	0.06753591
243	0x3e1ea036	0.15490803
244	0xbfd0cc69	-1.6312381
245	0xbf95381b	-1.1657747
246	0xbf9105bf	-1.1329879
247	0x3fdfbb4a	1.7479031
248	0x3fad805b	1.3554796
249	0x3f69b85d	0.9129694
250	0xbe871091	-0.26379827
251	0x3ed1d56b	0.40983137
252	0xc0087b61	-2.1325305
253	0x3f01c92c	0.5069759
254	0x3e320f98	0.17388761
255	0xbd79c566	-0.06097927

transformer.embed.norm.gamma f4 [72]
0	0x3f48237b	0.7817914
1	0x3f01b0fe	0.50660694
2	0x3f2f7f43	0.6855356
3	0x3f3036f0	0.6883383
4	0x3f27d237	0.6555514
5	0x3ecf82f3	0.40529594
6	0x3f233b82	0.63762677
7	0x3f34fa00	0.7069397
8	0x3ef9e64f	0.48808524
9	0x3f46b7bd	0.7762411
10	0x3ecef005	0.40417495
11	0x3f4c0b06	0.7970432
12	0x3f1b3895	0.6063321
13	0x3f3d0282	0.7383195
14	0x3ed141cd	0.40870515
15	0x3f288bd3	0.65838355
16	0x3e8e6d56	0.27817792
17	0x3f6313a7	0.8870186
18	0x3f46004e	0.77344215
19	0x3f085cf1	0.5326682
20	0x3eeb73e9	0.4598687
21	0x3f08e859	0.53479534
22	0x3ecc6af0	0.39925337
23	0x3ed89588	0.42301583
24	0x3f7f0980	0.9962387
25	0x3e196e4f	0.14983486
26	0x3f360f6d	0.7111729
27	0x3f02960e	0.51010215
28	0x3e8dd686	0.2770273
29	0x3f059565	0.5218108
30	0x3ee7571b	0.45183644
31	0x3f5d0c44	0.8634684
32	0x3f0df17a	0.5544659
33	0x3f3e739e	0.7439517
34	0x3f0e9620	0.5569782
35	0x3f30e793	0.69103354
36	0x3eff5d1d	0.49875727
37	0x3f211f82	0.629387
38	0x3f2600d4	0.64845014
39	0x3f0ebe54	0.5575917
40	0x3ef3ed49	0.47641972
41	0x3f2a51b4	0.6653092
42	0x3f05222b	0.5200526
43	0x3f6566d0	0.89610004
44	0x3e916fcd	0.2840561
45	0x3eb4372c	0.35198343
46	0x3f290ad3	0.6603214
47	0x3f3993b6	0.72491014
48	0x3f3a721e	0.7283038
49	0x3f388884	0.72083306
50	0x3f06bf2f	0.52635473
51	0x3f5ddb7d	0.8666304
52	0x3f23fd37	0.6405825
53	0x3f0bcec4	0.54612374
54	0x3f1a5e0f	0.6029977
55	0x3f01cf86	0.5070728
56	0x3f154e75	0.5832284
57	0x3ed666f4	0.41875422
58	0x3f15504c	0.5832565
59	0x3f24d8f4	0.64393544
60	0x3f1a055a	0.60164416
61	0x3f074ef5	0.52854854
62	0x3ee2bc56	0.44284314
63	0x3eeb4669	0.45952156
64	0x3f3bc1eb	0.7334277
65	0x3efd2d0e	0.49448436
66	0x3ea7d945	0.3278295
67	0x3f5afa71	0.85538393
68	0x3f2d6333	0.6772949
69	0x3f1612f6	0.5862268
70	0x3f171043	0.5900919
71	0x3f1cdea1	0.61277205

transformer.embed.norm.beta f4 [72]
0	0x3e86c34f	0.26320884
1	0x3bcb7dc1	0.0062100594
2	0xbda3b108	-0.079927504
3	0xbe4979a5	-0.1967531
4	0x3d8104ec	0.06299767
5	0xbd1e9e71	-0.03872532
6	0x3e55e156	0.2088674
7	0x3eb3ded4	0.35130942
8	0x3d9d2cf3	0.07674589
9	0x3e8dfaa9	0.277303
10	0x3da30a75	0.07960979
11	0x3a75980b	0.00093686645
12	0xbcbe3388	-0.023217931
13	0xbe51f0b5	-0.20501979
14	0x3c293076	0.010326495
15	0xbe1f5665	-0.155603
16	0x3d49fad9	0.049311493
17	0x3ef086a6	0.4697773
18	0xbd04eed1	-0.032454316
19	0xbdf0c414	-0.11756149
20	0x3c882357	0.016618414
21	0x3d1c19de	0.038110606
22	0xbdbf8b6e	-0.09352766
23	0xbc6f3281	-0.014599443
24	0x3f3e8bbf	0.74431986
25	0x3d18ee40	0.037336588
26	0xbe23c364	-0.15992504
27	0xbd33f844	-0.043937936
28	0xbd15482a	-0.036445774
29	0xbdb47079	-0.08810515
30	0xbd6c9549	-0.057759557
31	0xbd2e7dc2	-0.0426004
32	0x3e215cff	0.15758131
33	0xbe052222	-0.13001302
34	0x3c7b266d	0.015328986
35	0xbd9adead	-0.07562003
36	0xbd3b8bd7	-0.04578766
37	0x3e232d75	0.15935309
38	0xbcb33a61	-0.021878423
39	0x3e131071	0.1436174
40	0xbd4cba62	-0.049982436
41	0xbe0d70de	-0.13812587
42	0xbd596262	-0.05307234
43	0xbd063031	-0.032760803
44	0xbc1baaca	-0.0095011685
45	0x3dc87b52	0.097891465
46	0x3d7f5b56	0.062342964
47	0x3e91c28c	0.2846874
48	0xbd996fdb	-0.07492038
49	0xbe9798f9	-0.29608896
50	0x3dbe5886	0.09294228
51	0xbea000a7	-0.31250498
52	0x3e15e601	0.14638521
53	0xbb03ad21	-0.0020092207
54	0xbdbcaab2	-0.09212245
55	0xbd9620bf	-0.073304646
56	0xbda00f00	-0.07815361
57	0x3dee8bfe	0.11647795
58	0xbe5d6895	-0.21621926
59	0x3d2df170	0.04246658
60	0xbe1c3055	-0.15252812
61	0x3c825842	0.015911225
62	0x3dc16fe9	0.09445173
63	0x3dd1873c	0.10230872
64	0x3d6b3557	0.057423916
65	0xbb63d1d5	-0.003476252
66	0xbc9a1cfd	-0.01881265
67	0x3e471250	0.1944058
68	0x3d256a34	0.040384486
69	0x3df2140f	0.11820232
70	0xbdb39f85	-0.0877066
71	0x3e2a28a0	0.1661706

transformer.attn.proj_q.weight f4 [72, 72]
0	0x3ba35fde	0.0049857935
1	0x3ddb67aa	0.10713132
2	0x3e8bc9a9	0.27302292
3	0x3d531868	0.051536947
4	0xba695b79	-0.0008901875
5	0x3eaf7bac	0.34274042
6	0xbd85a430	-0.06525457
7	0xbeb258af	-0.34833285
8	0xbe389675	-0.18026145
9	0xbdf82e43	-0.12118199
10	0x3ed5a9fe	0.41731256
11	0xbe22f0ef	-0.15912221
12	0x3f222818	0.6334243
13	0xbeb193cb	-0.3468307
14	0xbdf020e8	-0.11725026
15	0xbe9f17f0	-0.3107295
16	0xbe881add	-0.26582995
17	0x3ebc42ef	0.36769816
18	0xbf2443f3	-0.6416618
19	0xbea5de82	-0.32396322
20	0x3d307362	0.043078788
21	0xbea915e8	-0.33024526
22	0x3e93353c	0.28751552
23	0xbd5c9a8a	-0.053858317
24	0xbdcfff8e	-0.10156165
25	0xbf4ae479	-0.7925487
26	0xbe209856	-0.15683112
27	0x3eb8d60b	0.36100802
28	0x3d65120f	0.055925425
29	0xbd669b10	-0.056300223
30	0xbddc504e	-0.107575044
31	0x3ea7fed1	0.32811597
32	0xbe5fa6ab	-0.21840923
33	0xbd9d97aa	-0.07694943
34	0xbca04ebb	-0.019568792
35	0x3cee9aad	0.02912649
36	0x3f56704f	0.8376512
37	0x3ef2d583	0.47428522
38	0xbee10755	-0.43950906
39	0x3f25fe91	0.6484156
40	0xbf01ef96	-0.50756204
41	0xbdbacd1e	-0.09121154
42	0x3e1987e5	0.14993246
43	0x3edc8ecd	0.43077698
44	0xbe714f0a	-0.23565307
45	0x3ef97a6e	0.4872622
46	0x3ef98b97	0.4873931
47	0x3e580fd9	0.21099795
48	0x3d536e26	0.051618718
49	0x3eaca407	0.33718893
50	0x3ee5ac6f	0.4485812
51	0xbe901130	-0.28138113
52	0x3e1801cc	0.14844435
53	0xbea803f3	-0.32815513
54	0xbe35ab82	-0.17741206
55	0xbe8777f9	-0.2645872
56	0xbe987b98	-0.29781795
57	0x3dbcb9ef	0.092151515
58	0xbe6028b5	-0.21890529
59	0xbed2589a	-0.41083223
60	0xbe118f5c	-0.14214844
61	0xbe76603b	-0.24060147
62	0xbe501240	-0.20319462
63	0xbe68ca8d	-0.22733517
64	0x3efd71e7	0.49500963
65	0xbf324404	-0.69635034
66	0xbdd4ef89	-0.1039725
67	0x3e0e00ec	0.13867539
68	0xbd36d4d9	-0.04463658
69	0xbebfe821	-0.37481788
70	0x3ecc9b94	0.39962447
71	0xbe0e9f5f	-0.13927983
72	0xbc7c6573	-0.015405047
73	0x3d8c7ab4	0.06859341
74	0xbe8fac76	-0.28061265
75	0x3d3af58d	0.04564433
76	0x3dc746fc	0.09730336
77	0xbe5b1bc7	-0.21397315
78	0x3e66ec33	0.2255104
79	0xbe85dd32	-0.2614532
80	0x3e9a8676	0.3018071
81	0x3cca341b	0.024683049
82	0xbced271b	-0.028949311
83	0xbebe2952	-0.371409
84	0x3b63ee0e	0.0034779343
85	0xbebc872f	-0.36821887
86	0xbee9cc02	-0.45663458
87	0x3f1537f3	0.58288497
88	0x3defc975	0.11708347
89	0xbebf39fb	-0.37348923
90	0x3efc6aad	0.49300137
91	0xbe9f2c94	-0.31088698
92	0x3efda3d3	0.4953905
93	0x3e7ab994	0.24484855
94	0x3dc953f9	0.0983047
95	0xbe840ac2	-0.25789458
96	0x3e915542	0.2838536
97	0xbdf6c685	-0.12049583
98	0xbe34a98d	-0.17642803
99	0x3ee860a1	0.45386222
100	0xbe85be67	-0.26121828
101	0xbd26d0be	-0.040726416
102	0xbdecbc3b	-0.115593396
103	0xbf006714	-0.50157285
104	0x3e981286	0.29701632
105	0xbe4c6ded	-0.19963808
106	0x3ecaf455	0.39639536
107	0xbe6da77b	-0.2320842
108	0x3d709351	0.058734242
109	0x3da29cc7	0.07940059
110	0x3d79b684	0.060965076
111	0xbe88df8d	-0.26733056
112	0x3e3570a5	0.17718752
113	0xbe0583ed	-0.13038607
114	0xbf020bb5	-0.50799114
115	0xbdd59350	-0.10428488
116	0x3dd15458	0.102211654
117	0xbd2260fb	-0.03964327
118	0x3e6df662	0.23238519
119	0x3e4b2311	0.19837596
120	0x3d89b787	0.06724458
121	0xbd730ab7	-0.05933639
122	0xbb8f3169	-0.004369904
123	0xbec8cb44	-0.3921758
124	0xbd8be1c9	-0.068301745
125	0x3daba484	0.08380988
126	0x3e4dd2e9	0.20099987
127	0x3f56c964	0.8390105
128	0x3cee27a9	0.029071646
129	0x3e8cc9f0	0.27497816
130	0x3eebc168	0.46045995
131	0x3d4715fa	0.048604943
132	0x3e1c6550	0.15273023
133	0xbe973746	-0.29534358
134	0x3e7b036d	0.24513026
135	0x3d961006	0.07327275
136	0x3d78d5be	0.060750715
137	0x3daeb470	0.085305095
138	0xbe4fe310	-0.20301461
139	0xbf19707a	-0.5993725
140	0x3f3f2145	0.7466014
141	0xbf2dea30	-0.67935467
142	0x3ed1d105	0.40979782
143	0xbe8945ef	-0.26811168
144	0xbd579d6a	-0.052640356
145	0x3db6e481	0.089303024
146	0xbf1943d2	-0.5986911
147	0x3f190b07	0.5978245
148	0x3c44cd4e	0.012011839
149	0xbee4bf01	-0.44676974
150	0x3f4f195f	0.8089809
151	0xbe66eea3	-0.2255197
152	0xbe011176	-0.12604317
153	0xbedddf68	-0.43334508
154	0x3da47217	0.080295734
155	0xbe30c01f	-0.17260788
156	0xbeadd7b3	-0.33953628
157	0xbdb7dd87	-0.089778
158	0xbe2040f4	-0.15649778
159	0xbec44cf0	-0.3833995
160	0xbe638da7	-0.22222005
161	0xbd9ee332	-0.07758178
162	0xbd98a5cc	-0.07453498
163	0xbdfef1c7	-0.12448459
164	0xbc924711	-0.017856153
165	0xbe59afd6	-0.21258482
166	0x3eb4df43	0.35326585
167	0xbc987999	-0.01861267
168	0xbe3da9cc	-0.18521804
169	0xbeeb7e2e	-0.45994705
170	0xbe7a5ae7	-0.24448739
171	0xbd847c48	-0.06469017
172	0x3cf8a9bf	0.030354379
173	0x3d0d603f	0.034515616
174	0xbe398548	-0.18117249
175	0xbea21003	-0.3165284
176	0xbe489633	-0.19588546
177	0xbe8f1653	-0.2794672
178	0xbe8a2167	-0.2697861
179	0x3dbdde12	0.09270872
180	0x3e693ba8	0.22776663
181	0x3cc38afb	0.023869982
182	0x3f1231f9	0.571075
183	0x3df467ad	0.11933837
184	0x3f272908	0.65296984
185	0xbe06c9f4	-0.13162977
186	0xbeec71c6	-0.46180552
187	0x3e1a33a2	0.15058759
188	0x3d965830	0.07341039
189	0xbd5d780d	-0.054069567
190	0xbe447e11	-0.19188716
191	0xbe543587	-0.20723544
192	0xbe8a49c5	-0.27009407
193	0x3e013b77	0.1262034
194	0x3e988d01	0.29795077
195	0x3e879a15	0.26484743
196	0x3e43dd5e	0.19127414
197	0x3e981b17	0.29708168
198	0x3e12e1fb	0.14344017
199	0x3e3ee7f4	0.1864317
200	0x3e492a3b	0.19645016
201	0xbe9c0b29	-0.30477265
202	0xbd4093f7	-0.04701611
203	0x3f36bb50	0.71379566
204	0x3cc2d054	0.02378098
205	0x3ed0701c	0.40710533
206	0x3e88e745	0.26738945
207	0x3d0bb9cf	0.034112748
208	0xbc2032c4	-0.0097777285
209	0x3d8c4bdf	0.06850409
210	0xbf28ca0a	-0.6593329
211	0x3df57a25	0.11986188
212	0x3ea2f4f7	0.31827518
213	0xbe1e3fb6	-0.15453991
214	0x3e1d9db5	0.15392192
215	0x3da09139	0.07840199
216	0x3e7c0102	0.2460976
217	0xbdb5ac4d	-0.088707544
218	0x3f33fbc3	0.7030603
219	0xbe16985e	-0.14706561
220	0x3ef60b92	0.48055702
221	0xbe81a121	-0.25318244
222	0x3e6bfe13	0.2304614
223	0x3cf7bcce	0.030241396
224	0x3e9c3cb2	0.30515057
225	0x3ee7ad23	0.4524928
226	0x3d728b67	0.059214976
227	0x3e9f2954	0.31086218
228	0x3f12ad1a	0.5729538
229	0xbe68def0	-0.22741294
230	0xbe944e42	-0.28965956
231	0xbdc63243	-0.096775554
232	0xbea7b7f2	-0.32757527
233	0x3d5a3432	0.053272434
234	0xbf5d54e4	-0.8645766
235	0xbe265bc4	-0.16245943
236	0xbdca0407	-0.098640494
237	0xbef1c971	-0.47224
238	0x3e1dc66e	0.15407726
239	0xbd58a0b5	-0.052887637
240	0xbb9758b9	-0.004618731
241	0x3e8a16d1	0.26970533
242	0xbe73e7da	-0.23818913
243	0x3dc82afe	0.09773825
244	0xbe792079	-0.24328794
245	0xbe64d1a1	-0.22345592
246	0xbd9fb726	-0.07798605
247	0x3e9f96fc	0.3116988
248	0xbe3d0f2b	-0.18462817
249	0x3e54a890	0.20767426
250	0x3ef0c352	0.47024018
251	0xbefb065c	-0.4902829
252	0xbd2ffb9c	-0.042964563
253	0xbe9b79f9	-0.30366495
254	0xbe776c34	-0.2416237
255	0x3ec7f048	0.39050508

transformer.attn.proj_q.bias f4 [72]
0	0xbdc490ae	-0.09597908
1	0x3e54be3a	0.2077569
2	0x3d325d14	0.043545797
3	0x3e224504	0.1584664
4	0xbd03e3fb	-0.03219984
5	0xbd40e8c6	-0.04709699
6	0x3b14e5cf	0.0022719984
7	0x3ea0a5d1	0.31376508
8	0x3e426a1c	0.1898579
9	0x3eaec56e	0.34135002
10	0xbdc330e0	-0.095308065
11	0x3dfd0246	0.12353949
12	0xbe43281e	-0.19058272
13	0x3e087209	0.13324751
14	0xbeba9293	-0.36439952
15	0x3e05472e	0.13015434
16	0xbc2c6fea	-0.010524729
17	0x3e81189e	0.25214094
18	0x3ed99792	0.4249845
19	0xbee9e0e4	-0.4567939
20	0xbe9561f7	-0.29176304
21	0x3e45aa01	0.19303133
22	0x3dbb690c	0.091508955
23	0xbe1ea2d1	-0.15491797
24	0x3c90bd0a	0.017668266
25	0x3e61cf7c	0.22051805
26	0x3e6d9346	0.23200712
27	0xbde75809	-0.11296088
28	0xbd29c30a	-0.04144577
29	0xbe805079	-0.25061396
30	0xbef9fbbd	-0.48824874
31	0xbe8eb821	-0.27874854
32	0xbec50241	-0.38478282
33	0x3e57ecf6	0.21086487
34	0x3c91b1dd	0.017785007
35	0xbe80e147	-0.25171873
36	0x3d6a8240	0.057253122
37	0x3e97e38e	0.29665798
38	0xbe14c560	-0.14528418
39	0x3db12eb3	0.08651485
40	0xbf01e29f	-0.5073642
41	0xbea2a4c4	-0.3176633
42	0xbe9c6fa3	-0.30553922
43	0x3cae4463	0.021272844
44	0xbf289c43	-0.65863436
45	0x3d290ab2	0.041269965
46	0x3e1ba3a8	0.15199149
47	0xbe70a2fd	-0.23499675
48	0xbe2f0c4e	-0.17094538
49	0x3ea663ed	0.32498112
50	0x3e88a2c3	0.26686677
51	0xbde12724	-0.109937936
52	0xba6cbe82	-0.00090310734
53	0x3e4bb396	0.19892725
54	0xbdb785e8	-0.089610875
55	0xbe113dd3	-0.1418374
56	0xbd622cc0	-0.05521846
57	0xbdab0d47	-0.08352142
58	0xbe9a12e1	-0.30092528
59	0x3ccbc0ed	0.024872268
60	0x3de9b2c4	0.1141105
61	0x3c238df2	0.009982573
62	0xbd2d5a98	-0.042322725
63	0x3df166d7	0.11787193
64	0x3e71edd8	0.23625886
65	0xbead9b5b	-0.3390759
66	0xbe13dc9f	-0.14439629
67	0x3e305c44	0.17222697
68	0x3ccd3380	0.025048971
69	0x3e846cde	0.2586431
70	0xbe3350b8	-0.1751126
71	0x3c4feaf5	0.012690295

transformer.attn.proj_k.weight f4 [72, 72]
0	0xbe3040fe	-0.17212293
1	0x3e949b12	0.2902456
2	0xbd4fe94e	-0.050759606
3	0x3d60b4f5	0.054860074
4	0x3db2f617	0.08738344
5	0x3ea00e1a	0.3126076
6	0x3e2201ff	0.15821074
7	0xbf5732ce	-0.84061897
8	0xbec54bc0	-0.38534355
9	0xbd93ff11	-0.072263844
10	0xbebd25ba	-0.36942846
11	0xbdc157d0	-0.09440577
12	0xbe393671	-0.18087174
13	0x3ea25388	0.31704354
14	0xbd74e51e	-0.059788816
15	0xbd07dc2f	-0.033168968
16	0xbeb5fe42	-0.35545546
17	0x3e1fd192	0.15607288
18	0x3e9745bd	0.29545394
19	0x3e9f12c3	0.31069002
20	0x3e874d7f	0.26426312
21	0xbe6cabdb	-0.23112433
22	0x3f1e4b21	0.6183339
23	0xbd8919a5	-0.066943444
24	0xbe8f7d79	-0.28025416
25	0xbee8fb76	-0.4550435
26	0x3ee60f30	0.44933462
27	0x3ce1cbd4	0.027563013
28	0xbf557fea	-0.83398306
29	0xbe67e14c	-0.22644538
30	0x3e0c7c8b	0.13719384
31	0x3e8dcb3c	0.27694118
32	0xbe759684	-0.23983198
33	0x3d508164	0.050904647
34	0xbe421888	-0.1895467
35	0x3da30dee	0.07961641
36	0x3f433c52	0.76263916
37	0x3eaf5a54	0.34248602
38	0x3ddd13b1	0.107947715
39	0x3d5a81c7	0.05334642
40	0x3ed89f11	0.42308858
41	0xbf2308cb	-0.6368529
42	0x3e9d9502	0.30777746
43	0x3e910c7d	0.2832984
44	0xbe793e07	-0.24340068
45	0xbdbd946e	-0.09256826
46	0x3f139134	0.5764344
47	0xbf0af169	-0.5427461
48	0xbeb36d92	-0.35044533
49	0x3e61931b	0.22028773
50	0xbf053e16	-0.5204786
51	0xbc911240	-0.017708898
52	0x3e1a17cf	0.15048145
53	0xbee78737	-0.45220348
54	0xbccc3a70	-0.024930209
55	0xbf833b4d	-1.0252472
56	0xbe487801	-0.19577028
57	0x3df3145f	0.1186912
58	0xbec9bb74	-0.39400828
59	0xbdf2c687	-0.11854272
60	0x3db5a963	0.088701986
61	0x3cd9cd75	0.026587227
62	0xbe856107	-0.26050588
63	0x3ddba3b4	0.10724583
64	0xbf02047e	-0.50788105
65	0xbcac9745	-0.021068225
66	0x3db90ff3	0.09036245
67	0x3c98a12b	0.018631538
68	0xbe884187	-0.26612493
69	0xbe2e228f	-0.1700537
70	0xbe261186	-0.16217622
71	0x3d0c9b50	0.034327805
72	0x3ea4fac9	0.32222584
73	0x3e8d62a4	0.2761432
74	0xbe6f58b6	-0.23373684
75	0xbdcd30d7	-0.10019081
76	0xbe6cf33e	-0.23139665
77	0x3e223d7e	0.1584377
78	0xbecc5e12	-0.3991552
79	0xbe165728	-0.14681685
80	0x3e2f6978	0.17130077
81	0x3eea7b8f	0.45797393
82	0xbd299af7	-0.04140755
83	0x3e18589d	0.14877553
84	0xbe80feea	-0.25194484
85	0xbf425a00	-0.7591858
86	0x3d105734	0.035239413
87	0x3f3127e1	0.69201475
88	0xbdae0d19	-0.08498592
89	0x3e880b39	0.26571062
90	0x3f0218d4	0.50819135
91	0xbd12f15a	-0.035874702
92	0x3f50b8c0	0.81531906
93	0xbe232e0e	-0.15935537
94	0xbeb8da07	-0.36103842
95	0xbe5130ed	-0.2042882
96	0x3e4ca6fc	0.19985574
97	0x3d85fcd5	0.065423645
98	0xbcbe08c1	-0.023197534
99	0x3d3fec94	0.046856478
100	0x3e88335b	0.2660168
101	0x3eb460c4	0.35230076
102	0xbecc59c2	-0.3991223
103	0xbf11e86a	-0.5699526
104	0xbecfb9bb	-0.4057139
105	0xbd2f5d93	-0.04281385
106	0x3e121bb9	0.14268388
107	0xbe4387c7	-0.19094764
108	0xbe91b002	-0.28454596
109	0xbf156e17	-0.5837111
110	0x3dcf4343	0.10120251
111	0xbeba0ebf	-0.36339375
112	0xbe402786	-0.18765077
113	0xbe34bf94	-0.17651206
114	0x3db25f57	0.08709591
115	0xbeac1251	-0.33607724
116	0xbd437ff4	-0.047729447
117	0x3e1bdafc	0.15220255
118	0x3eed6efa	0.4637373
119	0x3dea8d06	0.11452679
120	0x3e8b7fe0	0.27245998
121	0x3db81300	0.08987999
122	0x3da8ca9a	0.08241768
123	0xbad000f7	-0.0015869428
124	0x3e773cbf	0.24144267
125	0xbea95b57	-0.330775
126	0x3e2951fb	0.1653518
127	0xbe753e99	-0.2394966
128	0xbecb6498	-0.39725184
129	0x3f869a0e	1.0515764
130	0x3e796498	0.2435478
131	0x3e9dce82	0.30821615
132	0x3d4a8b5f	0.04944932
133	0xbe98072d	-0.29692975
134	0x3ebb590e	0.3659138
135	0xbd03598b	-0.032067817
136	0xbe5d7a9c	-0.21628803
137	0x3f291052	0.6604053
138	0xbec6a330	-0.38796377
139	0xbecdfccc	-0.4023193
140	0xbdb46013	-0.08807387
141	0xbe1c49eb	-0.15262572
142	0x3ea85d8f	0.3288388
143	0x3de35d19	0.11101741
144	0x3de551a1	0.1119721
145	0xbf1499ac	-0.58046985
146	0xbe4dfe35	-0.20116504
147	0x3e594592	0.21217945
148	0x3e0197ee	0.12655613
149	0xbe76b375	-0.24091895
150	0xbc351613	-0.011052626
151	0x3f30e04f	0.6909227
152	0xbdfccf8c	-0.12344274
153	0xbeaac8ff	-0.33356473
154	0xbe5726a2	-0.21010831
155	0x3ef982b5	0.48732534
156	0xbe41c10f	-0.18921302
157	0xbc9a141a	-0.018808413
158	0x3ee29952	0.442576
159	0xbe72e9b7	-0.23721968
160	0x3e7673d0	0.24067616
161	0xbddc47ab	-0.10755857
162	0xbe62289f	-0.22085808
163	0xbed10d6b	-0.4083055
164	0x3ee3e33e	0.4450931
165	0xbf24b0db	-0.6433236
166	0x3eeea871	0.46612886
167	0xbe74280c	-0.23843402
168	0xbdb7701c	-0.0895693
169	0x3e0b1174	0.13580877
170	0x3e36c86c	0.17849892
171	0x3e493937	0.19650732
172	0x3f49f59e	0.7889041
173	0xbc501272	-0.01269971
174	0x3e8d1880	0.27557755
175	0x3df57a06	0.11986165
176	0x3e05406b	0.13012855
177	0xbdabd747	-0.0839067
178	0x3ec58214	0.38575804
179	0xbed25774	-0.41082346
180	0xbe4f433d	-0.20240493
181	0x3f225ddf	0.63424486
182	0x3e9c127e	0.30482858
183	0x3ea757c3	0.32684144
184	0xbe670082	-0.22558787
185	0xbe8aeb96	-0.27132863
186	0xbd256cd8	-0.040387005
187	0x3ce7d8fe	0.028301712
188	0xbf2d6970	-0.6773901
189	0xbeb04114	-0.3442465
190	0xbd3dcfe1	-0.046340827
191	0xbea79688	-0.32732034
192	0xbe8ef7bf	-0.2792339
193	0xbe1e8dee	-0.1548383
194	0x3cdf2afb	0.027242174
195	0xbd1baf1f	-0.038008805
196	0x3e20b9d6	0.15695891
197	0x3ed51fc4	0.41625798
198	0xbec6515e	-0.38733953
199	0xbe3da273	-0.18519
200	0xbe9b516a	-0.30335552
201	0xbee2bc87	-0.4428446
202	0x3dd646f4	0.10462752
203	0x3e6c7eb7	0.23095213
204	0x3e6b3394	0.22968894
205	0xbd795fb2	-0.060882278
206	0xbe9b78c3	-0.3036557
207	0x3e5da168	0.21643603
208	0x3daccee4	0.08437899
209	0xbe433ce0	-0.1906619
210	0x3f024a89	0.5089498
211	0x3e826282	0.2546578
212	0xbde712e2	-0.112828985
213	0x3dfa3f22	0.12219073
214	0x3cee1a84	0.029065378
215	0xbccb0b1a	-0.024785567
216	0x3eae143c	0.33999813
217	0xbe66b17a	-0.2252864
218	0xbdcbad9c	-0.09945223
219	0x3ec24558	0.3794353
220	0xbebd39ff	-0.3695831
221	0xbeb69881	-0.35663226
222	0x3ef7ac6b	0.48373732
223	0x3ed8aa90	0.4231763
224	0x3e0849da	0.13309422
225	0xbe1b5590	-0.15169358
226	0xbf045053	-0.51685065
227	0x3e6ab627	0.22921048
228	0x3cb1950b	0.021677515
229	0x3cc8c659	0.024508642
230	0x3ed4d460	0.4156828
231	0xbeb95438	-0.36197066
232	0x3da4be82	0.08044149
233	0x3ddd5645	0.1080747
234	0x3e06f09a	0.1317772
235	0x3e68768f	0.22701477
236	0xbecfe683	-0.40605554
237	0xbf1cc6cb	-0.61240834
238	0xbe526c37	-0.20549093
239	0x3e3444d9	0.17604388
240	0xbc74a8da	-0.0149328355
241	0x3dafa3a5	0.085761346
242	0xbdd71582	-0.10502149
243	0x3e16db84	0.14732176
244	0x3f4c42ac	0.79789233
245	0xbdcd75d5	-0.1003224
246	0x3f219b5e	0.63127697
247	0xbd9f0188	-0.07763964
248	0x3e82f04b	0.25573954
249	0xbde4abeb	-0.11165603
250	0xbe0f539d	-0.1399674
251	0x3ef46962	0.4773665
252	0xbdf80c84	-0.12111762
253	0xbdcf6fd5	-0.10128752
254	0xbf079e17	-0.529756
255	0x3e05719e	0.13031623

transformer.attn.proj_k.bias f4 [72]
0	0xbd4a6366	-0.0494112
1	0xbd0c87ce	-0.0343092
2	0x3d7a1cbd	0.061062563
3	0x3d7c9307	0.061663654
4	0xbc5ee70f	-0.013604893
5	0x3d20596e	0.039147787
6	0xbd1af309	-0.037829433
7	0x3d298225	0.04138388
8	0x3d30ac8a	0.043133296
9	0x3d745f9d	0.059661496
10	0xbd29535e	-0.04133927
11	0x3d12b3a8	0.035815865
12	0x3ce2bd10	0.027678043
13	0x3da48e16	0.08034913
14	0x3ccb2da2	0.024802033
15	0x3beafb86	0.007171097
16	0x3da8a1f4	0.08234015
17	0x3df76eed	0.12081704
18	0xbd8cbe8a	-0.0687228
19	0x3d352252	0.044222184
20	0x3d95f548	0.07322174
21	0xbb96f418	-0.004606735
22	0xbcc4121e	-0.02393442
23	0xbd9fd5f9	-0.07804484
24	0xbd7509ca	-0.05982379
25	0xbdcdccca	-0.10048826
26	0xbda975b9	-0.08274407
27	0xbdbe88d8	-0.093034446
28	0x3db9392e	0.09044109
29	0x3d33fee3	0.04394425
30	0x3def1d08	0.11675459
31	0x3bf6c528	0.007530827
32	0x3bc7f183	0.0061017885
33	0x3d59bf14	0.053160742
34	0xbdbafb11	-0.09129918
35	0xbcf0767e	-0.029353376
36	0x3d73dc80	0.059536457
37	0x3ddd9d40	0.10821009
38	0x3d9eae6d	0.07748113
39	0x3d02e943	0.031960737
40	0x3ce7b6af	0.028285353
41	0xbd3b2178	-0.045686215
42	0x3d99c08d	0.07507429
43	0xbb0ffe93	-0.0021971806
44	0x3d296beb	0.041362684
45	0xbccc9bcb	-0.024976632
46	0x3caf3272	0.021386359
47	0xbdf3b644	-0.11899999
48	0xbc7ad99d	-0.015310672
49	0x3dbdf180	0.09274578
50	0x3b8770e4	0.0041333307
51	0x3de0a12d	0.10968242
52	0xbdcd9ffd	-0.10040281
53	0xbd6470f0	-0.055771768
54	0xbdcf2dc3	-0.1011615
55	0x3d84be71	0.06481636
56	0xbdbd41db	-0.092410766
57	0xbc96a7b9	-0.018390523
58	0x3d974159	0.07385511
59	0xbd170d30	-0.03687781
60	0x3cbd0a0d	0.023076082
61	0xbd826212	-0.06366362
62	0xbb728114	-0.0037003206
63	0xbd36e277	-0.044649567
64	0xbd60d800	-0.054893494
65	0xbc905c16	-0.017622035
66	0x3da3ac8a	0.079918936
67	0x3d91e56c	0.07123837
68	0xbd63141a	-0.055439092
69	0x3d92933a	0.071569875
70	0x3dcc2e8a	0.09969814
71	0xbd11f7ef	-0.03563684

transformer.attn.proj_v.weight f4 [72, 72]
0	0xbf687bdf	-0.9081401
1	0x3e7f9f77	0.24963175
2	0x3efb7a74	0.49116862
3	0x3e6cee2b	0.23137729
4	0x3f44db4e	0.7689713
5	0x3d86599d	0.06560061
6	0xbe76c517	-0.24098621
7	0xbe4dd8d4	-0.20102245
8	0x3e13135d	0.14362855
9	0x3e604614	0.21901733
10	0x3eee1717	0.4650199
11	0x3f07c442	0.5303384
12	0x3f09366d	0.5359867
13	0x3cf764ac	0.030199371
14	0xbe8adde2	-0.27122408
15	0xbe0da844	-0.1383372
16	0xbdaece58	-0.08535451
17	0xbe1449e3	-0.1448131
18	0xbf05b01b	-0.5222184
19	0x3dce6d98	0.10079497
20	0x3c921365	0.017831514
21	0xbe55daba	-0.20884219
22	0xbe60a840	-0.21939182
23	0x3d385e7c	0.045011982
24	0xbf85bb31	-1.0447751
25	0xbdf2252d	-0.11823497
26	0x3e796596	0.24355158
27	0xbe97f513	-0.29679164
28	0xbe3d9182	-0.18512538
29	0x3eb41060	0.35168743
30	0xbe0e10e9	-0.13873638
31	0x3e4cc27f	0.1999607
32	0xbefdbf56	-0.4956004
33	0x3e9e57b0	0.30926275
34	0xbe8dc76b	-0.27691206
35	0xbd9ae540	-0.07563257
36	0x3f65ade7	0.8971848
37	0xbf04a1b6	-0.5180925
38	0xbf16b570	-0.588706
39	0x3ea0b187	0.31385443
40	0xbe1d0d27	-0.15337048
41	0x3ee2fc83	0.44333276
42	0x3eb47bcc	0.352507
43	0xbf1fe230	-0.6245451
44	0xbdfca177	-0.123354845
45	0xbd1ded14	-0.038556173
46	0x3ea68da9	0.32529953
47	0xbe809ddf	-0.25120446
48	0x3f1d9078	0.61548567
49	0x3f03873f	0.51378244
50	0xbc816066	-0.015793037
51	0x3ef3dca0	0.4762926
52	0xbddeadbf	-0.10872983
53	0xbd7ba63a	-0.061437823
54	0xbe33c3e3	-0.17555194
55	0x3e49ad2e	0.19694969
56	0xbe8542ea	-0.26027614
57	0x3cd22f59	0.025657343
58	0x3ebbbeee	0.36669105
59	0xbf013e73	-0.50485915
60	0xbe8939ef	-0.26802012
61	0xbcde6f13	-0.027152574
62	0xbdc625e7	-0.09675198
63	0xbe6e36a9	-0.23263039
64	0x3e4f3ed4	0.20238811
65	0xbdb0f5d3	-0.08640637
66	0xbe08a4ea	-0.1334416
67	0x3e89c024	0.26904404
68	0xbf1be6e8	-0.6089921
69	0xbea996c0	-0.33122826
70	0x3f0e3397	0.5554747
71	0xbed693af	-0.4190955
72	0xbe3bcd1f	-0.18339966
73	0xbe7f90cb	-0.24957578
74	0xbdf9e886	-0.122025535
75	0x3ed13248	0.40858674
76	0x3dc81321	0.097692735
77	0x3f0009cc	0.5001495
78	0x3db767ad	0.089553215
79	0xbcef5a3f	-0.029217837
80	0x3f301fd3	0.6879856
81	0xbe68b61d	-0.2272572
82	0xbeac7de8	-0.3368981
83	0xbd521129	-0.051285896
84	0x3e70ae2d	0.23503943
85	0x3c92de90	0.017928392
86	0x3db9721a	0.09054966
87	0xbe23f182	-0.16010097
88	0xbe76866f	-0.2407472
89	0x3dc775f9	0.097392984
90	0x3dea28fd	0.11433599
91	0xbdb040b3	-0.086060904
92	0xbe859a37	-0.2609422
93	0x3d9d390d	0.07676897
94	0x3e9c88f8	0.3057325
95	0xbf024d7d	-0.5089949
96	0xbd7d3a57	-0.061823215
97	0xb94e2e64	-0.00019662973
98	0xbe03e85a	-0.12881604
99	0xbf788816	-0.9708265
100	0x3eb250ea	0.34827358
101	0x3e24d6bf	0.16097544
102	0x3da728a7	0.08162051
103	0x3e45706e	0.1928117
104	0xbc92c4c0	-0.017916083
105	0x3f246642	0.64218533
106	0xbee9bb0c	-0.45650518
107	0x3d920758	0.07130307
108	0x3d6d0f72	0.057876058
109	0x3d85631e	0.06513046
110	0xbf0156b0	-0.505229
111	0x3ece047d	0.402378
112	0x3f2055c7	0.62630886
113	0x3ea72608	0.32646203
114	0xbd3fe9fe	-0.04685401
115	0xbe9b8081	-0.30371478
116	0xbdfce60c	-0.123485655
117	0xbeaa73cb	-0.33291468
118	0xbe11e171	-0.14246155
119	0xbe1726e8	-0.14760935
120	0xbd8486fb	-0.06471058
121	0x3dab5642	0.08366062
122	0xbdadb0be	-0.084809765
123	0xbe936833	-0.28790435
124	0x3e18d107	0.14923488
125	0xbe8c5299	-0.27406767
126	0x3e34bfb6	0.17651257
127	0xbc976382	-0.018480066
128	0x3ecdf447	0.4022543
129	0x3e424500	0.18971634
130	0x3e5a119e	0.21295783
131	0xbdb3ec77	-0.087853365
132	0x3f309aad	0.68986017
133	0x3ebb58b2	0.36591107
134	0x3d9005ba	0.07032342
135	0x3f06fd34	0.5273011
136	0xbe86f2ae	-0.26357025
137	0x3e64ddc3	0.2235022
138	0x3ca3e416	0.02000622
139	0xbf3e7c6e	-0.74408615
140	0xbeef328d	-0.46718255
141	0x3c4df2b4	0.012570072
142	0x3decc984	0.115618736
143	0xbf0a7bf1	-0.5409537
144	0xbf0fc236	-0.5615572
145	0x3da45d76	0.08025639
146	0xbece61a6	-0.40308875
147	0x3dcc7a9a	0.09984322
148	0xbe922d47	-0.2855017
149	0xbf376bd6	-0.7164892
150	0xbf0a3c4c	-0.53998256
151	0xbf13ee3d	-0.577854
152	0x3f289e43	0.6586649
153	0xbf36ae47	-0.71359676
154	0xbe097d3e	-0.13426682
155	0x3dcc349f	0.09970974
156	0x3eee3749	0.46526554
157	0x3e97990e	0.2960896
158	0x3e8b10ae	0.27161163
159	0x3ee2b18b	0.4427608
160	0xbe8cffdc	-0.27538955
161	0xbf137bb4	-0.5761063
162	0xbe585d23	-0.21129279
163	0x3d81bb13	0.0633451
164	0x3c8fe858	0.017566845
165	0x3e9afdfb	0.30271897
166	0x3ec73a52	0.38911682
167	0x3ee454fb	0.44596085
168	0xbeb194ef	-0.3468394
169	0x3dc777d8	0.09739655
170	0x3e854fc5	0.26037422
171	0xbc9fd9d4	-0.019513048
172	0x3d83527e	0.064122185
173	0x3cc52183	0.024063831
174	0x3e9e4b44	0.30916798
175	0xbd091e0f	-0.03347593
176	0xbdd43e1e	-0.103634104
177	0x3ed04b47	0.40682432
178	0xbd5dd585	-0.054158706
179	0x3e57dd38	0.21080482
180	0x3e73e463	0.23817591
181	0xbdb1b507	-0.08677106
182	0x3d64b54d	0.055836964
183	0xbf49714a	-0.7868849
184	0x3e2f870d	0.17141362
185	0x3ee4554d	0.4459633
186	0x3d7c2476	0.06155821
187	0x3da14c9c	0.0787594
188	0x3e348901	0.17630388
189	0xbdf1082d	-0.117691375
190	0xbe949390	-0.2901883
191	0xbf0a0426	-0.5391258
192	0xbdcd8414	-0.100349575
193	0x3f3eebe8	0.74578714
194	0xbf008e75	-0.5021737
195	0x3eff91e9	0.49916008
196	0xbb487c25	-0.0030591574
197	0xbe4526e8	-0.19253123
198	0x3f14b01b	0.58081216
199	0x3e7241ba	0.23657885
200	0xbef3040c	-0.47464025
201	0xbe9c09c4	-0.304762
202	0x3e7757e3	0.2415462
203	0x3ee7d427	0.45279047
204	0x3e5e2424	0.21693474
205	0x3d2ab3a8	0.04167524
206	0xbf011c7b	-0.5043408
207	0x3ecdb2ab	0.40175375
208	0xbebbbe8d	-0.36668816
209	0xbc0a52ec	-0.008442622
210	0x3dd7811a	0.10522671
211	0xbe972de3	-0.29527196
212	0x3e9ef529	0.31046417
213	0xbe4725ba	-0.19447985
214	0xbe47e11a	-0.19519463
215	0xbf4c8c44	-0.7990153
216	0xbdd2eea2	-0.10299422
217	0xbdc95fd0	-0.09832728
218	0x3e7c3ffb	0.24633782
219	0x3eaef342	0.34169966
220	0xbd6b21de	-0.057405345
221	0xbdcd72d3	-0.100316666
222	0x3f44db2c	0.7689693
223	0xbed4632c	-0.41481912
224	0xbe535bfd	-0.2064056
225	0x3e1fd4fb	0.1560859
226	0xbe67fec4	-0.22655779
227	0xbdf1a4ca	-0.11799009
228	0xbe9869ba	-0.29768163
229	0x3f43c82a	0.764773
230	0xbe95132f	-0.29116198
231	0x3f0c5049	0.54810005
232	0xbebf84d4	-0.37406027
233	0xbf632a1b	-0.8873612
234	0x3eaba9de	0.33528036
235	0x3e1a0074	0.15039235
236	0xbed48b69	-0.41512612
237	0xbf270fa1	-0.6525822
238	0x3d8f61d2	0.070010796
239	0x3ecdea6e	0.40217918
240	0xbec39532	-0.38199764
241	0xbe0ddab4	-0.1385296
242	0x3e719d26	0.23595104
243	0xbe6db852	-0.23214844
244	0xbeeb8ef2	-0.46007496
245	0x3f161336	0.58623064
246	0x3ea84efe	0.32872766
247	0xbeafdfd7	-0.34350464
248	0xbec55019	-0.38537672
249	0x3cada079	0.021194683
250	0xbe252446	-0.16127118
251	0x3db48309	0.088140555
252	0xbdbe06a5	-0.09278611
253	0x3dfef363	0.12448766
254	0x3e9ad3e8	0.30239797
255	0xbf100ba1	-0.56267744

transformer.attn.proj_v.bias f4 [72]
0	0xbce5e67e	-0.028064009
1	0xbe9938f9	-0.2992628
2	0x3d0d608b	0.0345159
3	0xbd8eef1f	-0.069792025
4	0xbe0e9bea	-0.13926664
5	0xbe62a358	-0.22132623
6	0xbd4be912	-0.04978282
7	0x3be881f5	0.00709557
8	0x3e9ebcbf	0.31003377
9	0x3d3fff5a	0.04687438
10	0xbddf290d	-0.10896502
11	0xbe1f83ff	-0.15577696
12	0xbdd25d11	-0.10271657
13	0x3ea03caf	0.31296298
14	0x3d414102	0.047181137
15	0x3d095ddd	0.03353678
16	0x3d04031d	0.03222953
17	0x3d3ae6e2	0.045630343
18	0x3cfc3e20	0.030791342
19	0x3d027ebd	0.03185915
20	0xbede30ff	-0.43396756
21	0xbded979b	-0.11601182
22	0x3e478df1	0.1948774
23	0xbdbed7e8	-0.093185246
24	0xbec39dd3	-0.38206348
25	0x3c7931d4	0.015209634
26	0xbd50b4cc	-0.05095367
27	0xbe913521	-0.28360847
28	0x3d4fc2dd	0.050722945
29	0xbdc81aa3	-0.097707056
30	0x3e0baf45	0.13641079
31	0xbdd52c7b	-0.104088746
32	0x3cf3372c	0.029689394
33	0xbe17ab25	-0.1481138
34	0xbddb59c7	-0.10710483
35	0x3d9fc77e	0.07801722
36	0xbdd09005	-0.101837195
37	0xbe0d7eea	-0.13817945
38	0x3bcf7b32	0.0063318247
39	0xbe5590bf	-0.20855998
40	0xba4bcd3d	-0.00077744183
41	0x3e082b30	0.13297725
42	0xbc8c19d0	-0.017102152
43	0xbe05a4ce	-0.13051149
44	0xbd29db2a	-0.041468777
45	0x3e63fe76	0.22265038
46	0xbe95c870	-0.29254484
47	0x3e83ed56	0.2576701
48	0xbddf3634	-0.1089901
49	0xbe2c44e7	-0.16823159
50	0xbd5a1c72	-0.053249784
51	0x3d035007	0.032058742
52	0x3e20929d	0.15680929
53	0xbdb4dd12	-0.08831228
54	0xbdf192d1	-0.11795581
55	0x3c912600	0.017718315
56	0xbe275d20	-0.16344118
57	0x3e146043	0.14489846
58	0xbe72b40e	-0.23701498
59	0xbe866c6b	-0.2625459
60	0xbe9c03f2	-0.3047176
61	0x3e51007c	0.20410341
62	0xbdc17ee8	-0.094480336
63	0xbe5dbbec	-0.21653718
64	0xbdb6c344	-0.08923963
65	0x3d6aa34a	0.05728463
66	0x3c7499ae	0.014929218
67	0x3e324bce	0.1741173
68	0xbe1d3180	-0.15350914
69	0x3d8e6096	0.06952016
70	0x3d8ea70d	0.06965456
71	0x3e9bb0f9	0.30408457
