saved/classifier_base_gru_uci_20_120/uci.pt (torch, 39439 bytes, 14 tensors)

gru0.weight_ih_l0 f4 [60, 72]
-0.09729112 0.015778154 -0.25933596 -0.14455119 -0.20597754 -0.1519123 -0.09898811 0.11797291
-0.027541922 -0.15508093 0.031064931 0.26368833 -0.1880529 0.24779962 -0.04768808 -0.082720295
-0.18321984 0.214271 -0.16709799 0.16422006 0.07567441 0.12271325 -0.035898082 0.2012082
-0.11148765 -0.07819203 0.25534895 0.14176027 0.1748204 0.1553331 -0.11170081 -0.009552782
-0.15860821 0.18242213 -0.18215865 -0.043037236 -0.1993856 0.19821727 -0.29609403 0.26279026
0.14935128 -0.085805506 0.24842742 -0.04203691 -0.03400451 0.050873335 0.09286069 0.024567146
-0.090124756 0.0043667206 0.06424563 0.06595617 0.22214834 -0.09374561 0.22579019 -0.17417471
0.0677318 -0.06507925 -0.16316314 0.1602478 -0.097501986 -0.14708522 0.040654205 0.07252635
-0.07181097 0.044771608 -0.17397813 -0.05860634 -0.30962762 0.09769193 -0.121379144 0.14492238
0.19616455 -0.09636923 -0.06904275 0.09554237 -0.21071841 0.017436903 0.097561166 0.06636366
0.14991951 -0.09055689 0.11524695 -0.2351449 0.07219286 0.24178174 0.037436932 0.090897895
-0.09189407 0.026389819 -0.20594612 -0.080702044 -0.0049213083 -0.081371605 0.098181225 -0.14664513
-0.19361457 0.09884373 -0.0643132 -0.27049246 0.2736324 -0.028756827 0.16142277 -0.23494908
-0.18332717 0.23739584 -0.01626133 -0.028113252 -0.08724032 0.065883964 -0.032144487 -0.048581883
0.2792388 -0.35669243 0.0631961 -0.29613766 0.10056223 0.18476494 -0.08879049 -0.113265574
-0.016250221 0.120522104 -0.05131017 -0.14224295 0.09838727 -0.14395545 0.10499758 -0.23317976
-0.14802273 0.0948964 0.06534388 -0.20679763 -0.012464023 -0.12827764 0.2565416 -0.053951737
0.055347763 -0.05878697 -0.05215969 0.11318302 -0.078193665 -0.23455124 0.1499014 0.19117805
-0.12007243 0.16959316 -0.20095514 -0.026202032 -0.15559357 -0.11757019 -0.007247295 -0.29221728
0.039255742 -0.22427388 0.231418 0.24248995 -0.10534699 0.28054237 -0.033794463 0.004373454
-0.23833126 -0.06692334 -0.0903685 -0.17325506 0.004871471 -0.07747061 -0.1927803 -0.031691827
0.07303793 -0.046268735 0.10287353 0.0023903956 -0.038967546 -0.22712927 -0.13230367 -0.15487991
0.2671804 -0.1052882 0.1964623 0.08150087 0.03837593 0.056361612 -0.00047284403 -0.1153127
0.21666527 -0.082276955 -0.17112428 -0.29400164 0.1934002 0.06886176 -0.12896182 0.14012188
0.029784596 0.048984487 0.15470408 -0.2309475 0.2689525 -0.14458114 0.3482712 0.119827256
-0.04813102 0.18251209 0.17923026 -0.32165176 0.2081628 -0.2096432 0.118826635 0.03748399
0.19218105 0.10156999 0.1376161 -0.16453078 0.14699093 0.11981169 -0.17096482 -0.11180002
0.02894348 -0.17595837 0.07547023 0.09015432 -0.00498282 0.052529562 0.029848728 -0.20753433
-0.008961907 0.014189172 0.10246694 0.046942253 -0.014691533 0.14498468 0.2052123 -0.07189871
-0.056796074 0.21213804 -0.21987629 -0.17484611 0.005571535 0.17179087 -0.0871416 -0.014436847
-0.06888708 0.17249759 -0.13329399 -0.2677661 0.11581129 -0.06712274 -0.23405546 0.1358862
0.07930994 0.0598061 0.1705914 -0.014491412 -0.08823318 -0.018810455 0.121207766 0.13336156
00000000: 9140 c7bd 3041 813c afc7 84be 3a05 14be
00000010: c7eb 52be e68e 1bbe 47ba cabd c89b f13d
00000020: 999f e1bc 89cd 1ebe e27b fe3c 2802 873e
00000030: f090 40be 2fbf 7d3e 9454 43bd 4269 a9bd
00000040: fb9d 3bbe db69 5b3e bc1b 2bbe 4e29 283e
00000050: 2ffb 9a3d 1651 fb3d de09 13bd 8609 4e3e
00000060: a353 e4bd 2523 a0bd 19bd 823e 9b29 113e
00000070: 1e04 333e a40f 1f3e 65c3 e4bd 4683 1cbc
00000080: 316a 22be decc 3a3e cc87 3abe d047 30bd
00000090: bd2b 4cbe 78f9 4a3e a399 97be 728c 863e
000000a0: 8bef 183e ccba afbd c263 7e3e e52e 2cbd
000000b0: 5048 0bbd 8f60 503d bf2d be3d 0a41 c93c
000000c0: 5493 b8bd b516 8f3b 3693 833d 0714 873d
000000d0: db7a 633e b3fd bfbd 8b35 673e db5a 32be
000000e0: f8b6 8a3d 4548 85bd 3d14 27be 0018 243e
000000f0: 1faf c7bd 829d 16be 0685 263d b288 943d
00000100: a111 93bd 6f62 373d 5327 32be 340d 70bd
00000110: 8387 9ebe b512 c83d a195 f8bd 8866 143e
00000120: 5cdf 483e 3b5d c5bd 4966 8dbd b8ab c33d
00000130: 91c6 57be d6d7 8e3c 26ce c73d ace9 873d
00000140: 8084 193e e475 b9bd 9806 ec3d d3c9 70be
00000150: dad9 933d a295 773e 7857 193d ad28 ba3d
00000160: f532 bcbd 762f d83c 8ae3 52be 1d47 a5bd
00000170: ed42 a1bb 28a6 a6bd 3d13 c93d 242a 16be
00000180: e642 46be 956e ca3d a4b6 83bd fd7d 8abe
00000190: 8c19 8c3e 7093 ebbc 034c 253e 7e96 70be
000001a0: 1eba 3bbe e517 733e 7b36 85bc c34d e6bc
000001b0: 0eab b2bd 2cee 863d f0a9 03bd ccfd 46bd
000001c0: 63f8 8e3e 64a0 b6be f56c 813d 5b9f 97be
000001d0: 92f3 cd3d 0533 3d3e cad7 b5bd c8f7 e7bd
000001e0: 2f1f 85bc 4bd4 f63d 9d2a 52bd 23a8 11be
000001f0: 447f c93d 0f69 13be f908 d73d adc6 6ebe
00000200: 4593 17be 0b59 c23d 03d3 853d c2c2 53be
00000210: e735 4cbc 375b 03be 6c59 833e 7ffc 5cbd
00000220: 56b4 623d 9bca 70bd 66a5 55bd 80cc e73d
00000230: 0024 a0bd 332e 70be c17f 193e 2ec4 433e
00000240: 89e8 f5bd d4a9 2d3e 2fc7 4dbe a5a5 d6bc
00000250: ec53 1fbe a4c8 f0bd b87a edbb 819d 95be
00000260: a1ca 203d 0da8 65be d7f8 6c3e 494f 783e
00000270: 2ac0 d7bd 40a3 8f3e 106c 0abd 314f 8f3b
00000280: 1c0d 74be 1b0f 89bd 1f13 b9bd c669 31be
00000290: dca0 9f3b e9a8 9ebd 3368 45be 4acf 01bd
000002a0: e994 953d 4984 3dbd 5baf d23d 2fa8 1c3b
000002b0: 6f9c 1fbd 9394 68be 9d7a 07be d798 1ebe
000002c0: dfcb 883e 57a1 d7bd 6a2d 493e eee9 a63d
000002d0: 1430 1d3d 6fdb 663d 0de8 f7b9 1129 ecbd
000002e0: 80dd 5d3e d280 a8bd 343b 2fbe 6287 96be
000002f0: b40a 463e 6507 8d3d 910e 04be 1c7c 0f3e
00000300: d3fe f33c f5a3 483d bf6a 1e3e 807d 6cbe
00000310: 24b4 893e 140d 14be 9a50 b23e fe67 f53d
00000320: 0825 45bd 73e4 3a3e 2388 373e 8aaf a4be
00000330: a128 553e b5ac 56be 615b f33d d088 193d
00000340: 1ccb 443e ed03 d03d 3ceb 0c3e c27a 28be
00000350: ca84 163e d55f f53d 6711 2fbe 69f7 e4bd
00000360: e11a ed3c 6e2e 34be 2390 9a3d d4a2 b83d
00000370: ec46 a3bb 3d29 573d 5285 f43c e183 54be
00000380: f6d4 12bc b379 683c 30da d13d 8546 403d
00000390: c1b4 70bc dd76 143e 2c23 523e a23f 93bd
000003a0: 00a3 68bd b73a 593e 4027 61be dc0a 33be
000003b0: 6c91 b63b f2e9 2f3e 4c77 b2bd 8688 6cbc
000003c0: ab14 8dbd 35a3 303e 387e 08be a318 89be
000003d0: 782e ed3d a677 89bd 3cac 6fbe c125 0b3e
000003e0: 406d a23d 3ef7 743d 83af 2e3e 636d 6dbc
000003f0: 99b3 b4bd 6218 9abc c73b f83d ef8f 083e

gru0.weight_hh_l0 f4 [60, 20]
-0.038610134 -0.0071093636 0.094865285 -0.21613914 0.07400019 0.26342478 0.20240295 0.25201252
-0.09649804 -0.21458293 0.18251634 -0.01397222 0.07387961 -0.11504376 -0.3151961 0.021848546
0.09423356 -0.18074298 -0.17219725 0.0528168 0.22434616 0.17520905 0.18571423 0.16345392
0.22130527 -0.18120374 0.10261751 0.17508912 0.35954607 0.11447257 0.16550218 -0.19643699
-0.09004985 -0.019505862 0.0941104 -0.12292531 -0.022008395 -0.27092645 -0.17497422 0.123073444
-0.29680562 -0.28543591 0.36434078 0.043653235 0.04374087 -0.22510484 -0.07001758 -0.089013666
-0.33436954 -0.20413144 0.20657045 0.25416064 -0.3384822 0.0965604 -0.008239396 -0.120698206
0.0030136397 0.11823843 -0.25866288 0.31937602 0.19018273 0.12166953 -0.19204561 0.3452291
-0.053732842 -0.07396358 0.03732238 0.1030138 0.27851647 0.15031078 -0.079935074 -0.14436463
0.1493088 0.08108993 -0.13120423 0.26619363 -0.2001806 -0.041837256 -0.0728458 -0.035702545
0.30474618 0.11345254 -0.041565828 -0.15637982 -0.19421518 -0.15146242 -0.07218933 0.109858565
-0.13498633 0.103686824 0.3771405 -0.23721674 -0.13872708 0.06653762 -0.2137738 0.18070027
-0.1036943 -0.24217072 0.170868 -0.03329063 0.1239069 -0.1984458 -0.020117702 0.01263234
-0.04220629 -0.104234196 -0.13318306 0.014314539 0.11191958 -0.072744235 -0.15937333 -0.01813754
0.12817621 -0.041808352 0.08431285 0.16092551 -0.14479238 -0.18561633 0.032603726 0.028947035
-0.039391138 -0.104928486 0.20974864 -0.026913147 0.076636605 -0.08560102 -0.23472208 0.13444597
-0.10411957 -0.008821355 0.021303173 0.19374318 0.028070677 -0.01142139 0.005809582 0.11646276
-0.35562316 0.17176737 -0.15747198 -0.019104613 -0.24192627 0.036649976 -0.008457166 -0.20821492
0.31059632 -0.1591506 -0.20116597 -0.09797621 0.16754755 -0.08042083 -0.03744224 0.25745457
0.1851819 -0.091599494 0.0033955798 -0.016669055 0.038110405 -0.098396115 -0.10590773 -0.1726802
-0.28623658 0.051089488 -0.25552574 -0.10841841 -0.17885453 0.0008785543 -0.026414035 0.04337012
0.13499518 -0.03285651 0.13518412 0.19888929 0.27104735 -0.20627691 0.14868355 0.21455456
-0.34489152 -0.110747024 -0.17213811 -0.07143076 0.115430735 0.19534242 -0.13528393 -0.14888522
-0.00034497955 0.15042496 0.15020433 0.13261281 0.23902181 0.06318324 0.01088103 -0.42748892
-0.039301127 0.14415309 -0.3099173 0.0526825 0.10754782 0.10191892 0.3193596 -0.117145784
-0.025311736 0.072297476 0.056966137 0.04207273 -0.07270888 -0.18338819 -0.00040104386 0.1375936
0.24651171 -0.07124943 -0.25351518 0.17956902 -0.048065748 0.21543467 -0.18383682 0.024557369
0.031509805 -0.18434724 -0.099089935 0.053798728 0.11441674 0.0145671675 0.014851932 -0.0816201
-0.2747171 -0.106185906 0.05238021 0.17918724 0.028267693 0.28816244 0.26393554 0.09255814
-0.008828724 -0.19186078 -0.17464566 -0.0904515 -0.0958832 0.10094147 0.0348676 0.014677555
0.16817915 -0.1552619 0.24226359 -0.03203788 0.09519598 0.2330493 0.111103676 0.21004614
-0.24042208 0.07530547 0.20380504 0.18685234 -0.16308887 -0.13987672 0.09438508 -0.22128713
00000000: a925 1ebd aaf5 e8bb bb48 c23d 9453 5dbe
00000010: 698d 973d 9ddf 863e b842 4f3e c907 813e
00000020: c4a0 c5bd a1bb 5bbe 90e5 3a3e bdeb 64bc
00000030: 314e 973d 109c ebbd 6261 a1be b9fb b23c
00000040: 86fd c03d b014 39be 7a54 30be 6e56 583d
00000050: 00bb 653e 006a 333e df2b 3e3e 7760 273e
00000060: d99d 623e 798d 39be 2129 d23d 904a 333e
00000070: 6c16 b83e 9870 ea3d 6779 293e c726 49be
00000080: 0e6c b8bd c2ca 9fbc f4bc c03d 44c0 fbbd
00000090: f34a b4bc dfb6 8abe 712c 33be ee0d fc3d
000000a0: e8f6 97be a824 92be e08a ba3e bccd 323d
000000b0: a029 333d e281 66be 6165 8fbd cc4c b6bd
000000c0: 7c32 abbe d507 51be 3487 533e 5821 823e
000000d0: 8a4d adbe 76c1 c53d 88fe 06bc 9f30 f7bd
000000e0: 7c80 453b fd26 f23d 766f 84be 4185 a33e
000000f0: 43bf 423e e02d f93d 9ba7 44be dec1 b03e
00000100: f816 5cbd 387a 97bd 5adf 183d e6f8 d23d
00000110: b699 8e3e 12eb 193e 00b5 a3bd 52d4 13be
00000120: 68e4 183e 7a12 a63d 675a 06be 884a 883e
00000130: 25fc 4cbe 8b5d 2bbd 2e30 95bd d53c 12bd
00000140: b107 9c3e ce59 e83d ee40 2abd 0822 20be
00000150: 58e0 46be f718 1bbe 00d8 93bd 87fd e03d
00000160: db39 0abe c259 d43d 8f18 c13e f2e8 72be
00000170: 790e 0ebe e044 883d 85e7 5abe 7e09 393e
00000180: ad5d d4bd 9afb 77be 05f8 2e3e c15b 08bd
00000190: e7c2 fd3d 6035 4bbe e1cd a4bc e0f7 4e3c
000001a0: 81e0 2cbd bd78 d5bd 2461 08be 8787 6a3c
000001b0: 1836 e53d eefa 94bd c332 23be 2e95 94bc
000001c0: a040 033e 3c3f 2bbd 37ac ac3d a8c9 243e
000001d0: 7444 14be 3512 3ebe 7c8b 053d 5522 ed3c
000001e0: 9a58 21bd bfe4 d6bd 59c8 563e f678 dcbc
000001f0: a7f3 9c3d 964f afbd fc5a 70be 34ac 093e
00000200: a43c d5bd 7287 10bc fe83 ae3c 9d64 463e
00000210: 7af4 e53c c820 3bbc 4e5e be3b 0784 ee3d
00000220: 3d14 b6be c9e3 2f3e 5640 21be 4781 9cbc
00000230: 85bb 77be 491e 163d ed8f 0abc 4b36 55be
00000240: 7b06 9f3e 60f8 22be 74fe 4dbe c0a7 c8bd
00000250: 9691 2b3e adb3 a4bd 095d 19bd 16d1 833e
00000260: 53a0 3d3e 8498 bbbd 6088 5e3b 8b8d 88bc
00000270: a819 1c3d e783 c9bd 27e6 d8bd 14d3 30be
00000280: 9a8d 92be 3643 513d 45d4 82be 790a debd
00000290: a425 37be c84e 663a 3f62 d8bc dea4 313d
000002a0: 2d3c 0a3e 8c94 06bd b56d 0a3e a2a9 4b3e
000002b0: b8c6 8a3e 413a 53be 8040 183e 31b4 5b3e
000002c0: 9f95 b0be 56cf e2bd f944 30be 4a4a 92bd
000002d0: f366 ec3d d807 483e df87 0abe 5e75 18be
000002e0: 5fde b4b9 0009 1a3e 2acf 193e a7cb 073e
000002f0: 22c2 743e 3766 813d 5946 323c d4df dabe
00000300: 38fa 20bd de9c 133e 7bad 9ebe 9bc9 573d
00000310: 0842 dc3d deba d03d 1a83 a33e 21ea efbd
00000320: 8f5a cfbc b310 943d 5355 693d 7454 2c3d
00000330: 65e8 94bd 1dca 3bbe 3243 d2b9 56e5 0c3e
00000340: 916d 7c3e 39eb 91bd becc 81be f1e0 373e
00000350: 97e0 44bd e89a 5c3e b83f 3cbe 892c c93c
00000360: 6d10 013d 86c5 3cbe aaef cabd 0e5c 5c3d
00000370: 5353 ea3d 21ab 6e3c 8555 733c 7028 a7bd
00000380: b8a7 8cbe ff77 d9bd a28c 563d dc7c 373e
00000390: a691 e73c 078a 933e 8f22 873e 1f8f bd3d
000003a0: 5aa6 10bc 2777 44be 50d6 32be a33e b9bd
000003b0: 695e c4bd 67ba ce3d 54d1 0e3d 217a 703c
000003c0: 2837 2c3e fafc 1ebe f213 783e 273a 03bd
000003d0: 1cf6 c23d 7aa4 6e3e 538a e33d 5616 573e
000003e0: 3531 76be c139 9a3d 45b2 503e 3856 3f3e
000003f0: c500 27be d83b 0fbe f74c c13d 1899 62be

gru0.bias_ih_l0 f4 [60]
0.21598576 -0.022349445 0.1619994 0.075558096 0.008431876 0.20910646 -0.10417512 -0.08964393
0.20179614 -0.21970934 -0.1829963 -0.13340116 0.18610598 0.09668974 0.024669237 0.044960633
-0.15584637 0.036952246 0.27059326 0.16139607 -0.1629182 0.047561 0.10334988 0.11113996
0.18607664 0.0986186 -0.12664273 0.014333811 0.0630258 -0.03224679 -0.029962037 0.07948027
0.25068 -0.018395023 0.16982634 0.20982452 -0.12656492 0.08054421 0.02918046 0.08873536
0.18714581 0.10113127 -0.08797095 -0.091778494 0.012640589 -0.08977635 0.20835479 0.017662743
0.24538167 -0.05432796 -0.002425796 -0.19219875 -0.19165431 0.219292 0.09976326 -0.124872394
-0.2576526 -0.12338626 -0.035551857 -0.18492155
00000000: 5f2b 5d3e 2f16 b7bc 2ce3 253e 34be 9a3d
00000010: da25 0a3c 0120 563e c459 d5bd 3d97 b7bd
00000020: a6a3 4e3e 7cfb 60be 6263 3bbe 509a 08be
00000030: 9192 3e3e 4505 c63d 2417 ca3c a428 383d
00000040: 3196 1fbe 3d5b 173d 338b 8a3e 0345 253e
00000050: 07d4 26be 53cf 423d 1aa9 d33d 599d e33d
00000060: e08a 3e3e 8cf8 c93d a2ae 01be 5cd8 6a3c
00000070: ac13 813d 3615 04bd f272 f5bc 8dc6 a23d
00000080: 2159 803e 29b1 96bc f5e6 2d3e 3ddc 563e
00000090: 3c9a 01be 5df4 a43d dc0b ef3c e2ba b53d
000000a0: 27a3 3f3e e91d cf3d 1d2a b4bd 5df6 bbbd
000000b0: 791a 4f3c aadc b7bd f55a 553e 75b1 903c
000000c0: 5545 7b3e ff86 5ebd 1afa 1ebb c0cf 44be
000000d0: 0741 44be 158e 603e ae50 cc3d 19bd ffbd
000000e0: 0beb 83be efb1 fcbd d39e 11bd 135c 3dbe

gru0.bias_hh_l0 f4 [60]
-0.06768123 0.21662036 0.03636896 -0.03331009 -0.10679947 0.07967573 0.17042884 -0.07633666
0.13969792 -0.21114817 0.028616216 -0.21432146 -0.1665353 -0.04338199 0.14038341 0.021293232
0.07767061 -0.09347988 0.20692897 -0.062056877 0.14440005 -0.013009429 -0.041441694 -0.06285389
0.0938037 0.24751224 0.07174084 0.12189256 0.053240947 -0.1750346 0.2771348 -0.00892107
0.17569208 0.15035442 0.11268935 -0.13210602 -0.36538497 -0.123390935 -0.15126933 0.022462057
0.041249968 -0.15068206 -0.017235028 0.14766888 0.0012291959 -0.049407452 0.121355385 -0.016907511
0.087731175 0.2004991 0.01728265 -0.10481033 -0.19635417 -0.13604607 -0.2229388 0.21080305
0.12068749 0.05936187 0.15036495 0.09297116
00000000: 759c 8abd bad1 5d3e 9ef7 143d 2970 08bd
00000010: aeb9 dabd 072d a33d e684 2e3e 6556 9cbd
00000020: f90c 0f3e 3a37 58be 8e6c ea3c 1677 5bbe
00000030: 3b88 2abe 50b1 31bd abc0 0f3e 256f ae3c
00000040: c511 9f3d 6172 bfbd 30e5 533e 5a2f 7ebd
00000050: 9bdd 133e 8025 55bc c4be 29bd 8ab9 80bd
00000060: 271c c03d d973 7d3e ddec 923d cea2 f93d
00000070: 2e13 5a3d 453c 33be 9de4 8d3e ae29 12bc
00000080: a0e8 333e 82f6 193e adc9 e63d cd46 07be
00000090: bd13 bbbe 63b4 fcbd 59e6 1abe 5902 b83c
000000a0: baf5 283d 664c 1abe 7930 8dbc 8336 173e
000000b0: f81c a13a 785f 4abd 2c89 f83d 9f81 8abc
000000c0: 67ac b33d a34f 4d3e 5894 8d3c cca6 d6bd
000000d0: 1111 49be a94f 0bbe 124a 64be c1dc 573e
000000e0: 012b f73d 6f25 733d 45f9 193e aa67 be3d

gru0.weight_ih_l1 f4 [60, 20]
-0.23558551 -0.119354166 -0.09867128 0.15348543 -0.018430293 0.094712466 0.059834406 0.25400186
-0.1073461 0.20268713 -0.1018467 0.09726752 -0.05785091 -0.06671889 -0.016071713 0.24562499
-0.26485473 0.21681948 -0.17024201 -0.038858704 -0.13734503 0.14191504 0.06460159 -0.078642555
0.056507383 0.0523402 -0.20104872 0.20466256 -0.11119723 -0.17816983 -0.00066603324 -0.16475768
0.1859019 0.16628928 -0.34057826 0.17097855 -0.23145781 0.29003617 -0.017743666 0.15829705
0.021772262 0.023505 0.2638584 -0.12425899 0.33059305 -0.16793199 -0.21554783 0.18799445
-0.030220767 -0.29373562 0.23143423 5.0436634e-06 0.26091695 0.18019356 -0.17356978 0.08294372
-0.07314589 -0.2621153 -0.20748329 -0.19319984 0.22939244 -0.04114766 0.020616235 -0.09620158
0.056009825 -0.028815828 -0.037485223 0.07123509 0.100232236 -0.044827133 0.19693923 0.15401706
0.113341294 0.0989253 -0.061882403 -0.27978253 -0.11482233 -0.09573726 -0.21719329 -0.25145742
-0.18238096 -0.28605208 0.038245253 -0.06129157 0.22011867 -0.20829634 -0.10999458 -0.0057248245
0.04791549 0.09793218 -0.09370546 0.30721873 0.20455544 0.14633133 0.06867312 -0.06734916
0.022016706 0.10513202 -0.031975754 -0.32439047 0.2593793 0.17891195 -0.03711451 -0.07515007
0.07754286 0.18828095 0.16352043 -0.1268347 0.17279884 0.090863936 0.37231702 -0.050102998
0.07272918 0.23567148 -0.12186209 -0.035253406 -0.26124567 -0.13519458 -0.21601565 -0.07816229
0.17402926 0.11884497 0.12537774 -0.043835398 0.16677928 0.07453014 0.14050438 0.15993959
0.22253744 0.026284821 -0.065191336 -0.06608108 0.075553544 -0.032957017 -0.06272771 0.050637346
-0.34902343 -0.12988152 -0.09173728 0.22143759 -0.07163127 0.07373062 0.009392445 0.08825012
-0.03500479 0.09190999 0.14225851 0.0690607 -0.0068681836 -0.10162309 0.3688034 0.023980387
-0.08818642 0.08708985 -0.16358271 -0.06835855 -0.2747149 0.06410627 -0.36957866 0.18006633
0.03410019 -0.025424678 -0.048646424 0.12986393 -0.117656864 0.15701452 0.1355291 0.08351837
0.27350757 -0.24153967 -0.008821389 0.004746981 0.039774906 0.271513 -0.2682249 0.07479301
-0.09245826 0.13774562 -0.31815612 0.16972134 -0.02749677 0.19278058 -0.2425625 0.21473213
-0.0459459 -0.12987386 -0.13405086 0.22375984 0.18893288 0.020171333 -0.07773869 -0.18719544
0.16011047 0.13435563 -0.3348655 0.2920046 -0.18566477 0.11879293 -0.011972682 0.2978871
-0.016967082 0.07798688 -0.097773485 -0.013351318 -0.03644257 0.045533616 -0.08665938 0.007000416
-0.0635868 0.01334866 0.19144246 0.002807282 -0.012483553 0.17705517 -0.1938679 -0.14033145
-0.23796985 -0.047010925 -0.25299236 0.34573328 0.31225124 -0.05867257 -0.030479426 -0.018577227
0.045847654 0.02388048 0.032175455 -0.055933356 0.29660338 -0.2545888 0.052450486 0.26803282
0.11002905 0.15701492 0.19954313 0.08067047 -0.0727105 -0.18003468 -0.21630839 -0.19204058
-0.17032157 -0.21779042 -0.03585653 -0.055380844 0.1533264 -0.061438184 -0.07120416 0.060373455
-0.16809723 -0.13262407 -0.14976275 0.018484822 -0.12532976 -0.19105817 0.042388465 -0.38005105
00000000: 543d 71be f56f f4bd 2b14 cabd 492b 1d3e
00000010: 20fb 96bc 9cf8 c13d ec14 753d 880c 823e
00000020: 46d8 dbbd 378d 4f3e 0195 d0bd 3234 c73d
00000030: 13f5 6cbd eaa3 88bd d3a8 83bc 1e85 7b3e
00000040: 0a9b 87be ed05 5e3e ec53 2ebe 4e2a 1fbd
00000050: 2da4 0cbe 2d52 113e d74d 843d 590f a1bd
00000060: 4974 673d ad62 563d b7df 4dbe 1093 513e
00000070: 60bb e3bd 2772 36be bc98 2eba 3db6 28be
00000080: 115d 3e3e bd47 2a3e 4660 aebe 0015 2f3e
00000090: 4703 6dbe 9f7f 943e 2a5b 91bc 9f18 223e
000000a0: be5b b23c 8f8d c03c 7318 873e 7f7b febd
000000b0: 7e43 a93e 5df6 2bbe 92b8 5cbe 9e81 403e
000000c0: 8b91 f7bc 8464 96be 18fd 6c3e bd3c a936
000000d0: e896 853e a984 383e 47bc 31be 66de a93d
000000e0: 83cd 95bd fa33 86be 8076 54be 2ed6 45be
000000f0: dae5 6a3e 738a 28bd 61e3 a83c 5505 c5bd
00000100: 8f6a 653d 2c0f ecbc 1b8a 19bd b4e3 913d
00000110: 8f46 cd3d a89c 37bd 70aa 493e a6b6 1d3e
00000120: 7b1f e83d 5999 ca3d 6778 7dbd a83f 8fbe
00000130: f827 ebbd e611 c4bd eb67 5ebe 07bf 80be
00000140: 13c2 3abe 6b75 92be 0ea7 1c3d df0c 7bbd
00000150: ca66 613e a34b 55be d744 e1bd 4f97 bbbb
00000160: 0843 443d ab90 c83d a6e8 bfbd c64b 9d3e
00000170: fb76 513e e1d7 153e 7ea4 8c3d 5bee 89bd
00000180: 615c b43c 754f d73d 02f9 02bd 8216 a6be
00000190: 5dcd 843e b234 373e 6205 18bd 48e8 99bd
000001a0: cace 9e3d b9cc 403e e671 273e f5e0 01be
000001b0: 2ef2 303e df16 ba3d 56a0 be3e cd38 4dbd
000001c0: 09f3 943d dd53 713e d592 f9bd e065 10bd
000001d0: fec1 85be 7370 0abe 3533 5dbe 8d13 a0bd
000001e0: ba34 323e fe64 f33d 0663 003e bf8c 33bd
000001f0: 30c8 2a3e 42a3 983d 61e0 0f3e 34c7 233e
00000200: dbe0 633e 4453 d73c 0983 85bd 8455 87bd
00000210: d1bb 9a3d f0fd 06bd 6377 80bd 1b69 4f3d
00000220: 33b3 b2be a9ff 04be c1e0 bbbd 89c0 623e
00000230: 6ab3 92bd 1400 973d c5e2 193c 7bbc b43d
00000240: 2f61 0fbd 4e3b bc3d 37ac 113e b26f 8d3d
00000250: 800e e1bb c41f d0bd cdd3 bc3e 8472 c43c
00000260: 159b b4bd 2a5c b23d 3a82 27be 91ff 8bbd
00000270: 6ea7 8cbe 264a 833d 6a39 bdbe 4f63 383e
00000280: a4ac 0b3d 6a47 d0bc 7941 47bd 0dfb 043e
00000290: 15f6 f0bd 6ac8 203e 24c8 0a3e ae0b ab3d
000002a0: 2f09 8c3e 2d56 77be 9687 10bc 908c 9b3b
000002b0: 03eb 223d c003 8b3e c654 89be 142d 993d
000002c0: c25a bdbd 300d 0d3e 5ce5 a2be 6ecb 2d3e
000002d0: e840 e1bc 4668 453e 4e62 78be bde2 5b3e
000002e0: c531 3cbd a7fd 04be a144 09be 4d21 653e
000002f0: 9f77 413e 5a3e a53c 7635 9fbd 29b0 3fbe
00000300: 00f4 233e 8694 093e 7e73 abbe a081 953e
00000310: e81e 3ebe b549 f33d 1129 44bc a884 983e
00000320: 8dfe 8abc 96b7 9f3d 773d c8bd 7dbf 5abc
00000330: ce44 15bd 7581 3a3d 797a b1bd bf63 e53b
00000340: cc39 82bd 57b4 5a3c 7e09 443e 60fa 373b
00000350: d187 4cbc f34d 353e 4f85 46be 0cb3 0fbe
00000360: 5eae 73be 878e 40bd 3788 81be f403 b13e
00000370: 65df 9f3e a652 70bd fdaf f9bc 452f 98bc
00000380: c0ca 3b3d ffa0 c33c 69ca 033d 601a 65bd
00000390: 66dc 973e 7759 82be 52d6 563d 993b 893e
000003a0: e956 e13d 85c8 203e 0955 4c3e 8f36 a53d
000003b0: 3ee9 94bd 035b 38be f27f 5dbe 49a6 44be
000003c0: c768 2ebe 7404 5fbe 4cde 12bd 06d7 62bd
000003d0: 9901 1d3e 9ba6 7bbd 7dd3 91bd 284a 773d
000003e0: ae21 2cbe 9bce 07be 685b 19be 7b6d 973c
000003f0: 7256 00be c1a4 43be 879f 2d3d 0d96 c2be

gru0.weight_hh_l1 f4 [60, 20]
0.049003795 -0.08682952 0.19807205 0.0032073515 -0.13287356 -0.27042457 -0.05652228 -0.13201728
0.3241353 0.00578316 -0.09122244 0.19949919 0.17903264 0.114512704 0.31522927 -0.028419377
-0.2977576 0.17263207 0.027533699 -0.32631207 0.1287487 0.06003161 -0.08177343 0.3143215
-0.16758634 0.27917153 0.109380245 -0.014971038 0.004518237 0.019474408 0.0570747 0.18354738
0.1936457 0.20782712 0.21352746 0.0015090602 -0.12471914 0.20803078 0.063125096 0.1700826
0.097327515 -0.015150287 0.3262976 0.3188504 -0.075182304 0.24493755 0.09387459 -0.3851659
-0.18668725 0.10575608 -0.032317694 0.014209493 -0.2974665 0.19044925 0.24933426 0.16232511
0.02090768 -0.17839034 0.40088782 0.03435707 0.20811154 0.10593333 -0.03228308 0.31203005
-0.14296404 0.29321012 0.14136682 -0.415939 -0.28801745 -0.037126414 0.4239143 -0.116167374
-0.245586 0.31864795 -0.0894192 -0.0013378914 -0.043442633 -0.3161152 0.17477854 -0.0061912844
0.1989718 0.038542427 0.37011328 0.047133684 -0.2123154 0.22478528 0.16357875 -0.15950309
-0.027183907 0.24589634 0.25039712 0.1766188 -0.38511637 0.1233882 -0.0845674 -0.1566364
0.079571396 -0.04014688 0.20188206 -0.12659493 -0.0858378 0.024788411 -0.08116922 0.2679108
-0.09385857 0.23681776 0.13236985 -0.083102345 -0.021198643 0.01939989 0.027254025 0.09642997
-0.068944514 -0.07811144 0.027486974 0.13238397 -0.105462655 -0.11223045 0.19908316 0.035405733
0.36397076 0.2746667 -0.07264208 0.06706947 -0.106622085 -0.012662704 0.0004344641 0.041489106
-0.03762113 0.14806086 0.068876766 0.024970636 0.1935563 -0.10691387 0.19263807 0.13971902
0.007177051 -0.12432787 0.03543367 0.07386667 -0.03361701 -0.09906612 0.107361436 0.10546743
-0.109363586 0.31820908 -0.068495296 -0.10080989 -0.1438504 0.028691778 -0.10252262 -0.007500706
-0.1799501 0.19451651 -0.003520187 0.2756243 -0.13454473 -0.19077143 -0.11196716 0.21148753
0.14877775 -0.07635578 -0.14543039 0.37289494 -0.015258155 0.2142245 0.07132219 0.059052184
0.18084674 0.1674448 0.124342024 -0.058833476 -0.2039337 0.0831604 -0.019859236 0.04401615
-0.23600104 -0.12201502 0.18466185 0.17111939 0.1535741 0.0061232084 0.298246 0.18593003
-0.024354117 0.11859894 -0.07517974 0.19829701 -0.13058457 0.20843351 0.06951165 0.030782184
0.107273184 -0.22576322 -0.009001889 0.28234974 0.102668904 0.3103985 -0.21266529 -0.26031443
0.15323351 0.20455103 0.20466934 0.18243848 -0.29729983 0.2478549 -0.13488702 -0.33078673
0.06313234 -0.12198965 -0.20151764 -0.2973386 0.07637633 -0.096376024 -0.08861486 0.06609543
0.098614454 0.115995035 0.08328271 -0.015726566 -0.09757666 0.19565767 0.054143842 -0.0008684621
-0.13142918 -0.029022846 0.090926215 0.042029634 0.21373898 0.33999932 0.13132142 0.33192697
-0.14035513 -0.032728516 0.26232058 0.22516254 -0.00726263 -0.22211708 -0.044224698 0.3104021
0.40673414 0.06545505 0.023248032 0.05785785 0.00033407897 -0.020670136 0.3702854 -0.3934721
-0.1948617 -0.0028961576 0.14947718 -0.12154542 -0.105665855 0.034769118 -0.1698675 -0.15460044
00000000: 34b8 483d add3 b1bd 66d3 4a3e 6e32 523b
00000010: 0210 08be 1775 8abe e883 67bd 8a2f 07be
00000020: 10f5 a53e aa80 bd3b d5d2 babd 8449 4c3e
00000030: 5554 373e a385 ea3d bb65 a13e c1cf e8bc
00000040: af73 98be 76c6 303e 5a8e e13c 6012 a7be
00000050: b3d6 033e b5e3 753d d478 a7bd bfee a03e
00000060: c19b 2bbe 92ef 8e3e c002 e03d 1649 75bc
00000070: b80d 943b cb88 9f3c 29c7 693d d8f3 3b3e
00000080: 0f4b 463e a2d0 543e f1a6 5a3e a8cb c53a
00000090: c06c ffbd 0506 553e bb47 813d 222a 2e3e
000000a0: a653 c73d e938 78bc 7b10 a73e 5c40 a33e
000000b0: 2ef9 99bd e9d0 7a3e 5241 c03d 7734 c5be
000000c0: f12a 3fbe a596 d83d 8f5f 04bd efce 683c
000000d0: 874d 98be 2105 433e 7b51 7f3e 8e38 263e
000000e0: 9546 ab3c f5ab 36be 2b41 cd3e 00ba 0c3d
000000f0: 311b 553e 93f3 d83d 433b 04bd 67c2 9f3e
00000100: 2a65 12be a31f 963e 77c2 103e f5f5 d4be
00000110: 0677 93be de11 18bd 4c0b d93e 29e9 edbd
00000120: e57a 7bbe d325 a33e 6a21 b7bd 305c afba
00000130: e7f0 31bd dad9 a1be 25f9 323e 42e0 cabb
00000140: 43bf 4b3e aade 1d3d 7d7f bd3e 400f 413d
00000150: 3569 59be 1d2e 663e 3081 273e c754 23be
00000160: c9b0 debc 40cc 7b3e 0d34 803e 8fdb 343e
00000170: f92d c5be f4b2 fc3d ac31 adbd 4b65 20be
00000180: 54f6 a23d 0e71 24bd 2cba 4e3e 1aa2 01be
00000190: bacb afbd 1111 cb3c 0c3c a6bd 9b2b 893e
000001a0: ec38 c0bd 5b80 723e f68b 073e 9031 aabd
000001b0: c7a8 adbc 85ec 9e3c d543 df3c 137d c53d
000001c0: c832 8dbd e4f8 9fbd 5d2c e13c aa8f 073e
000001d0: cefc d7bd 14d9 e5bd 75dc 4b3e 9a05 113d
000001e0: 605a ba3e 1da1 8c3e 5fc5 94bd b85b 893d
000001f0: ae5c dabd 3b77 4fbc c9c8 e339 7bf0 293d
00000200: 9d18 1abd 449d 173e 430f 8d3d 388f cc3c
00000210: 9f33 463e a9f5 dabd ea42 453e 8112 0f3e
00000220: 782d eb3b 9c9f febd e522 113d 6947 973d
00000230: fdb1 09bd 2ee3 cabd 50e0 db3d 4fff d73d
00000240: 04fa dfbd 4dec a23e 4347 8cbd 6a75 cebd
00000250: 854d 13be 050b eb3c 61f7 d1bd 7bc8 f5bb
00000260: d744 38be 562f 473e f0b2 66bb a11e 8d3e
00000270: 18c6 09be 9659 43be 0a4f e5bd 3090 583e
00000280: 3259 183e 6b60 9cbd b4eb 14be 16ec be3e
00000290: 57fd 79bc ab5d 5b3e 5e11 923d b4e0 713d
000002a0: e32f 393e a676 2b3e 08a7 fe3d 5ffb 70bd
000002b0: ffd3 50be 0050 aa3d d6af a2bc 474a 343d
000002c0: 42aa 71be 03e3 f9bd ff17 3d3e ec39 2f3e
000002d0: 8742 1d3e 32a5 c83b b3b3 983e 7164 3e3e
000002e0: 4982 c7bc 00e4 f23d d6f7 99bd 5f0e 4b3e
000002f0: f6b7 05be 986f 553e 205c 8e3d eb2a fc3c
00000300: 0bb2 db3d 792e 67be a97c 13bc 2590 903e
00000310: 1344 d23d 8dec 9e3e eec4 59be ef47 85be
00000320: 3fe9 1c3e d375 513e d794 513e 27d1 3a3e
00000330: af37 98be adcd 7d3e d31f 0abe e15c a9be
00000340: 874b 813d b6d5 f9bd a45a 4ebe c43c 98be
00000350: 316b 9c3d cb60 c5bd b57b b5bd 0a5d 873d
00000360: 60f6 c93d ce8e ed3d 2090 aa3d 00d5 80bc
00000370: 46d6 c7bd 7c5a 483e efc5 5d3d 81a9 63ba
00000380: 5f95 06be 52c1 edbc 8637 ba3d 4427 2c3d
00000390: 64de 5a3e 6414 ae3e 1f79 063e 55f2 a93e
000003a0: 41b9 0fbe 560e 06bd e24e 863e 0291 663e
000003b0: 5bfb edbb a972 63be f524 35bd 06ed 9e3e
000003c0: 753f d03e 4c0d 863d a872 be3c 5afc 6c3d
000003d0: 5227 af39 6b54 a9bc 0c96 bd3e 2d75 c9be
000003e0: d389 47be 76cd 3dbb 8c10 193e ceec f8bd
000003f0: 5767 d8bd 106a 0e3d bff1 2dbe 944f 1ebe

gru0.bias_ih_l1 f4 [60]
0.14307266 0.24201612 0.08860917 -0.0020220499 -0.13138379 0.22680904 0.11814017 0.37916678
0.076847464 0.18913582 0.37174994 0.3500254 -0.118532985 0.07832366 0.0072470717 0.28104144
-0.046407226 0.19046277 -0.01597459 0.107064046 -0.22153951 -0.09946392 0.0002305698 -0.22462445
0.009544386 0.3303064 0.12628393 0.10089691 0.0032503575 0.3012495 -0.030326553 -0.016276576
0.32272026 -0.38128936 -0.04195167 0.019360572 -0.16079438 0.4760717 -0.37867016 -0.08437819
0.16591033 0.07291966 -0.16510691 0.12485942 -0.047816534 -0.12607835 -0.1299556 -0.05264741
-0.12296757 0.08735145 0.13697217 -0.037525043 -0.11718553 0.010546004 -0.027982237 0.14591616
-0.22173528 -0.084168494 -0.05380098 0.03521554
00000000: a481 123e 13d3 773e b978 b53d 5e84 04bb
00000010: 7989 06be a140 683e 79f3 f13d 2622 c23e
00000020: 3462 9d3d d2ac 413e 0256 be3e 8736 b33e
00000030: 6cc1 f2bd 2868 a03d d878 ed3b aae4 8f3e
00000040: 8115 3ebd ac08 433e 25dd 82bc 6544 db3d
00000050: 41db 62be bdb3 cbbd 1cc5 7139 f403 66be
00000060: 0e60 1c3c ec1d a93e 9350 013e 0aa3 ce3d
00000070: f303 553b 603d 9a3e 646f f8bc 7456 85bc
00000080: 973b a53e 5c38 c3be 84d5 2bbd 109a 9e3c
00000090: 48a7 24be abbf f33e 0ee1 c1be 79ce acbd
000000a0: 66e4 293e e756 953d c911 29be 4cb6 ff3d
000000b0: 45db 43bd af1a 01be 1513 05be d0a4 57bd
000000c0: 6cd6 fbbd 51e5 b23d 6f42 0c3e dcb3 19bd
000000d0: f8fe efbd 26c9 2c3c 013b e5bc 0c6b 153e
000000e0: 930e 63be 8860 acbd 6b5e 5cbd 2c3e 103d

gru0.bias_hh_l1 f4 [60]
-0.14035065 0.31507888 0.3121958 -0.035613034 -0.15803042 0.29305533 0.030801332 0.21472307
0.24406372 -0.022371601 0.038986236 -0.0103253275 0.22214279 0.03671908 0.368281 -0.03043762
0.3490658 0.30107817 0.2630016 0.22847247 -0.6262725 -0.2120434 0.0010083287 0.051425025
-0.11172953 0.31761628 0.20870292 -0.065393545 0.06665711 0.020719312 0.08694845 0.14179711
0.21342598 -0.19807637 0.02124187 -0.05866429 -0.30580124 0.0774027 -0.11091716 -0.31156105
0.019696295 -0.11930049 0.22503999 0.12590449 0.046277296 0.18458258 0.0056834384 -0.008662932
-0.24822895 0.1910091 -0.03816162 -0.1060868 -0.019680519 0.18654326 0.18074836 -0.04189793
0.213298 -0.19435403 0.12333985 -0.22392704
00000000: 15b8 0fbe 0552 a13e 21d8 9f3e f9de 11bd
00000010: bad2 21be 590b 963e 1353 fc3c 5de0 5b3e
00000020: d7eb 793e a644 b7bc 08b0 1f3d 902b 29bc
00000030: 6679 633e bf66 163d 548f bc3e 5158 f9bc
00000040: c1b8 b23e eb26 9a3e 25a8 863e b0f4 693e
00000050: 6553 20bf e821 59be e629 843a 0ca3 523d
00000060: 74d2 e4bd 9a9e a23e 38b6 553e 0ded 85bd
00000070: 8683 883d 8cbb a93c 0712 b23d 4333 113e
00000080: 578c 5a3e 88d4 4abe 6e03 ae3c f749 70bd
00000090: fb91 9cbe 4f85 9e3d 8928 e3bd ee84 9fbe
000000a0: 205a a13c d153 f4bd e270 663e 1bed 003e
000000b0: 438d 3d3d 3703 3d3e 233c ba3b f8ee 0dbc
000000c0: bb2f 7ebe e497 433e 5c4f 1cbd 0944 d9bd
000000d0: 0a39 a1bc 3205 3f3e 1916 393e 2a9d 2bbd
000000e0: ca6a 5a3e be04 47be 9a99 fc3d 214d 65be

gru1.weight_ih_l0 f4 [30, 20]
-0.10566376 -0.09924426 -0.0019020081 0.43170494 -0.31968302 -0.14991514 0.38183168 0.15426254
0.4244471 0.10234607 0.020729108 0.3275831 0.11195809 0.123825215 0.45179453 0.110178955
0.010747927 0.0518192 0.17010912 -0.10676761 0.022923017 -0.12623383 -0.23158363 0.24039347
0.27532834 0.014680672 -0.17353177 0.47797072 -0.14670107 -0.0097659705 0.2141176 -0.069144905
0.14576638 0.22310169 0.0029243915 0.18103595 0.1018933 0.3277479 0.0065222355 0.065873705
-0.13776143 0.3551247 0.29729992 -0.0517437 -0.029086802 -0.22492303 -0.053858496 0.049215965
0.15061192 0.025219958 -0.032002963 -0.24485753 -0.14702481 0.052564587 0.17924508 0.055838827
0.22214133 -0.09792236 0.062307365 -0.33098876 -0.080056176 -0.05757512 -0.4282391 -0.06879276
-0.29263493 -0.056141075 -0.0012485448 0.4962497 -0.14134467 -0.39569402 -0.101394854 0.01371354
0.1997481 0.040495217 -0.23475364 -0.41997322 -0.2677392 0.05642146 -0.13617478 0.03515011
0.291268 -0.1793363 0.15446024 -0.16117503 -0.2410301 0.27733713 -0.20648742 -0.22124149
0.39403164 -0.14854437 -0.117231704 0.24140495 -0.2112332 -0.27949953 0.28761712 -0.012939186
0.11445536 0.1259402 -0.11996516 -0.1682739 0.07716265 0.23711114 0.11684366 0.19516368
-0.14442527 0.5200536 0.17245552 -0.23091057 -0.020317229 0.27566135 0.036281087 0.09587114
-0.44682834 0.1864114 0.06549998 -0.00060302805 0.019575093 0.063691854 0.2895844 0.2572256
0.055576984 -0.028598892 0.20100802 0.32241395 -0.35750717 0.3265713 0.06553467 -0.30221048
-0.20067137 -0.00039006412 0.33766988 0.045857027 -0.25665152 0.08121771 -0.11776247 -0.4322572
-0.067725584 -0.18778501 0.31330448 -0.11941232 0.37068987 0.1307407 -0.12997428 0.33965623
-0.1804912 -0.11716943 0.014802193 -0.23427188 -0.4334558 -0.20370731 0.10654336 -0.5158251
0.41290036 0.17684387 -0.104967564 0.011157863 -0.21124136 -0.30434775 -0.00054945465 -0.07092265
-0.121474564 -0.10159501 0.10906285 0.050809015 0.06132337 -0.31542122 -0.17551488 0.17397763
-0.022713395 -0.35433015 0.05562135 0.0097697675 0.3594139 0.19334051 0.22383831 0.32325464
0.39916804 0.3507578 -0.3438625 0.09305152 0.45115438 -0.033084597 -0.053833544 -0.057339936
0.06745388 0.33569768 0.12974909 -0.41555655 -0.17414111 0.15027437 0.2065641 -0.38135228
0.15305229 0.28364313 -0.17621645 -0.08107885 0.043324925 -0.44003314 0.090304874 0.2979135
-0.29202822 -0.06290063 -0.3599671 -0.34121564 0.21140443 -0.3039827 -0.055500858 0.19544414
0.29598126 0.003651076 -0.20251486 -0.11029589 0.22809191 0.24622828 -0.39076114 -0.26142064
-0.18108217 0.23472907 -0.10892569 0.20357294 -0.07223671 -0.5194036 0.037833907 -0.057130616
-0.5686639 -0.15724038 -0.4636043 0.57479024 -0.42326626 -0.24176398 -0.40591568 0.075019
0.20628135 -0.5773859 0.043156512 0.34910944 -0.52043587 0.58095026 -0.65008134 -0.45700088
-0.41364822 0.1268808 -0.1766156 -0.018027037 -0.19444042 -0.11288627 0.10748917 -0.050535172
0.07018704 -0.042047475 -0.30382195 -0.23047557 0.2685993 0.2739006 -0.20373316 -0.14787735
00000000: 3e66 d8bd 9340 cbbd cd4c f9ba 6e08 dd3e
00000010: 7ead a3be 5b83 19be 717f c33e 00f7 1d3e
00000020: 2151 d93e d19a d13d 17d0 a93c f9b8 a73e
00000030: 484a e53d 1398 fd3d 9d51 e73e 81a5 e13d
00000040: 1318 303c 5f40 543d 1631 2e3e faa8 dabd
00000050: 0dc9 bb3c 7143 01be 4224 6dbe b529 763e
00000060: d6f7 8c3e 3487 703c 50b2 31be 94b8 f43e
00000070: ce38 16be 7301 20bc a541 5b3e d89b 8dbd
00000080: c843 153e c574 643e 26a7 3f3b 7d61 393e
00000090: 6fad d03d 93ce a73e 7ab8 d53b cbe8 863d
000000a0: 5511 0dbe e8d2 b53e b237 983e 34f1 53bd
000000b0: 7247 eebc 3952 66be ba9a 5cbd ae96 493d
000000c0: 033a 1a3e 169a ce3c 8a15 03bd efbb 7abe
000000d0: ac8d 16be f74d 573d 068c 373e 41b7 643d
000000e0: 0479 633e 858b c8bd 0236 7f3d 5c77 a9be
000000f0: 7ef4 a3bd e4d3 6bbd 2842 dbbe 38e3 8cbd
00000100: 3fd4 95be 2ff4 65bd 36a6 a3ba 7114 fe3e
00000110: a8bc 10be 6898 cabe 1ba8 cfbd c1ae 603c
00000120: c48a 4c3e 50de 253d 4263 70be bb06 d7be
00000130: 1d15 89be 301a 673d 6771 0bbe 90f9 0f3d
00000140: 1421 953e efa3 37be d32a 1e3e 110b 25be
00000150: 98d0 76be 22ff 8d3e 7071 53be 218d 62be
00000160: 84be c93e 041c 18be 2d17 f0bd dc32 773e
00000170: 844d 58be 901a 8fbe 8d42 933e e1fe 53bc
00000180: 9267 ea3d 78f6 003e 4bb0 f5bd fe4f 2cbe
00000190: 7407 9e3d 43cd 723e bb4b ef3d fdd8 473e
000001a0: 38e4 13be 3c22 053f 2e98 303e d273 6cbe
000001b0: 5170 a6bc 7c23 8d3e 7a9b 143d 1758 c43d
000001c0: afc6 e4be a1e2 3e3e da24 863d 8714 1eba
000001d0: f25b a03c e070 823d 6844 943e 13b3 833e
000001e0: b1a4 633d 3948 eabc 0cd5 4d3e 7113 a53e
000001f0: 2e0b b7be 5a34 a73e 0b37 863d 55bb 9abe
00000200: cc7c 4dbe 8581 ccb9 11e3 ac3e 94d4 3b3d
00000210: d467 83be 7955 a63d 732d f1bd d150 ddbe
00000220: b6b3 8abd b74a 40be 7269 a03e 728e f4bd
00000230: 10cb bd3e e4e0 053e fa17 05be 6ce7 ad3e
00000240: afd2 38be 87f6 efbd e684 723c f8e4 6fbe
00000250: ebed ddbe a698 50be 6833 da3d 1d0d 04bf
00000260: ad67 d33e 8f16 353e 3cf9 d6bd 78cf 363c
00000270: a84f 58be 78d3 9bbe 4709 10ba e53f 91bd
00000280: a8c7 f8bd 0b11 d0bd 585c df3d 1d1d 503d
00000290: 372e 7b3d e47e a1be 2cba 33be 3127 323e
000002a0: 7111 babc c36a b5be 36d3 633d 6011 203c
000002b0: 1905 b83e 0efb 453e df35 653e a281 a53e
000002c0: c15f cc3e 8796 b33e bf0e b0be cc91 be3d
000002d0: b5fd e63e b783 07bd 9080 5cbd 48dd 6abd
000002e0: 4325 8a3d 91e0 ab3e f2dc 043e d4c3 d4be
000002f0: 0c52 32be 86e1 193e 8a85 533e 9b40 c3be
00000300: bdb9 1c3e ac39 913e 1672 34be ab0c a6bd
00000310: 7a75 313d 064c e1be c3f1 b83d 1e88 983e
00000320: b984 95be 0cd2 80bd 9c4d b8be d1b3 aebe
00000330: 677a 583e 9fa3 9bbe de54 63bd 8222 483e
00000340: db8a 973e e446 6f3b 0e60 4fbe d0e2 e1bd
00000350: ed90 693e 4423 7c3e d811 c8be edd8 85be
00000360: 9b6d 39be d15c 703e 6f14 dfbd 6d75 503e
00000370: d7f0 93bd a2f7 04bf baf7 1a3d cb01 6abd
00000380: f593 11bf 9f03 21be 8b5d edbe 7425 133f
00000390: 5bb6 d8be fa90 77be 2ed4 cfbe 90a3 993d
000003a0: 6b3b 533e 90cf 13bf e2c4 303d 79be b23e
000003b0: 493b 05bf 28b9 143f bb6b 26bf 05fc e9be
000003c0: b3c9 d3be 0aed 013e b8da 34be 70ad 93bc
000003d0: 641b 47be eb30 e7bd 4823 dc3d f8fd 4ebd
000003e0: 39be 8f3d f939 2cbd 8d8e 9bbe ca01 6cbe
000003f0: d985 893e b33c 8c3e 6d9f 50be 296d 17be

gru1.weight_hh_l0 f4 [30, 10]
-0.053025458 0.06654704 0.32785964 -0.046299607 -0.013070716 0.07008579 0.29242322 -0.4146932
-0.07192148 -0.30970415 0.24994561 -0.30902132 0.2454596 0.057066124 0.16039528 0.28937298
-0.40629742 0.17458032 0.07230162 0.22777602 0.13088988 0.1411591 0.13093463 -0.23128895
0.015617721 0.07110727 -0.2893599 0.06436994 -0.20263728 -0.24322996 -0.39644355 -0.17045364
0.13932005 -0.05742188 0.2745373 -0.2871396 -0.5311942 0.008756944 0.009994853 0.42653877
0.3530846 0.46521738 0.13087039 -0.0039740847 -0.34710187 -0.32598475 0.057754446 -0.3891208
-0.14196064 -0.059482817 0.19602789 -0.37191117 -0.1582868 0.17280456 -0.05819625 0.21068949
0.07041893 0.30438313 0.36237642 -0.19913551 0.24983914 -0.45056248 0.0051187454 0.1394562
0.10293387 0.010120998 0.0731483 0.43451312 0.034564074 0.2787871 -0.33622208 0.32109553
0.14402375 -0.6090261 0.36933157 0.019609194 0.11461954 0.06918571 -0.04039535 0.105528764
-0.22474174 0.18358962 0.012740058 -0.14143208 -0.0266989 -0.53352135 0.06370946 0.32195258
-0.16396512 0.1615376 0.12945433 -0.16713013 -0.4023026 -0.025555708 -0.14524773 0.2135064
-0.12252929 0.2822763 0.26579455 0.20002955 0.3323443 -0.13121869 0.27410117 0.020605113
0.18961895 -0.21630503 -0.12436598 0.05038852 0.18519121 -0.073262796 -0.30682307 0.2828777
0.11461958 -0.40009055 -0.017936243 -0.49019438 -0.50246394 -0.11880622 -0.34577158 -0.20273054
0.2973599 -0.16884284 -0.22200076 -0.20551851 -0.15072975 0.05378548 0.3294268 0.14140108
-0.2179501 -0.074825756 0.28044298 -0.18544413 0.102807924 -0.23160426 -0.08684469 0.23962192
-0.29524502 -0.31322134 -0.010704564 -0.08088045 0.13268664 -0.24417095 0.2753224 -0.096042454
-0.025137141 0.039135896 -0.18255928 0.42996258 -0.16381755 -0.25481018 0.21329358 -0.5802712
-0.4084539 0.5271537 -0.21943471 -0.24740271 0.6575139 -0.14366472 -0.12987441 -0.17567551
-0.227592 0.20903772 -0.07609526 -0.3708776 0.14951675 0.24963547 0.3954707 0.5278162
-0.27169335 0.38561064 0.007882114 -0.11516156 -0.21492115 0.2737506 0.078248106 -0.07439903
-0.039233662 -0.12680757 -0.11393328 0.17282854 0.2790757 -0.50253487 -0.14989662 0.63871014
-0.74057144 -0.06999588 0.58461297 -0.34888506 0.06766048 -0.43626398 -0.10484583 -0.18803291
-0.034117233 -0.31896487 0.05897098 0.15850846 -0.1708241 0.22106017 -0.080369025 0.104113296
0.32610542 -0.10031309 0.24953973 0.5473825 -0.041871116 -0.04818669 -0.1273531 -0.28770512
0.40200436 0.18802895 0.071897306 0.098327264 0.39738855 -0.31926173 -0.31808698 -0.33765677
0.036003247 -0.1400248 -0.1956702 -0.20203918 0.20432368 0.03503952 0.29059127 -0.15867886
0.13947207 -0.054966405 -0.22394815 -0.3268755 0.038994264 0.067527175 -0.09497247 -0.3141377
-0.44065285 0.40631998 0.15619078 -0.109158844 0.30454442 0.31266046 0.5144144 0.1407935
-0.3825851 0.23719995 0.019373534 -0.41896033 0.24166538 -0.069175735 -0.061910357 -0.1978593
-0.16463909 0.1034774 -0.21513474 0.028051095 -0.32058844 0.20897439 0.35371354 -0.020726888
00000000: 3931 59bd d149 883d 38dd a73e a8a4 3dbd
00000010: 8e26 56bc 2389 8f3d 7fb8 953e ab52 d4be
00000020: 924b 93bd 8b91 9ebe bef1 7f3e 0b38 9ebe
00000030: c359 7b3e 2bbe 693d a93e 243e b228 943e
00000040: 3706 d0be 2fc5 323e df12 943d 1e3e 693e
00000050: ff07 063e 038c 103e ba13 063e 03d7 6cbe
00000060: 78e1 7f3c b0a0 913d fb26 94be 63d4 833d
00000070: 2680 4fbe 4611 79be a6fa cabe 668b 2ebe
00000080: eaa9 0e3e 3533 6bbd 2790 8c3e f603 93be
00000090: 58fc 07bf 4979 0f3c 74c1 233c 4a63 da3e
000000a0: 81c7 b43e f930 ee3e e302 063e 0a39 82bb
000000b0: 56b7 b1be 79e7 a6be ed8f 6c3d d73a c7be
000000c0: 215e 11be 41a4 73bd 89bb 483e 246b bebe
000000d0: ef15 22be aef3 303e 315f 6ebd fcbe 573e
000000e0: cd37 903d 1bd8 9b3e 6789 b93e 2eea 4bbe
000000f0: d5d5 7f3e 20b0 e6be 26bb a73b 9bcd 0e3e
00000100: fece d23d 8bd2 253c c7ce 953d 8178 de3e
00000110: 0f93 0d3d 2fbd 8e3e 4d25 acbe a266 a43e
00000120: f67a 133e 22e9 1bbf 0719 bd3e 76a3 a03c
00000130: a6bd ea3d 3db1 8d3d 9875 25bd 771f d83d
00000140: b322 66be ebfe 3b3e adbb 503c 92d3 10be
00000150: a7b7 dabc db94 08bf 1b7a 823d f8d6 a43e
00000160: 79e6 27be 1d6a 253e ad8f 043e 2924 2bbe
00000170: 9bfa cdbe 345a d1bc d2bb 14be 6ca1 5a3e
00000180: a3f0 fabd 8586 903e 3916 883e 8cd4 4c3e
00000190: 0829 aa3e 315e 06be fd56 8c3e 0ecc a83c
000001a0: 782b 423e 117f 5dbe 97b3 febd 3164 4e3d
000001b0: c4a2 3d3e ce0a 96bd ea17 9dbe 59d5 903e
000001c0: acbd ea3d abd8 ccbe 07ef 92bc c2fa fabe
000001d0: 7aa1 00bf ad50 f3bd f908 b1be 9898 4fbe
000001e0: 8f3f 983e 23e5 2cbe 2b54 63be 7273 52be
000001f0: e658 1abe 2a4e 5c3d a1aa a83e 72cb 103e
00000200: 502e 5fbe 3f3e 99bd 3996 8f3e 11e5 3dbe
00000210: f68c d23d ab29 6dbe a1db b1bd 735f 753e
00000220: 5b2a 97be 8c5e a0be 3262 2fbc a6a4 a5bd
00000230: 02df 073e f307 7abe 0ff7 8c3e e8b1 c4bd
00000240: 68ec cdbc f64c 203d d2f0 3abe 0e24 dc3e
00000250: cabf 27be 7b76 82be a269 5a3e a78c 14bf
00000260: df20 d1be 8bf3 063f 7eb3 60be 2357 7dbe
00000270: d552 283f d81c 13be ccfd 04be 48e4 33be
00000280: e10d 69be fc0d 563e d5d7 9bbd abe3 bdbe
00000290: eb1a 193e 71a0 7f3e 237b ca3e f61e 073f
000002a0: 641b 8bbe c26e c53e fb23 013c d3d9 ebbd
000002b0: 4a14 5cbe 0a29 8c3e 8b40 a03d 855e 98bd
000002c0: 7ab3 20bd d8d9 01be da55 e9bd f7f9 303e
000002d0: 03e3 8e3e 20a6 00bf 807e 19be 8282 233f
000002e0: 1796 3dbf 005a 8fbd 32a9 153f 10a1 b2be
000002f0: 9491 8a3d fe5d dfbe 69b9 d6bd b38b 40be
00000300: 83be 0bbd 5d4f a3be 8e8b 713d 0b50 223e
00000310: 83ec 2ebe 995d 623e 8498 a4bd 5a39 d53d
00000320: 4af7 a63e f370 cdbd 5887 7f3e 4221 0c3f
00000330: 0c81 2bbd 685f 45bd da68 02be 164e 93be
00000340: 84d3 cd3e a98a 403e e53e 933d ce5f c93d
00000350: 8376 cb3e 4676 a3be 4cdc a2be 59e1 acbe
00000360: 2478 133d a962 0fbe c55d 48be 5ce3 4ebe
00000370: 3a3a 513e 9a85 0f3d 61c8 943e b67c 22be
00000380: c4d1 0e3e 7424 61bd aa52 65be 3a5c a7be
00000390: 73b8 1f3d b04b 8a3d ed80 c2bd a8d6 a0be
000003a0: 409d e1be 2c09 d03e 7af0 1f3e ac8e dfbd
000003b0: 3fed 9b3e 0815 a03e aab0 033f 2c2c 103e
000003c0: 32e2 c3be 8be4 723e 3fb5 9e3c f881 d6be
000003d0: 2177 773e 02ac 8dbd b795 7dbd a19b 4abe
000003e0: 2697 28be f6eb d33d 484c 5cbe 69cb e53c
000003f0: 2b24 a4be 62fd 553e f119 b53e 6fcb a9bc

gru1.bias_ih_l0 f4 [30]
0.08835243 0.12594178 0.053216424 -0.2222033 0.34338555 0.17498718 0.06268915 0.38291335
0.14633463 -0.106889695 0.14407513 0.16614771 -0.20583417 -0.44850582 0.20254768 0.184246
-0.23078012 0.004687592 -0.1720925 -0.10342337 -0.20078725 -0.0959191 0.02010699 0.14582165
0.18776217 0.0066592335 0.10549383 -0.22123559 -0.099664696 -0.13656966
00000000: 1ef2 b43d e2f6 003e 77f9 593d 4389 63be
00000010: 3bd0 af3e d72f 333e 2b63 803d 380d c43e
00000020: bfd8 153e fce8 dabd 6e88 133e a022 2a3e
00000030: 31c6 52be 8ea2 e5be a968 4f3e fcaa 3c3e
00000040: a051 6cbe 5f9a 993b 0439 30be a2cf d3bd
00000050: 2c9b 4dbe 3c71 c4bd 6ab7 a43c 4552 153e
00000060: ba44 403e b335 da3b 260d d83d 958b 62be
00000070: 011d ccbd ebd8 0bbe

gru1.bias_hh_l0 f4 [30]
0.25198185 0.17626934 -0.08621954 -0.07256259 0.30560634 -0.11548706 0.30702448 0.08764258
0.072226055 -0.099963024 -0.10634353 0.17484273 -0.04124428 -0.22121891 -0.20091245 0.5353157
0.22241384 -0.33894417 -0.29761457 -0.042174872 -0.26662254 0.31378424 -0.08684641 -0.34729087
-0.09970277 0.19048181 -0.14049867 -0.1140939 -0.26421133 0.24458961
00000000: c403 813e f37f 343e df93 b0bd b29b 94bd
00000010: 6f78 9c3e 7b84 ecbd 5032 9d3e f47d b33d
00000020: 41eb 933d 6ab9 ccbd a3ca d9bd f909 333e
00000030: c3ef 28bd 3687 62be febb 4dbe 730a 093f
00000040: 74c0 633e 178a adbe f060 98be 8fbf 2cbd
00000050: c082 88be 54a8 a03e 88dc b1bd 1cd0 b1be
00000060: f730 ccbd aa0d 433e e2de 0fbe 10aa e9bd
00000070: b546 87be b375 7a3e

lin0.weight f4 [6, 10]
-0.41904753 0.4387296 -0.335236 -0.5582468 0.4483871 0.27289173 0.6139303 -0.44960243
0.4118066 -0.6419243 0.68377936 -0.67728496 -0.3547493 0.34469017 -0.46178657 -0.30790198
0.6651662 -0.37054923 -0.23214696 -0.6065098 0.10791246 -0.43355072 -0.33683532 0.51308286
0.39457074 0.319986 -0.50353473 0.6751881 0.3509823 0.627048 -0.4053936 0.1379824
0.6328712 -0.5786963 0.11069018 -0.65892315 -0.5003676 -0.38064083 -0.64771783 0.15279466
-0.27543074 0.49869573 -0.4011753 -0.5298499 0.42329514 -0.5711905 0.526828 0.6554149
-0.56808686 0.5460144 0.590041 0.5335037 0.68584687 0.50647557 -0.5968408 0.19222076
-0.23014337 -0.21913148 0.4979841 -0.4821991
00000000: 668d d6be 2ba1 e03e 0ea4 abbe 43e9 0ebf
00000010: fe92 e53e 77b8 8b3e 892a 1d3f 4a32 e6be
00000020: 51d8 d23e 2755 24bf 2a0c 2f3f 8c62 2dbf
00000030: b3a1 b5be 3b7b b03e 4a6f ecbe 54a5 9dbe
00000040: 5548 2a3f a1b8 bdbe efb7 6dbe 3a44 1bbf
00000050: 3501 dd3d 5cfa ddbe ae75 acbe 6659 033f
00000060: 2d05 ca3e 34d5 a33e a7e7 00bf 21d9 2c3f
00000070: f4b3 b33e 3886 203f c08f cfbe 424b 0d3e
00000080: d903 223f 7125 14bf 88b1 e23d 30af 28bf
00000090: 1718 00bf 5be3 c2be d6d0 25bf 3476 1c3e
000000a0: 4205 8dbe 0c55 ff3e d966 cdbe 3ea4 07bf
000000b0: 24ba d83e 8a39 12bf 33de 063f 45c9 273f
000000c0: 246e 11bf 9ac7 0b3f ed0c 173f b393 083f
000000d0: a993 2f3f 62a8 013f 8fca 18bf 85d5 443e
000000e0: b4aa 6bbe 0164 60be c6f7 fe3e cde2 f6be

lin0.bias f4 [6]
-0.25776684 0.20524047 -0.06002445 0.17322014 -0.16620402 0.016789975
00000000: 04fa 83be 8f2a 523e 33dc 75bd 9f60 313e
00000010: 6331 2abe 218b 893c
