saved/pretrain_base_shoaib_20_120/shoaib.pt (torch, 260183 bytes, 29 tensors)

transformer.embed.lin.weight f4 [72, 6]
00000000: 3093 1d3e df8d f53e e40b d3be 560f 38bd
00000010: c078 bfbe 61a5 d7bd a212 28bf 4234 4cbd
00000020: 119f 9bbe 1eda 7fbe 1d86 7b3e a637 5e3f
00000030: 09a1 26bf 04b4 503f 0edc 4fbd 64cd a83e
00000040: af9f e9be ecbc 0f3f 8f20 e5be d33b d73e
00000050: 87ab 633f 4898 853d c20a 543e 992b 103f
00000060: 1717 b53e 6e99 7c3e b4b5 693f 8acd 293f
00000070: a655 073f 9b35 2a3e 683d f3be 0998 013f
00000080: a076 643e 8904 233f 239d b3be 109d ebbe
00000090: 585e 81be a189 2c3f b3de 9bbf 6dce 093d
000000a0: 5e6f 1f3e 3799 5b3e 7427 403f 84e7 7fbe
000000b0: fd13 88bf e898 babc 7ccb 6ebd 90e5 95bd
000000c0: eeec 0dbf a200 61be e408 ec3e 2cbe 133e
000000d0: baf9 e13e 7384 c6bd d72e ab3f 54a4 c9be
000000e0: d043 983e 92c0 d9bd b369 80be cf15 ac3e
000000f0: b754 54bc eb80 43bd 4758 303d 7307 713d
00000100: 5344 f73c fe79 e5bc da0f 26bf dcdf 2fbf
00000110: 5fbb 43bf 73c5 fa3d 0ea2 143d c856 493d
00000120: becd 323e 6f8b 5ebf 5ea9 723f f36d f73d
00000130: 9061 08be 37b1 813d 716a 8d3e 4aed 873e
00000140: 9218 be3d e18c a7be bc75 15be 2b0a c7be
00000150: 6394 233f 58e1 6e3f 58f8 af3e e838 753f
00000160: a093 90be b3e1 a4bd 5d05 3abf 3406 82bf
00000170: 12a0 2e3f 389f 10be 7579 f23d 6090 553d
00000180: e239 c9bd c879 713e 85dc 60bf c622 18bf
00000190: 01ef ba3e d202 e3bd 2a03 a43d a030 eabe
000001a0: f450 a7bf 6fd0 b13e eba9 b2be ba77 32bf
000001b0: ad52 09be 5533 3c3e 71a4 143f c8df 2abf
000001c0: 132b 253a b71c cebe 4bfb 013f b6ab 23bf
000001d0: bfd9 373f 9e8a 24be f7ba f8be 8e7d 0cbf
000001e0: 5c10 56bd 531d cf3e b0a7 e8be 543e 64be
000001f0: f2ea 903d 29fc 6cbe b88e 123e ca67 c0bd
00000200: 8b1c a13d de03 8d3b c108 933c 4d87 01bf
00000210: d925 5fbe caa9 02bf bd3d c63e 5362 aabe
00000220: 6f45 d03d 24a6 c9bd 9a82 50be fd1c ec3c
00000230: fc97 53be dac8 c9be b0fc f33d f50b bb3e
00000240: b6fa 65bd ee6a 5f3f fb41 4fbf 2673 043e
00000250: e47c 1ebe 6619 763e 4fba 04bf 8ba1 36bf
00000260: 8cd5 a43e 596a 84be fa01 d53d ec10 793b
00000270: 1aba 8abe 598f 523f 2e9a 833f 4840 f3bd
00000280: ed15 bcbe 5a71 913e 2331 aebe 8207 a0be
00000290: 8678 973e f536 c6be 068c 3ebe 3f4a 4bbe
000002a0: d1db 2fbe 9688 48be 57f7 913e 51b8 10be
000002b0: edec c43c 9862 b73d f0a1 b5be 0adf 3abd
000002c0: e34d 323d 69bc 22be 9ff5 3e3e bcad ad3e
000002d0: 81ba 7f3e a4c9 f53d 795a dc3d 9605 b2be
000002e0: 3740 c73e 0fa4 ac3e 3acb 0bbf 7b32 b9be
000002f0: 0f41 c23f 49ea cd3d 9a24 84be 7d42 dc3d
00000300: b7d6 233e e371 b4bc 1ddd 2c3f 6041 f9be
00000310: d0db cf3e c749 8dbe 566f 7e3f 4b9a c73e
00000320: fe31 393e 5239 013f 5512 053d 99c7 2abf
00000330: 3aee 553d 7856 7abe 3c4a a03e 8576 50be
00000340: 276f 203d 162f 013d 64d8 cb3b 2a55 28be
00000350: 7f97 a03e f34f a3bc 16e8 2dbe ff2e 9fbe
00000360: 25e6 e63e ef54 b2bd 1ac3 07bf e859 e23e
00000370: cb1c 633e 060d dd3e 9032 163f 69c2 e1be
00000380: b039 1f3f 913b 5dbe 4741 663c 736b 463f
00000390: e9ee 32be 7b46 533f 0231 5d3f 9d21 02bf
000003a0: e189 893e c94c d93e 0bf2 85bf 3cd6 d6be
000003b0: f2cd 17bf 48d2 bc3e 1855 96bd 74ac d33e
000003c0: 15bb 8d3e 1897 ea3e 986d 443e 24da 2cbf
000003d0: 2aa2 60bc f77d 41be 9858 98be 54a6 663e
000003e0: 350b 373e a366 a63d a1db 913d ef27 cdbd
000003f0: cde2 03be d672 a2bd a9ca 6c3d 39ba 913e
0.15388179 0.47959802 -0.4122001 -0.0449365 -0.37396812 -0.105295904 -0.6565343 -0.049854524
-0.30394796 -0.24985549 0.24562879 0.8680366 -0.6508947 0.8152468 -0.05074697 0.329692
-0.4562964 0.56147647 -0.44751403 0.4203783 0.88933605 0.06523186 0.20707229 0.56316525
0.3536918 0.24667904 0.9129288 0.6632925 0.52865064 0.16622011 -0.47507787 0.5062261
0.22310877 0.63678795 -0.35080823 -0.46018267 -0.2526729 0.67397505 -1.2177337 0.03364413
0.15569827 0.21445166 0.750602 -0.2499066 -1.06311 -0.02277799 -0.058299527 -0.07319176
-0.5543965 -0.21972898 0.46100533 0.14428014 0.4413584 -0.096932314 1.3373669 -0.39383185
0.29739237 -0.10632433 -0.25080642 0.3361039 -0.012959651 -0.047730368 0.043052938 0.058844995
0.030183947 -0.028012272 -0.6486794 -0.6870096 -0.7645778 0.12244692 0.03628736 0.049155027
0.17461297 -0.8693151 0.94789684 0.12081518 -0.13318467 0.06332629 0.2762027 0.26548225
0.0928203 -0.3272467 -0.14595693 -0.38874945 0.63898295 0.933126 0.3436916 0.9578996
-0.2823763 -0.08050861 -0.72664434 -1.0158143 0.68213 -0.14123237 0.11839572 0.05213964
-0.098254934 0.23581612 -0.87836486 -0.5942806 0.3651047 -0.11084522 0.08008416 -0.45740223
-1.307158 0.34729335 -0.34895262 -0.6971394 -0.13410445 0.18378957 0.5806342 -0.66747713
0.0006300669 -0.40256283 0.5077407 -0.63933885 0.7181663 -0.16068503 -0.48580143 -0.5487908
-0.052261695 0.4045206 -0.45440435 -0.22289401 0.07076062 -0.23143066 0.14312255 -0.09394796
0.07866772 0.0043034395 0.01794851 -0.5059708 -0.21791781 -0.5104033 0.38718978 -0.3327814
0.101694934 -0.09846142 -0.2036232 0.028822416 -0.20663446 -0.3941105 0.11913431 0.3653256
-0.0561473 0.87272537 -0.80960053 0.1293455 -0.1547733 0.24033126 -0.51846784 -0.71340245
0.32194173 -0.25862387 0.104007676 0.003800447 -0.2709511 0.8224998 1.0281427 -0.11877495
-0.36735478 0.28406793 -0.34021863 -0.31255728 0.2958414 -0.38713804 -0.18608102 -0.19852541
-0.17173697 -0.19583353 0.28509018 -0.14132811 0.024038756 0.08954352 -0.3547511 -0.045622863
0.04353131 -0.15892185 0.18648385 0.3392161 0.2497349 0.120013505 0.10759444 -0.34769887
0.3891618 0.33718917 -0.54606974 -0.36171326 1.5176104 0.10054452 -0.25809175 0.10754869
0.15999876 -0.022026962 0.6752489 -0.4868269 0.4059739 -0.2759535 0.99388635 0.38984904
0.18085477 0.5047809 0.032488186 -0.6671081 0.052229144 -0.24447048 0.31306636 -0.20357712
0.039168503 0.031539045 0.006220864 -0.16438738 0.31365582 -0.019935584 -0.16983065 -0.31090543
0.4509746 -0.08707606 -0.53032076 0.44209218 0.22178952 0.43174 0.586709 -0.44093636
0.621974 -0.21604754 0.014053649 0.77507704 -0.1747395 0.8252942 0.86402905 -0.5083254
0.26863006 0.42441395 -1.0464491 -0.41960323 -0.5929862 0.36879182 -0.07340449 0.4134251
0.27681795 0.458184 0.19182432 -0.67520356 -0.013710538 -0.18895708 -0.29755092 0.22524387
0.17875369 0.08125045 0.07121969 -0.10017382 -0.12879486 -0.079320595 0.05781046 0.2846239

transformer.embed.lin.bias f4 [72]
00000000: d64e 5dbf 0154 693f 1f5f 9b3e 11f3 5fbd
00000010: 4aee f2be f7ae 42bc 8c40 4ebf 23a9 2abf
00000020: 4430 48bd 4b27 d9be 4269 a93d eb4d 3f3f
00000030: 1215 2b3f 0a81 183f 45e6 3e3f f999 203f
00000040: f22a 1fbe 348e 27bf a185 553d 7a7a b83d
00000050: b8d7 0e3f ef63 a53e a9e4 4f3e 2d3f c03e
00000060: 5bc2 43bf 1917 2fbf 8c72 4b3d f46b 1a3e
00000070: 102a b53d 4ed4 a83e 1d69 f23e b0c8 76bf
00000080: dc5a 78bf e388 6a3f d5f0 9b3c 864e 61bc
00000090: cc21 fd3e 1d1b 1fbf 3f29 a3be d8f6 e9be
000000a0: 1b89 ac3e 849e 38bc c6bd b23e 333b b63d
000000b0: 28f6 e7be a830 11be 6bb5 3b3e 611a 24bf
000000c0: 59b8 433f 0b4b a03e 0e41 67bf d30c e83e
000000d0: 9f8a 03bf 0cbb 6b3f b225 863f 31ce 2f3e
000000e0: d517 29bd 7e87 80be 3fde cc3e 4dbf 323f
000000f0: a956 003e 28f1 83bd defd c8be 7934 52be
00000100: 6e8d 493f 5b81 13b9 3c1a 2a3f ec71 613f
00000110: 734f 503e d8d3 21bf 497f 013f ade6 40bf
-0.8644842 0.91143805 0.3034601 -0.054675166 -0.47447425 -0.011882535 -0.8056724 -0.6666433
-0.048874155 -0.4241279 0.082720295 0.7472827 0.66829026 0.595719 0.74570113 0.62734944
-0.15543726 -0.6545136 0.05212939 0.090077356 0.5579791 0.32302806 0.2030207 0.375482
-0.7646844 -0.6839462 0.049669787 0.15080243 0.088459134 0.32974476 0.4734582 -0.96399975
-0.9701364 0.9161512 0.019035736 -0.013751632 0.49439847 -0.62150747 -0.31867406 -0.4569614
0.33698353 -0.011268262 0.3491041 0.0889801 -0.4530499 -0.14178717 0.18330924 -0.6410275
0.7645317 0.31307253 -0.9033364 0.45322284 -0.51383394 0.92082286 1.0480254 0.171685
-0.041282494 -0.25103372 0.4001331 0.6982315 0.12533058 -0.06442481 -0.39256185 -0.20527829
0.7873143 -0.00014067201 0.6644628 0.88064456 0.20342807 -0.6321387 0.50584847 -0.75351983

transformer.embed.pos_embed.weight f4 [120, 72]
00000000: 492d 64bf d2c9 80bf 58ea a3bd f40f e83f
00000010: d6eb 8bbe 47c0 0a40 1170 063f 8ae9 8a3f
00000020: 1f52 84bf ddc7 bdbf 16b7 fdbe 316b 563f
00000030: 6caa 633f c819 bf3f 222d 6fbe a710 c2bf
00000040: 9133 043f 456d efbe b50d 493f 852e 8dbe
00000050: 9b59 f23f 9cf0 dbbe dd00 14c0 c4ab 7b3f
00000060: 2992 073f 4c06 893f 557d d3be 4948 0c3e
00000070: 4ad5 ddbf e7d2 cebf 8096 ee3f 250b 893f
00000080: 2694 073f c7c1 4f3f cf53 c5bf 138b 0dbf
00000090: 5baf 7b3e b8e5 223f 12d2 adbe 1692 a53f
000000a0: 694b ad3f 8603 bd3f 8c8a 72bf f60b 4fbe
000000b0: 304d e53c 8b19 7a3d 6f3d 02bf 4079 153f
000000c0: 3cf6 acbc d4d6 873f b775 753f 37eb 493e
000000d0: 8aab efbe 519a 8bbf 15fe b0be a517 5fbe
000000e0: a8aa 96bd 1de7 88be de74 863f e3ee 4bbe
000000f0: 32d2 d7bf 68ae e03e ab06 48bf 1679 a33f
00000100: 4053 b5be 61ca b9bf 9893 e53e 7dc7 733f
00000110: 18e0 89bd e65e 30bf 3b29 e3be 477c 073f
00000120: 0f4b 06bf 870f 163f 9471 ee3e 8cb6 773f
00000130: 3599 c63d 5692 ed3f 4330 943f 36ce f63f
00000140: 2f0e 94bf 8919 fbbf 4e5c ac3f cfef 4f3f
00000150: 89be 493f 9ed5 24bf 8eaf 083f 20af f5bf
00000160: c406 293e c78f 783f 12d3 0740 f55e 8a3e
00000170: 0fee 6abd f561 3ebf dc33 853f a390 3a3f
00000180: d91c 823f 8dc3 753f 4329 acbe cc03 663f
00000190: 5332 34bf 3391 d2bf 098e c53f a930 793f
000001a0: b673 883f dfd3 743f ab3f 0a3f aef3 173f
000001b0: 3625 163f c16f e13e 94b7 643f 75c6 b63f
000001c0: ffa2 3b3f 664a 60bf 905c 1fc0 4393 33bf
000001d0: f1dc a23e a6d2 aa3c 3ebe 25bf 1a50 933f
000001e0: 3c98 3fbf 75e1 0340 a2df b4bf 64e6 e9bd
000001f0: 1970 db3e 0faf 613f 4c08 a8bf 6c6d 803f
00000200: c750 53bf 1673 2a3f d766 a33f c53a a5be
00000210: 0e1f 1abf 7c41 bf3f c194 87be 9efb 2d3d
00000220: c4f1 303e 33b9 34bf b97d 19bf 638b a43f
00000230: 4ea5 0740 dd7e dabf 29aa a4be ff36 563f
00000240: c4c5 343f 9961 ecbe 20dd 3bc0 82cf f23f
00000250: b4ed bd3f 006e d93f 6f54 253f e131 fb3f
00000260: 7a46 c9bf a407 09c0 0a21 b53e dff6 a83f
00000270: 48d9 a43d be48 3bbf ef0b 7f3e bfef b73d
00000280: 87ca acbe f05b 363f fe6b 63bf e335 a43f
00000290: a439 62bf 7de1 a0bd 6750 9ebe 12ea dc3f
000002a0: c23e 06be df7f f2be 347e d63f e2ee c53e
000002b0: c585 c0be 175c 87bf 263d 1f3f ad23 2dbf
000002c0: 3639 a8be 3c4a 92be 1a30 dd3e 1a1f a13f
000002d0: e66b c73e 0af4 4f3f 9cd1 193f 734b b63f
000002e0: b5e5 023f 3c70 d13f 426e d5bf 384d c63e
000002f0: a9ec 88bf fd76 153f dba6 2abd 1441 c33f
00000300: c3a2 9f3e 2658 f53d 60f5 babe 05ae cfbe
00000310: 5535 663e 659b b2bf 42e9 e33e 5f27 a3bb
00000320: ee58 af3f add7 a0be cb45 cbbd 41ee 40bf
00000330: 8bfb f63d 28dd 6fbe 2d20 d3bf 191b b0bf
00000340: b05c 74bf b5e4 80be 39fd 973d f68f f93e
00000350: 5ab9 8b3d 0bf1 efbe fb6b 9dbd 0626 013f
00000360: d6fc 83bf 3850 d73e b0fd bb3e ea14 713f
00000370: 9a1e 0dbe f5a2 2f3e 27e4 913f af97 543f
00000380: d2ae b7bf f86e b7bf c41f 04bf 62d6 223d
00000390: 5f46 483e bd1a 19bf 525b 053f 42d8 93bf
000003a0: d380 3b3f b90c 2bbd c547 e93f 411f cd3f
000003b0: b896 0a3f d55f 0dc0 9388 31be d902 0840
000003c0: d6ef d4be 9c18 16bf cc06 02bf 8c20 393f
000003d0: 4d25 a3bf e7bc a0bf 9112 3a3f 07af 9c3f
000003e0: bc06 963f fb8b 73bd 0fca afbf 4713 cf3e
000003f0: c77d 88bf 22f0 833f 4786 683e 286d 6a3d
-0.891316 -1.0061591 -0.08003682 1.8129869 -0.27328366 2.1679857 0.5251475 1.085252
-1.0337561 -1.4826618 -0.49553746 0.8375731 0.8893192 1.4929743 -0.2335706 -1.5161332
0.51641184 -0.46763054 0.7853654 -0.27574554 1.8933595 -0.42957008 -2.3125527 0.9830897
0.529574 1.0705047 -0.41306558 0.1369945 -1.7330716 -1.6158112 1.8639679 1.0706526
0.5296043 0.81155056 -1.5416201 -0.55290335 0.24578612 0.63631773 -0.33949333 1.2935207
1.3538638 1.47667 -0.94742656 -0.20219406 0.027990907 0.061059516 -0.5087499 0.5838814
-0.021113507 1.0612435 0.95882744 0.19718634 -0.4681056 -1.0906469 -0.3456885 -0.21786363
-0.07356769 -0.26738825 1.0504415 -0.19915347 -1.6861022 0.4388306 -0.78135175 1.2771327
-0.35415077 -1.4514886 0.44839168 0.9522627 -0.067321956 -0.68894804 -0.44367394 0.5292401
-0.5245828 0.5861744 0.46571028 0.9676292 0.09697191 1.8560283 1.1577228 1.928168
-1.1566828 -1.9617168 1.3465669 0.81225294 0.7880636 -0.64388454 0.53392875 -1.9194069
0.16506487 0.97094387 2.1222577 0.2702557 -0.057355937 -0.7436822 1.0406451 0.7287695
1.0165054 0.9600151 -0.3362523 0.89849544 -0.7038929 -1.6450561 1.5433971 0.97339875
1.0660312 0.9563579 0.540034 0.593562 0.5865053 0.44030574 0.8934262 1.4279314
0.7329559 -0.87613523 -2.4900246 -0.7014658 0.3180919 0.020852398 -0.6474341 1.150882
-0.74841666 2.0606358 -1.4130747 -0.11420897 0.4285896 0.88157743 -1.3127532 1.0033393
-0.8254513 0.6658186 1.2765759 -0.322714 -0.60203636 1.4941859 -0.26480678 0.04247629
0.17279726 -0.7059509 -0.5995746 1.2855037 2.1194644 -1.7069966 -0.32161072 0.8367767
0.70614266 -0.4616821 -2.9353714 1.8969576 1.4838166 1.6986694 0.6458196 1.9624597
-1.5724633 -2.1410913 0.3537677 1.3200339 0.080492556 -0.7315787 0.24906896 0.08981275
-0.33748266 0.71234035 -0.8883666 1.2828945 -0.883692 -0.078555085 -0.30920717 1.7258933
-0.13109878 -0.47363183 1.6757264 0.38658816 -0.37602058 -1.0574979 0.6220268 -0.6763256
-0.32856148 -0.2857226 0.4320076 1.2587616 0.38949507 0.8123175 0.60085464 1.4241775
0.51131755 1.6362376 -1.6674273 0.38730788 -1.0697223 0.58384687 -0.041663032 1.5254235
0.31178865 0.119797036 -0.3651533 -0.40562454 0.22481282 -1.3953673 0.445139 -0.0049790586
1.3699014 -0.31414548 -0.09925421 -0.75363547 0.12059697 -0.23424208 -1.6494194 -1.375827
-0.9545393 -0.2517449 0.07421345 0.48742646 0.068224624 -0.4686359 -0.07686611 0.50448644
-1.0311534 0.4205339 0.36716986 0.9417254 -0.13781205 0.17152007 1.1397752 0.8304395
-1.4350226 -1.433074 -0.5161097 0.039755233 0.19558094 -0.59806424 0.5209247 -1.1550372
0.73243445 -0.04176018 1.8225027 1.6025163 0.5413623 -2.2089741 -0.17337255 2.1251738
-0.4158923 -0.586313 -0.5079162 0.7231529 -1.2745758 -1.2557648 0.7268458 1.2240914
1.1720805 -0.059459668 -1.3733538 0.40444395 -1.0663384 1.0307658 0.22707473 0.057233006

transformer.embed.norm.gamma f4 [72]
00000000: f9dd 0f3f f206 043f 7b5c 0c3f c389 b73e
00000010: 9968 e43e da4e d73e 1ca3 463f 4d15 133f
00000020: 9802 f73e 75c9 223f c03d f13d 4b22 223f
00000030: 639a 323f eb6a af3e e8b6 0c3f 27e5 2d3f
00000040: 1c0b fd3e 1134 2a3f cf14 be3e 58fa e23e
00000050: 36b7 b43e d845 523e 6d75 713e daeb 9a3e
00000060: 60fc 243f 5575 aa3e 7c2a ef3e b74c 353e
00000070: 6d39 1d3e 4377 733e a3a3 c03e 417e 293f
00000080: 946a 003f e0df 1c3f 738b 3a3e a2f8 203e
00000090: eaf9 af3e dd84 123f 3d24 163f 4c25 033f
000000a0: 2683 dd3e b7d6 433e 5861 a73e 275f 193f
000000b0: 916f 223f 6d82 a53e 87be 133f 40e9 5b3e
000000c0: 8157 083f 893a f63e bed2 033f 78c3 ea3e
000000d0: 1f00 cb3e 278e 093f 4953 de3e 21a6 173f
000000e0: 2e7c 263f 8b7c dd3e 4456 b53e c238 733e
000000f0: 83cc b43e 622f e73e a9cf 703e 7a0f 843e
00000100: 0e3c 273f f33b 523e de65 ea3e f85e 263f
00000110: ece2 c73e 8f5b 153f 857f 073f 9922 0a3f
0.5619808 0.515731 0.54828614 0.3584729 0.44611052 0.42052346 0.77592635 0.5745438
0.48244166 0.6358865 0.11779356 0.63333577 0.69766825 0.3426126 0.5496659 0.67927784
0.49422538 0.664857 0.3712525 0.44331622 0.3529603 0.20534456 0.2357995 0.30258065
0.64447594 0.33292642 0.467121 0.17705046 0.15353937 0.23775963 0.37624845 0.66208273
0.50162625 0.61279106 0.18217258 0.15719846 0.34370357 0.57233983 0.58649045 0.51228786
0.4326412 0.19124876 0.32691455 0.59910816 0.63451487 0.3232607 0.57712597 0.21475697
0.5325852 0.48091534 0.5149344 0.45852256 0.3964853 0.5373253 0.43422917 0.5923787
0.65033233 0.4325908 0.35417378 0.2375212 0.3531228 0.45153338 0.23516716 0.25793058
0.6532601 0.20530681 0.45780843 0.6498866 0.39040315 0.5834283 0.52928954 0.5395904

transformer.embed.norm.beta f4 [72]
00000000: 1bb4 2c3e abd5 c8bd 6f5d a63a 531c 33ba
00000010: 5064 963d aa02 5739 819e a03e 36a7 c63d
00000020: 9b37 e93c f515 833d 642d 86bc cf84 5bbe
00000030: 053d 99be 4ff5 40bd 36bc 86bd 5d2d 73be
00000040: 5e55 69bc c110 9a3d da46 0cbd 047f 44bd
00000050: a77a 1cbd 65d4 79bc 3465 b8bc 326b 82bd
00000060: e075 813e 2ad0 5eba d512 3c3d 2ed1 a9bc
00000070: 8454 83bd d875 83bd e809 77bd a139 3b3e
00000080: 02e3 0e3e 4549 5abe a4a5 c3bc 0fc5 adba
00000090: 5902 c6bd a022 7a3d 742c c83d 918d a43d
000000a0: b959 44bd 1420 033b e2ac 8fbc 5b34 9bbc
000000b0: f049 a43d 1e57 a33c b7e5 7b3c a25a c73c
000000c0: 3a22 2cbe bc74 a8bc 6dbd 193e 31e4 17be
000000d0: f96e cb3d 8c46 42be cdbf 02be 33b8 f3bc
000000e0: db89 bf3d 56eb ad3d a103 97bd db26 86bd
000000f0: 99dc 32bc 1564 1d3a e10b cb3c 10b0 813c
00000100: 9ddc 19be 56e3 413c 5761 a3bd 1a2d 80be
00000110: 7886 7abd 479b be3d f3b9 1dbc d30d 003e
0.1686558 -0.09806379 0.001269264 -0.0006832529 0.07343352 0.0002050499 0.3137093 0.09699862
0.028468898 0.06400672 -0.016379066 -0.21437381 -0.29929367 -0.047108945 -0.06578867 -0.23747773
-0.0142415445 0.07522727 -0.034247257 -0.047972694 -0.038202908 -0.015248393 -0.022509195 -0.06368102
0.25285244 -0.0008499647 0.045916397 -0.020729627 -0.064126045 -0.06418961 -0.06031218 0.18283702
0.13953784 -0.21317013 -0.023882695 -0.001325758 -0.096684165 0.061068177 0.09774104 0.08034814
-0.04793713 0.0020008134 -0.017538492 -0.018945863 0.08021915 0.019939002 0.0153745925 0.02433521
-0.16809931 -0.020563476 0.15013666 -0.14833142 0.09933276 -0.18972224 -0.12768479 -0.029750919
0.09352466 0.084921524 -0.07373739 -0.0655038 -0.010916852 0.0006003988 0.024785938 0.015831023
-0.15025564 0.011833986 -0.079775505 -0.2503441 -0.061163396 0.093069606 -0.009626853 0.12505274

transformer.attn.proj_q.weight f4 [72, 72]
00000000: 16e2 e9bd 053f 9dbe a946 d7be 448c 9b3c
00000010: ac00 783d 78da 30be 014b 46bd df14 533e
00000020: c389 8dbe 71a0 a13d 7324 893e 2b5d dbbc
00000030: c2c4 abbd 16f4 2ebf e5f1 e5bd 2756 0bbe
00000040: 7d5a 4cbe ee9e 453e 61b0 76bd bef7 9c3e
00000050: 5500 c13e edbd 0dbf ef8a da3d bb54 3dbe
00000060: 593b c6be b005 77be 519a 863e 921b c9be
00000070: d3fb 3c3f 410b b9bd 3446 673c e162 8e3e
00000080: a1bd 5f3e 2db6 c3be 401e 94bd fe84 00be
00000090: 41bf 373f 7ee3 3e3e 4d1b 5ebe 3221 573d
000000a0: ccc7 e53d 6168 65be 3938 45bd 6c70 64be
000000b0: a1f1 4bbd 8d70 8a3e bd4c 5e3e 4d85 1f3e
000000c0: fa33 53be fc1c 8f3e 62a3 bf3e 49d6 7f3d
000000d0: 95d9 fc3d ef9b 823d 29f0 00bf d092 653e
000000e0: 5b08 893d 4d28 12bf 9378 ff3e c199 4b3e
000000f0: 0e59 013e b1c4 123e fdec abbe 31c8 fabd
00000100: 02e9 f03e 33c2 273e 2141 d73b 4b75 643c
00000110: 09dc 1e3e d363 d93e da54 1c3e d828 85be
00000120: f42a d13e d3d9 98bd 01b2 2abd 7ada 293d
00000130: bb45 fcbe 5041 823d 56e9 df3d 4cdc 113e
00000140: bd87 90bd e207 193e b296 f13e aa03 50bc
00000150: 5eb8 5a3d 1ea0 b7be 8a9e 78be 2cda a63d
00000160: ea29 b6be cb25 a8bd 5823 74bd a1b8 463c
00000170: 6bc7 d13e 4fc6 ff39 a882 41be d75f dfbe
00000180: d943 76bd 3f34 8abe 4be6 06bf 1ce3 eebd
00000190: d4f4 e03e 8a92 d73d 373b 13bf 7fac c0bd
000001a0: cc4f bf3d 2176 10be fcfd a1be 06c8 92be
000001b0: b9ef 843e 82f8 94be 029e 43bf edcb 0abf
000001c0: 8bd9 093f 132c 103f ae19 933e 9d9e e3be
000001d0: 2841 2e3e 87fc 8f3e 9566 19bc 036e 733e
000001e0: 796a debc 04c1 38be be05 ebbd d0ef 9dbe
000001f0: 32ef c3bd 27fe 9bbd de7a af3b ca5b 523c
00000200: 3cd9 9f3e 84f5 ff3e d917 a03d e488 e6be
00000210: 9190 aebe 6b0a b73d 1da5 713e b521 233d
00000220: a96c 583e 2de4 ebbd 37da 34be aeef eebd
00000230: d43b 9abd c04a ae3e ea81 a1bd e806 863e
00000240: 4e59 4c3e 5bdb 6bbe cbe3 3e3e 072b 203f
00000250: b2be 793e 2914 04bf 4d50 3b3e c4e7 1e3f
00000260: 2b6c 2e3e 1e68 d8be e514 0f3d 902c d23d
00000270: 9116 5cbe 3715 98bd 0e4c 07bd 42cf d1be
00000280: 70fa 5abe 0cce 173d 3b57 8a3e 8ea7 f7bd
00000290: aeb5 cfbd acaf 9abc bd24 c439 f03a acbd
000002a0: ae7f 1a3f efb8 dabe 9ec1 89bd ce72 69be
000002b0: 936a d2bb 0662 04bd 9d35 d0be cfb0 0e3e
000002c0: 0d07 cabd a460 43be 3872 053e 7819 31be
000002d0: 7a9a f9bd 855f 3c3e 4529 683e 625a b03e
000002e0: 4e43 f93d d35d a43d fc4f f5be b0b7 013e
000002f0: 8704 103e b77d 82be 9926 84be cbc1 acbd
00000300: e5dd 8abd 63cf 093e b69e 833e 9299 f0bd
00000310: 326d 3bbd 0229 84be 18c2 bd3d c3dd 3c3e
00000320: a5ed 993c 3a9d f2bd 9748 98be bd38 933e
00000330: 96d9 663d f822 023e eee0 533e 2687 ee3d
00000340: 91d1 783e a3b4 1fbf c3ad 83be 2ea4 a7be
00000350: a800 033e 7fc1 98bd 604b ad3d a381 40be
00000360: cc16 6b3e f010 06be 60c9 b03d 1215 fabe
00000370: 4284 123e 4f6b 743e 7d7a afbe ab36 c8bc
00000380: 8ed5 94be 7114 5f3b 5ce0 253d 9783 4dbd
00000390: b5fd 39bd cbde 413e 83a3 03bf 6d69 b8bd
000003a0: c3d4 003e a83b 9a3e ac1b a4be 2223 6fbd
000003b0: 8f20 c4be 56a0 a03e 2bb8 1e3e b523 913a
000003c0: 5211 803e 6ab6 913e 340e 533e d2c1 15bd
000003d0: a0ab 2f3e c973 bebe 31c1 11bf 2ef4 2c3e
000003e0: ed39 7b3e c284 0fbb 2dd5 37bf 7e9b c0be
000003f0: a105 a23e b213 043e 6ace 9c3e d011 873e
-0.114200756 -0.30712143 -0.42046097 0.018987782 0.060547516 -0.17270839 -0.048411373 0.2061343
-0.27644166 0.0789193 0.2678562 -0.026777824 -0.08387138 -0.68341196 -0.11227778 -0.13607083
-0.19956394 0.19298908 -0.0602268 0.30657762 0.37695566 -0.5536793 0.10671031 -0.18489353
-0.38717154 -0.24123263 0.2628961 -0.39278847 0.73821753 -0.0903535 0.014115859 0.27809814
0.21849681 -0.38224927 -0.07232332 -0.12550732 0.71776205 0.18641469 -0.21690102 0.052521892
0.11219749 -0.22403099 -0.04814932 -0.2230851 -0.049790982 0.27038994 0.21708961 0.15578194
-0.20625296 0.279518 0.3742934 0.062460218 0.12346188 0.06377398 -0.50366455 0.22419286
0.06691047 -0.57092744 0.49896678 0.19882871 0.12631628 0.14332844 -0.33579245 -0.12245215
0.4705277 0.16382675 0.0065690433 0.01394398 0.15513624 0.42458972 0.15266743 -0.26007724
0.40853083 -0.07463422 -0.041673664 0.04146812 -0.4927195 0.063601136 0.10933177 0.14244193
-0.0705714 0.14944413 0.47185284 -0.012696186 0.053398483 -0.35864347 -0.24279228 0.08147082
-0.35578853 -0.082103334 -0.05960402 0.01212898 0.40972456 0.00048785142 -0.18897498 -0.43627807
-0.0601233 -0.26992986 -0.5269515 -0.116644114 0.4393679 0.10525997 -0.5751223 -0.09407901
0.09341392 -0.14107563 -0.31639087 -0.2866823 0.25964144 -0.29095846 -0.76412976 -0.54217416
0.5384757 0.5631725 0.2873053 -0.4445695 0.17017043 0.2812235 -0.009362836 0.23772435
-0.02715038 -0.1804238 -0.114757046 -0.30847025 -0.09567107 -0.07616835 0.005355223 0.012839267
0.31220424 0.49992 0.078170486 -0.45026314 -0.3409467 0.08937534 0.23598142 0.039827067
0.211352 -0.115181305 -0.17661367 -0.11666809 -0.075309426 0.34041405 -0.07886107 0.26177144
0.19955942 -0.23032896 0.18641584 0.62565655 0.2438915 -0.5159326 0.18292351 0.62072396
0.1703345 -0.42266935 0.034932036 0.10262406 -0.21492983 -0.074259214 -0.033031516 -0.40978438
-0.21384597 0.037061736 0.27019677 -0.120925054 -0.101420745 -0.018882595 0.00037411405 -0.08409679
0.60351074 -0.42719218 -0.06726383 -0.22797701 -0.006421396 -0.032320045 -0.40665904 0.13934635
-0.09864626 -0.19079834 0.13031852 -0.17294872 -0.12187667 0.18395813 0.22671993 0.34443957
0.121710405 0.08025708 -0.47912586 0.12667727 0.14064227 -0.25486538 -0.25810698 -0.084354006
-0.06780604 0.13458018 0.25707024 -0.11748041 -0.045758434 -0.25812536 0.09265536 0.1844397
0.018790076 -0.11846395 -0.29742882 0.28754225 0.05635985 0.12708652 0.20691273 0.11646871
0.24298693 -0.62385005 -0.25718507 -0.32742447 0.12793219 -0.074587815 0.08461642 -0.18799452
0.22957915 -0.13092399 0.08632159 -0.488442 0.14308265 0.2386906 -0.3427314 -0.02444013
-0.2906918 0.0034039284 0.04049717 -0.050174322 -0.04540797 0.18932645 -0.51421374 -0.09004483
0.12581162 0.3012364 -0.32052362 -0.058383115 -0.3830609 0.31372327 0.15499942 0.0011073264
0.25013214 0.28459483 0.20610887 -0.036561795 0.17155313 -0.37197712 -0.5693541 0.16890022
0.24533816 -0.0021899198 -0.71809655 -0.3761863 0.3164492 0.12898138 0.3062623 0.26380777

transformer.attn.proj_q.bias f4 [72]
00000000: 560e 483d 0246 d8bb e3b3 433d 6d95 703e
00000010: 3563 f5be d947 6a3e 5fd6 4ebe 4c12 ef3e
00000020: 463d d9be dac1 61be 3c01 b43d 8d87 afbe
00000030: e41b a33e cd3b 1a3f 3853 cdbe 9aa9 30bc
00000040: 4ff0 8b3e 984e 89bc db29 9b3e 66f6 eebe
00000050: f6b1 bebe 9154 03bf 69ee 98bd d035 5ebe
00000060: 9966 253f 6662 c0bd 7fc7 573e 8ba8 efbc
00000070: 925a 9fbe 2a4b f23d 90c9 32bf 6e9a 75be
00000080: 13e2 bb3d 42e7 b3be cb53 f83d c8be 61bd
00000090: 9b10 193d 0e50 7b3d 7eae 973e 941e 883c
000000a0: 93dc f839 f9c9 bfbd cccd cb3d 31fb a83c
000000b0: ffd7 bbbd e968 f9bd 74eb 0abf 1992 a3be
000000c0: eebd 153d 06d5 5b3e 5feb 083e 789c 5bbe
000000d0: 29a3 9d3e 5a96 dbbe fb00 213e 956e 83be
000000e0: f005 e73d 10ac 8ebd 9210 fb3d a74f 953b
000000f0: 61f7 dcbc 3c2c aabd 7b40 0fbe 3899 5bbd
00000100: 2222 83bd 3786 1cbd 8b24 1c3e 92ce b63c
00000110: 8fe5 6c3e a85e 9abd 8268 6cbe b2c2 d6bd
0.048841797 -0.0066001425 0.047778975 0.23494501 -0.4792725 0.2287897 -0.20198964 0.46693647
-0.4242956 -0.22046605 0.08789298 -0.34283105 0.31857216 0.602475 -0.40102553 -0.010782624
0.27331778 -0.01676111 0.3030537 -0.46672362 -0.37245148 -0.51300913 -0.07467348 -0.21700215
0.64609677 -0.09393768 0.21072195 -0.029255172 -0.31123787 0.11830743 -0.6983881 -0.23984692
0.091739796 -0.35137373 0.12125357 -0.055113584 0.03736935 0.061355643 0.29625314 0.016616143
0.00047466587 -0.09364695 0.09951362 0.02062759 -0.09172057 -0.12178213 -0.5426552 -0.319474
0.036558084 0.2146798 0.13371037 -0.21446407 0.30788544 -0.42888147 0.1572303 -0.25670305
0.11280429 -0.06966412 0.1225902 0.0045566144 -0.026973428 -0.08309218 -0.13989441 -0.053612918
-0.06402995 -0.038213935 0.15248315 0.022315297 0.23134445 -0.075375855 -0.23086742 -0.10486354

transformer.attn.proj_k.weight f4 [72, 72]
00000000: 4f5d 6b3e 8cc2 ab3d f018 0b3f 3360 fdbd
00000010: 632f 1e3e 04b7 f13d 8379 763d 0bbe 8ebe
00000020: 540f 1ebe 6e97 06be 12c9 f4be 1fb9 91bd
00000030: fb60 2d3d e68b c13e bbf9 fbbe 38d9 b93d
00000040: eb13 383a c86c f9bc 5c76 8d3e 8559 493e
00000050: e1e7 06be c7c8 1bbe 21ff 8e3e af92 953d
00000060: 555b 94be ce0a 28bd d27d b0be e74d b53e
00000070: 1edf 883e 0fac a43e c198 8e3d 0935 98be
00000080: bf41 0a3e c30e 903e 568f d9be 4cc3 81bd
00000090: 39bd 413d 3ae7 493e 9508 08bf f74a 433e
000000a0: 897a 163e a05b 82be 9135 67be c72e b33c
000000b0: 3bc1 7a3d 2545 17bd eb65 563d 6303 94be
000000c0: 20c7 b1be 70c1 1ebf ae74 23be 3dd7 9e3e
000000d0: 2a0c dbbe 31ec 8abe 315d a63e 3f23 eb3d
000000e0: eba8 493e ef01 283f 8890 76bf 596b b1be
000000f0: 34f9 e33d a01b c63e ddae 71be 5039 3a3e
00000100: bcd9 3dbe 6726 29bc add4 c73e 01d8 373e
00000110: d542 9ebe a75c 4cbe 5393 6a3d 72de b63e
00000120: 4e3e f1bd bfa7 cebe 6dc8 efbd df17 92be
00000130: 795f b0bc 2951 4cbd 04e0 bcbe 19fb 8abe
00000140: 6043 3b3f 612f 743e 7b35 103e 031f 18be
00000150: 1b3d 82be 2f46 c1be 4636 f03d 6c89 c43e
00000160: fba8 6b3e 3cec 66be 14f6 1d3e 35f1 16bf
00000170: fde4 5a3c 97f6 2ebe 90ee 783e 11be b9be
00000180: b302 4bbe 1a4c bd3d be70 d93e 5169 1b3e
00000190: df89 5a3e b713 ef3c 722e ecbe 94c8 97be
000001a0: aa9b 4cbe 1c8f 2cbe 8dfe 0c3e 3360 2d3e
000001b0: e1bd c6bc bab0 5ebd e573 76bd 5483 4fbf
000001c0: 9bdd ddbc 3f15 7bbe bbd6 6f3e 51fe a0be
000001d0: e1f0 c33e 3efc a3be 26a6 383e 6a8f 7dbe
000001e0: f079 083f 6923 853c 729c d23d 9c57 01bf
000001f0: ac69 073f 42ba 5fbd dfe7 56be 9a62 91be
00000200: b633 313e 14a5 e83d 153d 9b3e 7390 183e
00000210: 31b2 0cbd a946 7e3e fc15 edbd ce72 823e
00000220: 6023 233e 1afa c13e 3c25 06bf 99d5 54bd
00000230: 3c35 62be 3878 f2bd 1d88 473e 3edd 0e3f
00000240: 8562 2e3e 3106 4bbe 4eba b93d 4ccc a4bd
00000250: 3df4 9cbe c87d fbbe a01d 133e c30b ebbe
00000260: 861e c03e 8b96 82be e76f 383d fd41 923e
00000270: 832a 87bd 7fbd 35bb 2f9f fe3d e432 24be
00000280: 39d0 ac3e 5846 4e3e a634 5cbe 390d 2ebe
00000290: 3a2c 653e dc8a 7a3e 9b0b 1c3d 1845 5c3e
000002a0: c3a8 39bd 0b17 cc3d 5bfd 67be 4bb6 c43c
000002b0: 62f4 033f b53d 2dbe 0078 293e 7e8a 073e
000002c0: c32c 35be 78c0 673e 9aba ce3c ef11 e7bc
000002d0: 37e1 a0bd c172 113d 67bd 7d3d e381 983e
000002e0: 2a1e 1dbf 1889 9c3e acf5 8cbd 7d45 b63d
000002f0: 1fb8 1abf 8ad0 84be 21d4 d4bd 7bd9 f0be
00000300: 95c4 6f3e a4ea c6be d39f 263d 5534 c0bd
00000310: 2ea1 d4be f390 313e 76d9 64be 53fd 103e
00000320: f172 713d da9d 94be ae14 94be e376 b23e
00000330: f38c d53e e92e a5be 8858 62be 49cc 3dbe
00000340: d73e 3fbd abc7 58be 28de 1c3e 7661 d73d
00000350: 75ae 5ebe dd46 1c3d d2be 593e 9c94 3d3f
00000360: 2cac 6ebf 7d90 2f3c 2c1e cabe a80f 0bbe
00000370: c82b aa3d 7d87 2f3d 24d3 133c 68b0 8d3d
00000380: 4645 be3e 1509 05be e0f1 063e 4a9c d7be
00000390: 19f3 45bf 771e e6bd 1e24 f1bd 8ddb cc3e
000003a0: 2286 e3be ba37 173e 06d6 fd3e 6888 423d
000003b0: a5d5 553e aab3 81be 4c0d d43d aab3 c7bd
000003c0: 1407 8b3d d0d6 0abf ed6a a1bd 0ed5 263d
000003d0: 4502 ea3d 5e74 cebe 9acc 3bbd 6d65 9b3e
000003e0: e7fa 8fbe 8889 c93d 60d8 0b3e b890 41be
000003f0: 34db b5bd f841 2e3f 65aa 57ba 5b8c 85be
0.22984813 0.08386716 0.54334927 -0.12371864 0.15447764 0.118024856 0.060174476 -0.27879366
-0.15435535 -0.13143703 -0.47809654 -0.07115387 0.042328816 0.37802047 -0.49213967 0.09074634
0.0007022011 -0.030447379 0.27629364 0.19663055 -0.13174392 -0.15213309 0.27929023 0.07303368
-0.2897593 -0.04102593 -0.34470993 0.35410997 0.26732725 0.3216252 0.06962729 -0.29727963
0.13501643 0.28136262 -0.4249217 -0.06336078 0.047299597 0.19717112 -0.53138095 0.19071566
0.14695181 -0.2546053 -0.22579028 0.021872891 0.061219435 -0.036931176 0.05234329 -0.28908834
-0.34722233 -0.6201391 -0.15962479 0.3102359 -0.42782718 -0.27133325 0.32492974 0.11481332
0.19693343 0.6562795 -0.9631429 -0.34652212 0.11131516 0.3869295 -0.23601861 0.18185925
-0.1854009 -0.010324097 0.39029446 0.17953493 -0.30910364 -0.19957219 0.057269406 0.35716587
-0.11779462 -0.40362355 -0.1170815 -0.28533837 -0.0215299 -0.049882088 -0.3688966 -0.27144697
0.7314968 0.23846199 0.14082901 -0.1485558 -0.25437245 -0.37748858 0.11729102 0.38386095
0.2301368 -0.22551054 0.15425903 -0.589618 0.013360259 -0.17086254 0.24309754 -0.36277822
-0.19825248 0.09243031 0.42468828 0.15176894 0.21341656 0.029184205 -0.46129185 -0.29645216
-0.19981256 -0.16851467 0.13768978 0.16931228 -0.024260463 -0.05436776 -0.06016912 -0.81059766
-0.027083209 -0.24519823 0.23421757 -0.31444028 0.38269714 -0.32028383 0.1803213 -0.2476174
0.5331106 0.016252236 0.10283746 -0.50524306 0.5289562 -0.05462099 -0.2098689 -0.2839554
0.17304882 0.11359611 0.3032004 0.14898853 -0.034349624 0.24831642 -0.11576459 0.25478214
0.15931463 0.37886125 -0.52400565 -0.051961515 -0.2209062 -0.11839336 0.19485517 0.5580634
0.1702977 -0.1982658 0.09068738 -0.08046779 -0.3065509 -0.491194 0.1436677 -0.4590741
0.37523288 -0.2550548 0.045028593 0.2856597 -0.06599905 -0.0027731357 0.124327056 -0.16035038
0.3375261 0.20144022 -0.21504459 -0.16997232 0.22380152 0.24467033 0.038097005 0.21510732
-0.04532696 0.099653326 -0.22655241 0.024012705 0.51544774 -0.1691807 0.16549683 0.13236424
-0.17692856 0.22632015 0.025235463 -0.028206794 -0.07855456 0.03550983 0.061948206 0.29786596
-0.6137415 0.30573344 -0.06882796 0.088999726 -0.60437196 -0.25940353 -0.10392023 -0.47040924
0.23414834 -0.38850892 0.040679764 -0.093849815 -0.4152922 0.1734045 -0.2234858 0.14159136
0.058947507 -0.2902668 -0.28922027 0.34856328 0.41709098 -0.32262352 -0.22104084 -0.1853496
-0.046690788 -0.21169917 0.15319121 0.10516636 -0.21746238 0.038153518 0.21264198 0.74054885
-0.93231463 0.010715601 -0.39476144 -0.13580191 0.08309132 0.04285382 0.009022508 0.069184124
0.37162226 -0.12991746 0.13178205 -0.42111427 -0.7732406 -0.112362795 -0.11774467 0.40011254
-0.44438273 0.14767352 0.4957735 0.04749337 0.2088228 -0.25332385 0.10354099 -0.09751065
0.067884594 -0.5423403 -0.078817226 0.04073053 0.11426214 -0.40323156 -0.04584942 0.3035082
-0.2812111 0.09840685 0.1365676 -0.18902862 -0.088797 0.6806941 -0.000822699 -0.26083645

transformer.attn.proj_k.bias f4 [72]
00000000: c915 52bd eab4 46bd 0e21 943d ff5e 853d
00000010: 2a46 a7bc 3bf1 303d e231 89bb c5b9 a93c
00000020: a01f 403d 7ef0 863d cfa2 0ebd 45e6 e03c
00000030: 06aa 323d fed6 b73d 7a43 f83c 4bce 28bb
00000040: 2685 923d b933 ca3d a393 e6bd 5a24 573d
00000050: b148 8c3d 408d 4b3b 2942 d4bc 79b8 b5bd
00000060: 37b7 9abd d83d f7bd f230 93bd f57d 94bd
00000070: 0bb8 ba3d d6b7 c13c dabd 0e3e c31c 9ebc
00000080: 2a72 9eb9 f827 7c3d 55b5 95bd 2822 41bd
00000090: b9ea 6e3d c670 a43d 3bb7 9c3d e8a1 e53c
000000a0: 2e0f 373d 573c 25bd 547e b23d 34a2 77ba
000000b0: 61f8 553d a1fc 74bc a263 823c 3ba0 e2bd
000000c0: 6043 52bc f136 af3d f0f7 c63c 8246 c53d
000000d0: 354d eabd 2be8 51bd cf02 d9bd 5d78 883d
000000e0: 03e6 b1bd d90e 27bc e3b8 923d 191e 17bd
000000f0: dd1c d33c c07e 94bd 05fd 653c 655b 00bd
00000100: 1f9b 50bd 8ce4 b7bc 0cc1 c73d b772 9d3d
00000110: 77a0 9bbd 4f41 7c3d bb76 e73d 11be 57bd
-0.051290307 -0.048512377 0.07232867 0.0651226 -0.020419199 0.043198805 -0.0041868547 0.020718465
0.04690516 0.06588839 -0.034823235 0.027453551 0.04361918 0.089765534 0.030305613 -0.0025757726
0.07154302 0.098731466 -0.11258628 0.052524902 0.06849802 0.0031059533 -0.025910454 -0.08873076
-0.07554477 -0.12072343 -0.0718707 -0.07250587 0.09117135 0.02364723 0.1393961 -0.019300824
-0.00030221167 0.061561555 -0.07309977 -0.047151715 0.058329318 0.08029322 0.07652136 0.028031304
0.04469221 -0.040340748 0.087155014 -0.00094464724 0.052238826 -0.01495281 0.01591665 -0.11065718
-0.012833446 0.08555401 0.024288148 0.09632589 -0.11440507 -0.051246803 -0.10596239 0.066635825
-0.086864494 -0.010196411 0.071641706 -0.036893938 0.025770599 -0.07250738 0.014037375 -0.03133716
-0.050929185 -0.022447847 0.09753618 0.07687896 -0.075989656 0.06158572 0.11301943 -0.052671496

transformer.attn.proj_v.weight f4 [72, 72]
00000000: 7837 97be eca6 0c3f 65f6 3cbe ac39 21be
00000010: aa7a 9abd 6c0e 9e3e a89c afbd 9f88 9a3d
00000020: 8d0a 2cbf fa04 f63e 749c d2be ffe1 983f
00000030: ad5e 223f fed9 f23c 0167 283e 163f ed3d
00000040: 43cf 16bf f1c3 ce3e bb38 6cbe 626f a1be
00000050: 002a 4bbf 1fd8 44bf 4c12 d13e 7fce 38bf
00000060: 57b0 48be 4825 0f3f b52c 643e 4ae0 15be
00000070: 1356 473f fa61 1f3e 0f3a f6be 3ffb 0fbf
00000080: 8a05 54bb f0f9 febc fec8 ac3e 8830 f73c
00000090: c9ac 303f 06ff 05be dc43 20bf 95b1 a8bd
000000a0: db6f ee3e 4ae0 5ebd e4db e9bc 5199 01be
000000b0: 21b0 9d3e 2461 da3e b769 91be 00d8 86be
000000c0: 0d58 c3bd 24be 0f3d d2a7 41be b88f 113f
000000d0: 1694 1fbd 5298 de3d 4b94 20be cd7c 803e
000000e0: 8b3f 2abe ad7a c03c 11be 983d eda9 253e
000000f0: f19a 9abe da02 a3be 5c42 703e 5a76 f5be
00000100: 555c b2bd 2aa8 133e b412 10bd 1e9c 293e
00000110: 43c7 0e3f f41e 00bf 4cfb 57bd 6e47 a43e
00000120: f20f ddbe 915a 263e b81b 6f3f c7f0 d53e
00000130: d2b9 9a3e 29ba cf3d 2d0b 203c d73b 2b3e
00000140: d3de b53d 0305 8e3e 09a1 f1be e217 17bf
00000150: 258f 783e 1887 023b 6ae2 bb3e 393f 8fbd
00000160: cfe8 6bbf 9820 09bf 5e87 4dbe 5ac3 4a3d
00000170: c2f2 fdbc 9d8b adbe 1c2d 05be e17d 04bf
00000180: 356b 4ebc 900c 5abe a033 c03d 6e04 0d3f
00000190: 43b2 093f 637e e53e 456f 69be 64ef 7e3f
000001a0: bb5f a63e f79b 623f 9452 433f f032 fbbe
000001b0: f255 0c3d 4b5a e13d 4ccd 04bd 484c c13e
000001c0: ce36 a53d cb7a f9bd 2a96 3b3c a68a db3d
000001d0: 2bc2 c93c 6979 f8be 3d79 06bf 89a4 aabe
000001e0: 9f28 8d3e 08aa b4be fbc4 873d a586 1fbf
000001f0: 952c 043f c63b 13bf 497a a5be b92b 2e3f
00000200: 9cff 31be aa56 69be 724c bbbd 8497 4fbe
00000210: 2c9b 893e 9eed 463f 9dcd 093e 7dd5 fdbe
00000220: 5b00 b9be b19e ec3d 13ce 15be a557 15bf
00000230: da87 d8be 5d05 84be 70dd 69be fe85 02bf
00000240: 9a91 2cbe 2b67 4fbf 1018 813e cb7b 6b3e
00000250: fb62 52be 615c 24bf bd9a 93be 7205 cfbe
00000260: 8951 2b3f e9db 08bf b7e3 f33d 737b 603e
00000270: d637 693f 9c47 833e 36cb 8e3e 06fc e53e
00000280: ce6e a1be 8fb9 d5bd c0aa b8be fae5 f33b
00000290: 3936 41bf 998f ac3e 74b9 923c 3995 433f
000002a0: aad3 1bbf 83a0 cb3d 59db 43be c39a 473e
000002b0: 6e32 283f 9947 743f 47d2 babe f213 0f3e
000002c0: 2657 923e d99f 813e 69c4 8d3d 3086 a8be
000002d0: edc7 083f a881 053e 187f 8c3e b011 893e
000002e0: ad09 863e 6527 5a3d f958 e4be 192b 903e
000002f0: 89bb 513d 5710 68be 98c8 cbbe 8716 dd3e
00000300: bc56 a93e 7575 523f 54dd 23be f8d0 253e
00000310: 1d98 f53d 6e6a 95be d7ff ec3e 7fbc e73d
00000320: 1828 3abf 45af 4cbf 75dd 683e 818a b73d
00000330: c370 98be 3e68 debe 6204 34bf f383 043c
00000340: 602b 043f 2267 27bf 4dc1 62bd bf4b bfbe
00000350: 83f8 97bc 3b49 213f b8e9 e53d 121f 2cbe
00000360: 64d9 1bbf 8996 6a3e a0fc 9f3e b0ab a13e
00000370: f30b 6a3c 259d 9cbe 9b22 3cbf 0751 843d
00000380: 7f6e b4bd c996 e83e cf8b c83e 207d b4be
00000390: a2ea 3a3d 1044 4c3e f0ac d03e fd39 bf3e
000003a0: d179 863d 1b67 a4be bb15 bc3e d933 8a3e
000003b0: 9194 8e3e b39d 0c3e 0e42 b5be f155 bcbc
000003c0: 0bdc 70bf c2db 0e3d 8296 01be 534e dbbc
000003d0: b298 d13e 32d8 35be f591 ca3e f926 00be
000003e0: 717e 6d3d 0a41 743e 3929 33bf 5450 ffbe
000003f0: 0047 6ebe 65f8 cdbe ead6 08bf eceb 213e
-0.29534507 0.549422 -0.18453367 -0.15744656 -0.075429276 0.30870378 -0.08574802 0.0754559
-0.672036 0.48050672 -0.4113499 1.1943969 0.63425714 0.029644962 0.16445543 0.11584298
-0.58910006 0.40383866 -0.23068516 -0.3153029 -0.7936096 -0.76892275 0.40834272 -0.7219009
-0.19598518 0.5591626 0.2228268 -0.1463634 0.77865714 0.15564719 -0.4809117 -0.56242746
-0.0032351934 -0.031125039 0.33747095 0.030174509 0.6901365 -0.13085565 -0.62603545 -0.08236996
0.46569714 -0.054413117 -0.028547235 -0.12656142 0.30798438 0.42652237 -0.28400967 -0.2633667
-0.09538279 0.03509344 -0.18911675 0.5685992 -0.038959585 0.108688965 -0.1568157 0.25095215
-0.16625802 0.023495996 0.07458127 0.16178103 -0.30196336 -0.31838113 0.23462814 -0.47941858
-0.08709017 0.14419618 -0.035174087 0.1656346 0.557728 -0.5004723 -0.05272989 0.32085747
-0.43176228 0.16245486 0.9340167 0.4178526 0.30219895 0.10142929 0.0097682895 0.16722046
0.08880391 0.277382 -0.47193173 -0.5902082 0.24273355 0.0019916948 0.36696178 -0.06994481
-0.9215211 -0.5356536 -0.2007117 0.049502708 -0.030999545 -0.3389558 -0.13005489 -0.51754576
-0.012598802 -0.21293855 0.09384847 0.55084884 0.5378763 0.44822988 -0.22796352 0.9958403
0.32494912 0.88519233 0.7629788 -0.490623 0.03426165 0.1100355 -0.03242235 0.3775351
0.08067094 -0.12181624 0.011449376 0.107198045 0.02462872 -0.4853013 -0.52528745 -0.33328655
0.27570054 -0.35285974 0.06629368 -0.62314826 0.51630527 -0.5751308 -0.3231986 0.68035465
-0.17382663 -0.22786966 -0.0914544 -0.20272642 0.268762 0.77706325 0.13457341 -0.4957694
-0.36133084 0.115537055 -0.14629392 -0.5833686 -0.42291147 -0.25785342 -0.22838378 -0.50985706
-0.16852418 -0.81016797 0.2521367 0.22996442 -0.2054557 -0.6420346 -0.28828993 -0.40433842
0.6692129 -0.53460556 0.119086675 0.21922092 0.91100824 0.2564057 0.27889413 0.4491884
-0.3152985 -0.10435783 -0.36067772 0.007443187 -0.7547336 0.33703306 0.017910697 0.7639957
-0.6086985 0.099427246 -0.19126643 0.1949263 0.6570195 0.9542175 -0.36488554 0.13972452
0.28582114 0.25317267 0.06922228 -0.32914877 0.5343006 0.13037741 0.27440715 0.26771307
0.26179257 0.053260226 -0.4459913 0.2815788 0.051204238 -0.22662483 -0.39801478 0.4318125
0.33073986 0.82210475 -0.16002399 0.16192997 0.11991904 -0.29182762 0.4628894 0.1131525
-0.7271743 -0.7995494 0.22740729 0.089619644 -0.2977353 -0.43438905 -0.7031919 0.0080881
0.51628685 -0.65391743 -0.055360127 -0.37362477 -0.018551117 0.63002366 0.11226219 -0.16808727
-0.60878587 0.22908987 0.31247425 0.315763 0.0142850755 -0.30588642 -0.73490304 0.06460767
-0.08810138 0.4542754 0.39169165 -0.35251713 0.04563392 0.19947839 0.4075694 0.3734893
0.065662034 -0.32109913 0.3673533 0.26992682 0.27847722 0.13732032 -0.35401958 -0.022990199
-0.9408576 0.034877546 -0.1265507 -0.026770746 0.4093681 -0.17758253 0.3956448 -0.12514867
0.057981912 0.23852935 -0.69984776 -0.49865973 -0.23269272 -0.40228572 -0.5345293 0.15812653

transformer.attn.proj_v.bias f4 [72]
00000000: 2d64 953e 4a67 393c 1e04 163e f1f6 a6be
00000010: 41b5 0b3e 5264 bcbc d2b1 5b3e c517 a53d
00000020: 7684 083e 0236 3d3e 1410 133c c29a 94be
00000030: 5e43 1a3e 799e 0bbe 4a7d 70bd 0216 533e
00000040: 639c a3be ff09 c0bd 057c 56bd 8121 b1be
00000050: 2318 9abe a784 353c b5d3 a13d ab19 a63d
00000060: ddb6 41ba de5b a8bd 81f0 db3d 14f1 edbc
00000070: c7af bcbd 026d 893d 6cc0 b83c 5d39 efbd
00000080: b089 89bc ee81 4d3d 7ca1 bbbc 9cd9 783e
00000090: 664c 2e3e 2f30 a63e a878 6fbd 17b8 02bc
000000a0: 751a 3dbb 62c5 393e 8b14 87bc 05e5 06be
000000b0: bdf7 8e3d 0650 543e 40ee 40be 1f10 0bbe
000000c0: e774 f3bc bd01 78be 9d85 283e c10b de3c
000000d0: d2d7 07bd 127c 26be 0315 023d ab04 efbd
000000e0: 2612 a2bd 6170 2b3c 399e 34bc 915d fbbc
000000f0: 8da7 67bc 5911 103e c378 a2bd 41bf 85bd
00000100: f0a1 f83d a0f2 9fbd 50d0 573e 7758 06bd
00000110: 9138 d0bb 9da5 0abe 08d0 5b3d c8b0 5f3d
0.2917799 0.01131613 0.14650008 -0.32610276 0.13643362 -0.022997055 0.21454552 0.08061174
0.1333178 0.18477634 0.008976001 -0.2902432 0.15064761 -0.13634671 -0.058713235 0.20613864
-0.3195525 -0.093769066 -0.052364368 -0.34595874 -0.3009654 0.01107899 0.07901708 0.081103645
-0.00073896145 -0.08220647 0.10739232 -0.02904562 -0.09213214 0.06710245 0.022552691 -0.11680863
-0.016789287 0.05017274 -0.02290415 0.24301761 0.17021331 0.32458636 -0.058464676 -0.007978461
-0.002885488 0.18141702 -0.016489288 -0.13173302 0.06980846 0.20733652 -0.18840885 -0.13580368
-0.02971883 -0.24219413 0.1645722 0.027105214 -0.033164807 -0.16258267 0.03175832 -0.11670812
-0.07913618 0.010463805 -0.011024051 -0.030684264 -0.014139068 0.14069118 -0.0793319 -0.065306194
0.12140262 -0.07809949 0.21075559 -0.03279921 -0.0063543995 -0.13539739 0.05366519 0.05461195

transformer.proj.weight f4 [72, 72]
00000000: 522f 743f 226a 4b3e 2020 54be dd61 fe3e
00000010: 2b24 43be 4437 b1bd 7d09 46bd 1760 493f
00000020: c724 17be d628 75bd be53 653e b70d a6be
00000030: a490 95be d01f c1be 4fbe 7dbd 75bc dfbe
00000040: 7bb1 21bf 7c0c ca3e 5498 14be dc01 c8bc
00000050: 0bee fd3e a2f2 fcbe 356e 56bc 5f53 debe
00000060: eb06 fa3d 557b 92be 6365 083d 89da 01be
00000070: fcb0 eebe cbd1 e4be ade8 a13d fefd e23e
00000080: 4ded 3fbd 32b7 15be 5112 283c 2a6c 94bc
00000090: 5f3a 8e3e 250b 103d ed50 653e 8b95 cbbd
000000a0: ede7 933e d883 283e 24ce 12bf e65d c93e
000000b0: 6b44 ba3d 6700 063e b91d de3d 6491 f6bd
000000c0: 4c49 d83e 18a3 bc3d 9d18 9a3e 7e56 ec3b
000000d0: 7489 533f 9767 b6be 96b0 0abf 75ed 183f
000000e0: 3f70 57bf b3d2 ab3e c496 bebe 183c 083f
000000f0: d695 b9be 89fe 7b3e b31d 8c3c 3773 a63e
00000100: 4905 d73d e9b6 11be 0fa8 96be 73cd 6d3b
00000110: 5536 1e3e cb94 cb3e 3d52 cf3d 196d f0be
00000120: fc71 e7bd 97e6 693f d4ab 0f3f e045 3abe
00000130: 95b6 69be a9a9 82be ab95 ecbd b117 39be
00000140: d6c2 4a3c c430 223e 48a5 0a3e 7207 63bf
00000150: 0280 72bd 5898 4b3e 2c14 f1bd 9ce4 52be
00000160: b1a9 86be b3ed 87be f86b 853d 2422 b3be
00000170: e419 27bf 1d98 a73e c483 00bf 55b4 0a3c
00000180: 8798 633e 0bf8 81be 86b1 efbe e559 4c3d
00000190: 019c bdbd 31e6 22be 98b6 05bf 006c a6be
000001a0: 3bd7 9bbd 3f1f 6f3e 0cb6 b2be 7013 11be
000001b0: 1d38 02bf 5fcb f63e 20c5 b73e 9001 7bbe
000001c0: 17b8 d43e 76ff 6abd d26c 6b3f 982f 973e
000001d0: 965b 24bd 897c 98be 7e1d c13d f378 7dbe
000001e0: 80f4 41be 2826 19bf f574 3d3e 9ac4 fa3d
000001f0: cd26 03bf 1826 11bf 93ef 503e d666 5cbd
00000200: d229 d5bd 1eba 023f b059 29bf 2ac8 3bbf
00000210: 3b8a 50bd adfa 0d3f a26e 1abd a540 13bd
00000220: d275 33bf 3269 dcbe 39a7 b83e 6ee8 313d
00000230: 8ddd b0bd 4c83 00be 250c 813d 437a dd3e
00000240: 3226 1bbd a321 e6bd 751c 6e3f 4d56 073d
00000250: 3f82 0c3d 8a17 513e 3828 34be 83e7 e5bc
00000260: ae25 123f 05ec f8bc 7faf 7b3d 7e75 0e3f
00000270: 6e50 253e 67bc 1f3e ff2c 0dbf 99c3 cd3e
00000280: b68c c13e a7b0 493e 9a65 a23e 7be8 1abc
00000290: ce10 35be d11b b83e 969e 2fbe aacd 3dbc
000002a0: 5682 0fbe 8913 723d 30be 853e 40f8 83bd
000002b0: 7652 723c e903 c0be b390 693d 4f8e 42bf
000002c0: 33ad 86be e991 c43e 3307 6fbe 5f6f 90be
000002d0: ac48 bc3e 9133 f63e 99de 62be 7e84 6e3e
000002e0: 1a82 e4be a39f 853e e805 df3d bff2 44be
000002f0: aa3f 82be d88f 3a3e f7da 773c cc87 663c
00000300: e360 bdbd d4f8 73be 509a 6cbe 93e6 01be
00000310: f6e9 a83e c625 993e fe1d 86be 1b29 9b3d
00000320: 2b0d 4fbe 49f7 f7bb 5fbb 35bb f237 eabe
00000330: b3ca a0be 5901 e03c c889 0dbf 8acc aebd
00000340: 4bcc 53be 9d9d aabe 0b81 093f e969 343b
00000350: ec80 fb3e f2a5 643c af34 92be 4d77 49bd
00000360: 5e05 8d3e e734 da39 c1b8 8dbe 2a27 793f
00000370: 648a 41be c678 0fbe 9989 efbd 0020 583b
00000380: 1007 4d3e 002c 943e 9fb0 213e 683e 2ebe
00000390: 0772 dfbc 31f9 88be 604c 22bf 62eb 883e
000003a0: c60b 42be 2203 803d f142 85bc 5ff5 ccbc
000003b0: 2a47 bbbe f81f b63e bea9 4d3d 0bca 95be
000003c0: 034c 263e 7872 333e 5371 75be d260 e03e
000003d0: 581c ad3d f51a 94be 8662 81be db66 a13e
000003e0: 7de4 8dbe c992 6c3e 6f8f 96bd eb25 dabd
000003f0: 8caa 81be dc5f 283e 4189 a8be 8534 983c
0.95384705 0.19864705 -0.2071538 0.4968404 -0.19056766 -0.08653119 -0.048348892 0.78662246
-0.14760123 -0.059853397 0.22395226 -0.3243234 -0.29211915 -0.37719584 -0.06194907 -0.4369847
-0.6316144 0.3946265 -0.14511234 -0.02441495 0.49595675 -0.49403864 -0.013087799 -0.43422982
0.12208351 -0.2860972 0.033299815 -0.12681021 -0.46619403 -0.4469131 0.079057075 0.44334406
-0.046857167 -0.14620665 0.010258273 -0.018117983 0.2777891 0.03516688 0.22394152 -0.099406324
0.28887883 0.16456544 -0.57345796 0.3932945 0.09095081 0.13086091 0.10845513 -0.1203945
0.4224342 0.09210795 0.30096903 0.007212459 0.8263161 -0.35625908 -0.541757 0.5973733
-0.8415565 0.33559188 -0.372244 0.53216696 -0.36247128 0.24608816 0.017104005 0.32509777
0.10499055 -0.14229931 -0.29425094 0.0036285787 0.15450414 0.39761958 0.101231076 -0.46958235
-0.11301038 0.9136748 0.56121564 -0.18190718 -0.22823556 -0.25520065 -0.115519844 -0.18075444
0.012375554 0.15838915 0.13539612 -0.88683236 -0.05920411 0.19882333 -0.117714256 -0.2059502
-0.2630134 -0.26548538 0.06514734 -0.34986985 -0.6527388 0.3273324 -0.5020106 0.008465846
0.22226153 -0.25384554 -0.46815127 0.049890418 -0.09258271 -0.15908124 -0.5223174 -0.32504272
-0.07609411 0.23351763 -0.34904516 -0.14167571 -0.5086687 0.48202035 0.35892582 -0.24512315
0.415467 -0.057372533 0.9196292 0.295285 -0.040126406 -0.29782513 0.09429453 -0.2475317
-0.18940926 -0.59823847 0.18501647 0.1224453 -0.5123108 -0.5669875 0.2040389 -0.05380901
-0.10408367 0.5106524 -0.6615248 -0.733523 -0.050913077 0.55460626 -0.037703164 -0.03595032
-0.70101655 -0.43049008 0.3606508 0.043434553 -0.086360075 -0.12550086 0.063011445 0.4325734
-0.037878223 -0.112368844 0.9301217 0.033041287 0.0343039 0.20419136 -0.17593467 -0.028064495
0.57088745 -0.03038598 0.061446663 0.5564803 0.16143963 0.15599214 -0.55146784 0.40188292
0.37802666 0.19696294 0.3171814 -0.009454842 -0.17682192 0.35958722 -0.1715034 -0.011584679
-0.14014563 0.05910066 0.26121664 -0.06443834 0.014790168 -0.37502983 0.05702276 -0.75998396
-0.26304016 0.3839257 -0.2334259 -0.2820997 0.36774194 0.48086217 -0.22155227 0.2329273
-0.4463051 0.26098356 0.108897984 -0.19233225 -0.25439197 0.18218935 0.015127889 0.014070462
-0.09246995 -0.23825389 -0.2310574 -0.12685613 0.32990998 0.2991163 -0.26194757 0.075761996
-0.20219867 -0.0075673205 -0.002773009 -0.45745808 -0.31404647 0.027344393 -0.5528836 -0.085351065
-0.206834 -0.33323374 0.5371253 0.0027528948 0.49121797 0.01395558 -0.2855582 -0.04918604
0.27543157 0.00041619616 -0.2768002 0.97325385 -0.18900448 -0.14010915 -0.116961665 0.0032978058
0.20022225 0.2893982 0.15790032 -0.17015994 -0.027276052 -0.26752618 -0.6339779 0.26742083
-0.18949804 0.062505975 -0.016267272 -0.025019346 -0.3657773 0.35571265 0.050210707 -0.2925571
0.16239934 0.17524135 -0.23969011 0.43823868 0.08452672 -0.28926817 -0.2527048 0.31523785
-0.27713385 0.23102869 -0.073515765 -0.106517635 -0.2532543 0.16442817 -0.32917216 0.01857973

transformer.proj.bias f4 [72]
00000000: 27b1 9b3f 9822 043d 2ff9 eb3e f643 a7bf
00000010: bb46 07bf c3a3 1a3e be7f e33e f43e 153f
00000020: c191 d23e c924 3d3e f050 6a3f 92ef 8abf
00000030: 660b 773f 5bc8 2a3f 9ad1 57bf ea0c 37be
00000040: bf62 d5be 4645 563f f60a 6d3e 4d83 87bf
00000050: 8cd2 a2bf da66 863e 02d1 023e 1ca0 1e3f
00000060: e196 d1be a52a dd3c 6386 35bf a341 b73e
00000070: f024 a7be 497a 873e 4be0 a53e 72ff b2bd
00000080: 4aa5 063f 5748 eebc 47b0 a23e c56e 653f
00000090: a805 f9be 865b 343f 87e4 eebe 9a32 06be
000000a0: 337f 6a3c 1e29 5bbf 0a81 e23e cf68 17bf
000000b0: e1a1 76bf 616b 323f 6260 bfbc a4ff 6abf
000000c0: 506a 68bf a3f8 80bd c094 92be 7424 f23d
000000d0: ca39 4ebf 89b7 813d 162e e33e 6c1b 59be
000000e0: 18e9 1dbe 3804 89be 5637 e93e 398c e4bc
000000f0: 727c e93e a84a 64bf e8cd 2a3e 793f 8d3e
00000100: ee52 893f ce8c b3bd 4098 d13e 5928 893f
00000110: a7f1 01bf 58a7 43bf b8a4 9a3f 8160 e2be
1.2163438 0.032259554 0.4608855 -1.3067615 -0.528423 0.15101533 0.44433397 0.58299184
0.41126826 0.18471064 0.9152975 -1.0854361 0.9650177 0.6671197 -0.843042 -0.1787602
-0.416769 0.8369945 0.23148713 -1.0586945 -1.2720504 0.26250345 0.12775043 0.6196306
-0.40935424 0.026997874 -0.7090818 0.35792264 -0.3264537 0.26460484 0.32397684 -0.087401286
0.5259596 -0.029087229 0.31775114 0.89622146 -0.48637128 0.70452154 -0.46658728 -0.1310524
0.014312553 -0.85609615 0.44239074 -0.591443 -0.9634076 0.696951 -0.023361389 -0.91796327
-0.9078722 -0.06297424 -0.28629112 0.11823359 -0.8055693 0.06333835 0.44371098 -0.21201867
-0.1542095 -0.2676103 0.4555003 -0.027898895 0.45602757 -0.89176416 0.1668011 0.27587488
1.0728433 -0.08767091 0.4093647 1.0715438 -0.5075936 -0.7642722 1.2081518 -0.44214252
